data/checkpoints/62-3-TZSxUz/ckpt.3905.pth (torch, 579260 bytes, 52 tensors)

actor_module.module.0.weight f4 [128, 10]
0.009672301 -0.0986618 -0.07471646 -0.022940386 -0.05054592 -0.12811562 -0.22044115 -0.09869237
-0.02049219 0.31493992 0.093825646 -0.23150977 0.08380667 0.17502245 -0.009726381 0.039094225
0.24674042 -0.02761354 0.0025784487 -0.023894565 -0.21674462 0.030119943 0.20688944 0.046768397
-0.029442178 0.15106541 0.030699812 -0.05945171 -0.11447125 0.11311915 -0.17182656 -0.09321589
0.2556548 -0.18947425 0.060480293 -0.14791223 -0.012286512 -0.088820994 -0.02035555 0.08251963
0.15260395 0.10936233 -0.017370591 0.041172247 -0.1373882 -0.19781971 0.10906094 -0.014642702
-0.0032682691 -0.00436875 0.043316435 0.12488037 0.23980519 -0.0313735 0.042061236 0.0041516437
-0.067461714 0.088911586 -0.18195884 0.04594852 0.037238616 -0.21739246 0.028661612 -0.12912016
0.0149021195 0.032927305 0.12725374 -0.08241983 -0.11619106 0.28950614 0.075867414 0.24330465
-0.10728301 -0.0033729707 0.17073816 0.18656783 0.19939493 0.037498694 -0.04351432 -0.07618626
0.037511438 -0.11985616 -0.040763393 -0.067511566 0.13415226 -0.104434274 0.05110778 -0.03286061
0.115142584 0.13398239 -0.0023631137 0.042019688 0.10424722 -0.18836941 0.05123777 0.08083551
-0.15409327 0.08369883 -0.07294466 0.0090613775 0.13168006 0.28878495 -0.09664011 0.10753276
0.14555247 -0.20282084 -0.120399565 -0.09614151 0.050455265 0.21549134 0.32904938 -0.04040172
0.086958155 0.059282925 -0.034352396 0.15934686 -0.025768228 -0.025627082 -0.1226592 -0.023856986
0.09357215 -0.13827987 0.068541005 -0.089523874 0.07838158 0.03472969 0.15235044 -0.0060662976
0.1340178 0.10128341 0.061936144 0.011665491 -0.11084512 0.13429205 0.008338072 -0.031679336
0.031471435 -0.020068688 0.10919134 0.10078221 -0.07014559 -0.16368656 0.017260758 0.0895952
-0.085014604 -0.050201852 0.03721329 -0.066451505 0.08682963 -0.2506982 0.016457288 0.16426384
0.021612076 -0.0071382183 -0.25756833 0.032393135 0.03846536 -0.10143479 -0.17617032 0.02620512
0.24396987 0.0845267 -0.032922868 0.011544502 0.017385282 -0.022336692 -0.010884358 -0.13131005
-0.0024757888 -0.19963424 -0.05628268 -0.0040055355 0.07971248 0.004259911 -0.021382093 0.1449487
-0.04332893 0.2505202 0.104338385 -0.11772051 0.00748526 0.05202557 -0.15294962 -0.07987865
0.118789665 0.090576515 0.043769326 -0.22958282 -0.06985251 -0.0017165887 -0.15755984 0.30818152
-0.17058723 -0.09618584 -0.096907265 0.03542574 0.14025374 0.040286683 -0.012145947 0.122728996
0.07413926 0.18966861 -0.09886333 -0.14235704 0.060026426 -0.19740543 0.09757605 0.22168618
-0.20724553 0.1317561 -0.009550594 0.01692619 0.07632293 -0.11263059 -0.1259213 -0.05610487
-0.26966003 0.031225558 0.18239997 -0.1895066 0.08258277 -0.20498258 -0.06930488 0.06656359
-0.08994181 -0.08564363 0.059695393 0.098876916 0.10470509 0.061 -0.09901796 -0.22265142
-0.18738642 -0.15015544 -0.011781656 0.17524415 -0.080598444 -0.021647502 0.14650597 -0.039585777
-0.24479184 -0.014580876 -0.07328093 -0.044324942 -0.24580505 0.2148487 -0.17735384 -0.042676814
0.097992234 -0.07922909 -0.11446736 -0.28583407 0.11761372 0.078754514 -0.06392913 -0.31831747
00000000: 9278 1e3c 330f cabd f204 99bd 7aed bbbc
00000010: 3d09 4fbd be30 03be 53bb 61be 3a1f cabd
00000020: 3ddf a7bc ce3f a13e a927 c03d e610 6dbe
00000030: d5a2 ab3d 1639 333e 665b 1fbc 4421 203d
00000040: 85a9 7c3e ca35 e2bc 31fb 283b 89be c3bc
00000050: 4df2 5dbe 19be f63c d3da 533e 3890 3f3d
00000060: b930 f1bc e4b0 1a3e 2c7e fb3c a383 73bd
00000070: e76f eabd 03ab e73d 4df3 2fbe f9e7 bebd
00000080: 30e5 823e 8a05 42be 2fba 773d 4e76 17be
00000090: 5e4d 49bc c8e7 b5bd afc0 a6bc 0d00 a93d
000000a0: 3644 1c3e 5bf9 df3d c54c 8ebc 3ba4 283d
000000b0: 7eaf 0cbe 4091 4abe 585b df3d f2e7 6fbc
000000c0: 7530 56bb bb27 8fbb 936c 313d 48c1 ff3d
000000d0: 7e8f 753e 8081 00bd 6748 2c3d 830a 883b
000000e0: 5e29 8abd 4717 b63d 6b53 3abe 8434 3c3d
000000f0: 8587 183d 219c 5ebe c2cb ea3c 1338 04be
00000100: 0528 743c c8de 063d ce4e 023e bacb a8bd
00000110: 94f5 edbd 263a 943e 6060 9b3d db24 793e
00000120: 32b7 dbbd 0f0d 5dbb fcd5 2e3e a30b 3f3e
00000130: 2f2e 4c3e 3b98 193d 123c 32bd 8b07 9cbd
00000140: 98a5 193d 2577 f5bd 84f7 26bd 8143 8abd
00000150: 365f 093e a3e1 d5bd 6456 513d d998 06bd
00000160: e0cf eb3d ae32 093e 78de 1abb d61c 2c3d
00000170: 917f d53d e9e3 40be b2de 513d 168d a53d
00000180: a0ca 1dbe 4b6a ab3d 0364 95bd 2c76 143c
00000190: 23d7 063e 9fdb 933e 40eb c5bd 233a dc3d
000001a0: b50b 153e 44b0 4fbe 0c94 f6bd d7e5 c4bd
000001b0: 2eaa 4e3d c3a9 5c3e 2979 a83e 467c 25bd
000001c0: 1e17 b23d a7d2 723d 19b5 0cbd d32b 233e
000001d0: e417 d3bc e3ef d1bc bf34 fbbd ba6f c3bc
000001e0: c1a2 bf3d 3d99 0dbe 3a5f 8c3d 4b58 b7bd
000001f0: 8686 a03d b840 0e3d c101 1c3e cbc7 c6bb
00000200: f63b 093e ad6d cf3d c1b0 7d3d 9e20 3f3c
00000210: c402 e3bd db83 093e 699c 083c 31c2 01bd
00000220: 31e8 003d 1767 a4bc b69f df3d e766 ce3d
00000230: 7ea8 8fbd 739d 27be 6f66 8d3c b07d b73d
00000240: 231c aebd 75a0 4dbd f66c 183d ba17 88bd
00000250: bcd3 b13d 845b 80be 6fd1 863c c834 283e
00000260: cf0b b13c b7e7 e9bb ffdf 83be aaae 043d
00000270: da8d 1d3d 0bbd cfbd fe65 34be 1fac d63c
00000280: 3dd3 793e 561c ad3d 21da 06bd 2725 3d3c
00000290: 946b 8e3c 70fb b6bc 4e54 32bc 2476 06be
000002a0: d840 22bb eb6c 4cbe ab88 66bd de40 83bb
000002b0: 4c40 a33d b996 8b3b 8029 afbc 6f6d 143e
000002c0: ad79 31bd 2f44 803e 5daf d53d 7317 f1bd
000002d0: e946 f53b c418 553d d39e 1cbe 6b97 a3bd
000002e0: ff47 f33d 2e80 b93d 7747 333d c217 6bbe
000002f0: d50e 8fbd 29ff e0ba 5e57 21be f8c9 9d3e
00000300: 6bae 2ebe 15fd c4bd 5177 c6bd 951a 113d
00000310: ad9e 0f3e a603 253d cbff 46bc 5759 fb3d
00000320: 53d6 973d 7d38 423e dc78 cabd 0bc6 11be
00000330: 45de 753d a624 4abe f4d5 c73d b401 633e
00000340: 2c38 54be 12eb 063e 187a 1cbc cba8 8a3c
00000350: 324f 9c3d deaa e6bd 83f1 00be 38ce 65bd
00000360: e110 8abe becc ff3c 0fc7 3a3e 050e 42be
00000370: 2821 a93d f4e6 51be b8ef 8dbd 7e52 883d
00000380: 6933 b8bd ed65 afbd 2883 743d fb7f ca3d
00000390: 9f6f d63d 23db 793d eec9 cabd bcfe 63be
000003a0: 3ae2 3fbe 59c2 19be d907 41bc 3473 333e
000003b0: cc10 a5bd 1a56 b1bc a905 163e b224 22bd
000003c0: b6aa 7abe a0e4 6ebc 5014 96bd 128e 35bd
000003d0: 52b4 7bbe 4c01 5c3e 3f9c 35be e2cd 2ebd
000003e0: 27b0 c83d dc42 a2bd dd6d eabd d858 92be
000003f0: 76df f03d 0c4a a13d 47ed 82bd 82fa a2be

actor_module.module.0.bias f4 [128]
-0.0029990636 -0.00095114525 -0.0027945733 0.005414206 0.0008586971 0.000611265 0.0077294903 0.004598783
-0.003192222 -0.00037008288 0.0051875366 -0.0033929439 0.01019391 -0.0012294354 0.0035940632 0.002997719
-0.0025992913 -0.003180798 0.009392885 -0.006986641 0.0020078872 0.0002122449 0.0030162225 0.0026025614
0.0036143386 -0.00021835713 -0.0011916999 0.0020146102 -0.0015980792 -0.00039698248 0.0050119115 0.0009952931
-0.0057671294 0.0049350555 0.0065980926 -0.00409434 0.000597171 0.0027990232 1.0726442e-05 0.00787689
0.0022147906 0.0049874554 -0.0016185862 -0.00034370922 -0.0060063335 -0.0009964462 0.00084018096 -0.002406305
-0.005797272 -0.0012847274 0.0054006875 -0.0026228924 -0.0065952167 -0.0013878517 -0.004011502 -0.0073939227
0.003565686 0.00879984 -0.0013936675 -0.0028326898 0.0020047314 0.0044371295 0.0049960976 -0.0030129764
0.0018113904 0.00060556806 -0.0048133135 0.0033855338 -0.0011670592 0.0027919093 0.0049578636 0.0044029537
0.0052090604 -0.013808347 -0.0042124707 -0.0068094153 -0.00040409574 -0.0006380838 8.998877e-05 -0.0047888346
-0.0033821529 0.0022020692 0.00081316684 0.0040148078 -0.006442488 -0.007598162 0.0003968838 -0.0020151646
0.0007591397 -0.0028083269 0.0022112036 -0.007978521 -0.0029947679 -0.0034282824 0.005794854 -0.0017912836
0.0054082987 0.0017853397 -0.0028133462 0.00020865173 -0.0031218294 -0.00080377824 -0.00040563816 0.004388293
-0.00034048906 -0.00060694164 -0.0014069044 0.001011032 -0.0028021117 -0.0074098594 -0.0012054073 -0.0022012293
0.0070662317 -0.0007797622 0.0023926112 0.0014007549 -0.001776548 -0.004761643 -0.00020322566 0.0020046467
-0.006378015 0.0016115223 -0.002997786 -0.0040103705 -0.001384276 0.0017961935 1.6692793e-06 -0.008802857
00000000: f08b 44bb 4756 79ba 2925 37bb a769 b13b
00000010: 301a 613a 4d3d 203a aa47 fd3b 63b1 963b
00000020: 9934 51bb af07 c2b9 36fc a93b 275c 5ebb
00000030: 5c04 273c 0225 a1ba 608a 6b3b 6175 443b
00000040: df58 2abb ef74 50bb 9de4 193c 31f0 e4bb
00000050: c296 033b 0e8e 5e39 d1ab 453b bc8f 2a3b
00000060: 8ade 6c3b ccf6 64b9 d032 9cba 8d07 043b
00000070: a476 d1ba 1622 d0b9 f63a a43b 7f74 823a
00000080: 30fa bcbb 3fb6 a13b d034 d83b d029 86bb
00000090: 788b 1c3a d16f 373b b8f5 3337 120e 013c
000000a0: 0526 113b cf6d a33b be26 d4ba df33 b4b9
000000b0: c7d0 c4bb 309b 82ba 973f 5c3a 19b3 1dbb
000000c0: 0bf7 bdbb 4c64 a8ba 40f8 b03b d5e4 2bbb
000000d0: b01c d8bb 93e8 b5ba eb72 83bb b848 f2bb
000000e0: 49ae 693b 342d 103c b9ab b6ba a6a4 39bb
000000f0: d061 033b 5765 913b 4eb6 a33b 5b75 45bb
00000100: 2d6c ed3a fcbe 1e3a 00b9 9dbb d5df 5d3b
00000110: 02f8 98ba 77f8 363b 9375 a23b a746 903b
00000120: c4b0 aa3b 683c 62bc c408 8abb 8421 dfbb
00000130: d0dc d3b9 1445 27ba 5ab8 bc38 a8eb 9cbb
00000140: 1ca7 5dbb 9750 103b b42a 553a a68e 833b
00000150: 821b d3bb 01fa f8bb d814 d039 da10 04bb
00000160: 0101 473a e80b 38bb d7e9 103b 58b8 02bc
00000170: de43 44bb 09ad 60bb c2e2 bd3b 81c9 eaba
00000180: 1938 b13b 0f02 ea3a 1e60 38bb 86c9 5a39
00000190: 9b97 4cbb a5b4 52ba d5ab d4b9 abcb 8f3b
000001a0: ab83 b2b9 2a1b 1fba e167 b8ba 9b84 843a
000001b0: a2a3 37bb 68ce f2bb c2fe 9dba 8042 10bb
000001c0: d98b e73b f568 4cba 5bcd 1c3b 8999 b73a
000001d0: 0fdb e8ba 8e07 9cbb f918 55b9 6460 033b
000001e0: abfe d0bb b739 d33a 8176 44bb 6d69 83bb
000001f0: 9870 b5ba 416e eb3a 000c e035 dc39 10bc

actor_module.module.2.weight f4 [128, 128]
0.009816951 -0.024774328 -0.24666037 0.13636743 0.15665218 -0.2696877 0.09513211 -0.27172005
0.053921875 -0.29508016 -0.026256373 -0.07669972 0.13538045 -0.0040529217 0.06944545 0.11655824
0.15594454 0.3504575 0.13116328 -0.013020213 -0.039907377 -0.065839864 -0.02998815 -0.056440424
-0.06779913 0.053415503 0.09566858 0.2422454 -0.009192627 -0.0070788786 0.10935674 0.06498263
-0.14777817 -0.1476166 -0.088871315 -0.09731476 0.063255735 0.039176706 0.012987665 -0.0037822244
-0.20492458 0.16088279 -0.022310063 0.06803411 0.11845911 0.14603649 -0.07103865 0.079405785
0.101667866 -0.113991484 0.02296493 -0.15396532 0.082835615 0.13762599 -0.2456796 0.050889794
-0.2330071 0.1033839 0.04755936 -0.1377028 0.08181859 -0.11815862 0.030328635 -0.1498138
-0.23656228 0.13352846 -0.088453665 0.05894504 -0.124958694 -0.11182841 -0.10680547 0.13137896
-0.07528359 -0.113465816 -0.12546468 0.04149179 0.09282774 0.16463698 0.009855985 -0.04973531
0.13404725 0.02081463 0.06894112 0.18349935 -0.029895823 -0.17767255 0.115406066 -0.20206739
-0.26278642 0.14885478 -0.07287857 0.0880014 0.027504833 -0.10370793 0.095831804 -0.009300856
0.035545647 0.19850008 0.12256186 -0.069276206 0.068602465 0.12065238 0.08217747 -0.20735909
-0.13412538 -0.0843832 0.07260126 0.1185116 0.23157914 -0.13154845 -0.12881432 0.0560337
-0.0058430163 0.038489938 -0.2830058 0.01448738 -0.10654591 0.002693928 -0.007828236 0.013954036
0.03796852 -0.08029797 -0.12000119 -0.015144505 -0.033170406 -0.14886001 -0.024235466 0.0060779387
0.2790781 -0.03927344 -0.02137076 0.05747711 -0.14397421 -0.09240745 -0.11195952 0.037858646
0.07938111 0.039433952 -0.03123003 -0.11550245 0.06196814 0.026756732 -0.008700082 0.000588519
-0.11006031 -0.08825987 0.19948596 0.06460716 0.10353509 -0.1081853 -0.044518758 -0.28251728
-0.04630506 0.07051996 -0.12956256 -0.095702454 -0.047970373 0.13179088 -0.23220532 -0.11583456
-0.06306113 -0.069505826 -0.12275945 -0.1717177 0.09526414 0.108898416 0.08743806 -0.004536889
-0.06175825 0.1404795 0.057935145 -0.27146047 0.1611392 -0.08455887 -0.12731077 0.09735162
-0.0038681668 0.24727699 0.0839031 0.0011556528 0.058330003 -0.01634667 0.10655975 -0.12578645
-0.19990091 0.1235372 0.06384367 0.053316016 -0.012056164 0.19822012 0.16824411 0.038227666
-0.057725735 -0.16420104 -0.039444808 -0.05935952 -0.07050895 -0.024399804 -0.082405485 0.23258352
-0.24040188 0.076690555 0.1991515 0.22874191 -0.100858785 -0.05893234 0.035212353 0.2701265
0.22395222 0.29325446 0.115572155 0.049052723 -0.055689733 -0.15764576 0.0017429639 0.10089381
0.043599974 0.055502784 -0.058533926 0.052027907 0.016483672 -0.026987629 -0.16531594 0.029497288
0.19839546 0.065542474 0.097684056 -0.046526305 -0.113584094 0.16865298 -0.04249316 0.2841433
0.14519869 -0.10724844 0.030374855 0.22104444 0.030193822 0.1345717 -0.018629128 -0.19239637
-0.05724222 0.0053291693 -0.044377495 -0.11206883 0.17784275 -0.10874248 -0.014033642 0.101206586
-0.16386543 0.051326714 -0.0006298768 0.0029914612 0.045068286 0.21892709 -0.11196026 -0.082718305
00000000: 47d7 203c 88f3 cabc 8994 7cbe e7a3 0b3e
00000010: 6e69 203e 8214 8abe a0d4 c23d e41e 8bbe
00000020: 2fdd 5c3d bf14 97be 9b17 d7bc be14 9dbd
00000030: 2ca1 0a3e 5fce 84bb 6b39 8e3d 16b6 ee3d
00000040: edaf 1f3e 2a6f b33e ab4f 063e bb52 55bc
00000050: eb75 23bd 0dd7 86bd b5a9 f5bc 132e 67bd
00000060: 45da 8abd 37ca 5a3d e3ed c33d 2e0f 783e
00000070: ac9c 16bc f0f5 e7bb 6df6 df3d 9d15 853d
00000080: 2953 17be ce28 17be 2a02 b6bd f64c c7bd
00000090: 398c 813d c177 203d 37ca 543c 32df 77bb
000000a0: c0d7 51be 75be 243e 98c3 b6bc 7855 8b3d
000000b0: b19a f23d 978a 153e b67c 91bd 809f a23d
000000c0: 3e37 d03d 5e74 e9bd f320 bc3c 16a9 1dbe
000000d0: b8a5 a93d d4ed 0c3e 6f93 7bbe d171 503d
000000e0: 6a99 6ebe f0ba d33d 9acd 423d f601 0dbe
000000f0: 8190 a73d 26fd f1bd c273 f83c ca68 19be
00000100: 623d 72be afbb 083e 3227 b5bd 5b70 713d
00000110: 58ea ffbd 4b06 e5bd d4bc dabd 3588 063e
00000120: 482e 9abd c460 e8bd d079 00be 4cf3 293d
00000130: 781c be3d 9996 283e ff7a 213c 41b7 4bbd
00000140: af43 093e 7183 aa3c 0031 8d3d 41e7 3b3e
00000150: 16e8 f4bc cbef 35be 045a ec3d c1ea 4ebe
00000160: f18b 86be 636d 183e 5c41 95bd 143a b43d
00000170: d151 e13c d364 d4bd 7743 c43d 9e62 18bc
00000180: 5098 113d 9b43 4b3e b601 fb3d afe0 8dbd
00000190: 737f 8c3d 9818 f73d a94c a83d f155 54be
000001a0: 2a58 09be 19d1 acbd f8af 943d 36b6 f23d
000001b0: 1523 6d3e a3b4 06be e7e7 03be 9883 653d
000001c0: c676 bfbb a0a7 1d3d 23e6 90be 7a5c 6d3c
000001d0: be34 dabd 9d8c 303b 0042 00bc 789f 643c
000001e0: e184 1b3d 4373 a4bd 2fc3 f5bd a820 78bc
000001f0: b1dd 07bd c26e 18be 7589 c6bc 7229 c73b
00000200: 53e3 8e3e 30dd 20bd bb11 afbc 1e6d 6b3d
00000210: fa6d 13be 1e40 bdbd 084b e5bd ab11 1b3d
00000220: 9092 a23d 7f85 213d 1fd6 ffbc 8c8c ecbd
00000230: 4ed2 7d3d ef30 db3c ca8a 0ebc d746 1a3a
00000240: 4d67 e1bd 97c1 b4bd 0c46 4c3e c250 843d
00000250: 350a d43d 4190 ddbd 4d59 36bd 1ba6 90be
00000260: 60aa 3dbd c56c 903d 0cac 04be a6ff c3bd
00000270: 957c 44bd 30f4 063e 3bc7 6dbe ab3a edbd
00000280: 3226 81bd 1259 8ebd 4e69 fbbd c4d6 2fbe
00000290: d819 c33d 2206 df3d ba12 b33d 2faa 94bb
000002a0: 38f6 7cbd dcd9 0f3e 674d 6d3d defc 8abe
000002b0: ad01 253e 332d adbd c15d 02be 4960 c73d
000002c0: 1281 7dbb 2e36 7d3e 63d5 ab3d 4679 973a
000002d0: 71eb 6e3d 74e9 85bc 003c da3d 2ace 00be
000002e0: d3b2 4cbe 1201 fd3d 78c0 823d e561 5a3d
000002f0: 3887 45bc 37fa 4a3e 2f48 2c3e 9d94 1c3d
00000300: d271 6cbd 5124 28be e190 21bd f822 73bd
00000310: ff66 90bd 19e2 c7bc 35c4 a8bd 602a 6e3e
00000320: e92b 76be f00f 9d3d 5fee 4b3e 523b 6a3e
00000330: 0d8f cebd 0a63 71bd d43a 103d 054e 8a3e
00000340: bb53 653e 7325 963e 18b1 ec3d 82eb 483d
00000350: eb1a 64bd e46d 21be 2a74 e43a 6aa1 ce3d
00000360: e395 323d e356 633d 45c1 6fbd 371b 553d
00000370: c408 873c 2915 ddbc 9548 29be 4ca4 f13c
00000380: 2e28 4b3e 223b 863d 940e c83d 5e92 3ebd
00000390: c79e e8bd 5eb3 2c3e 4f0d 2ebd 3b7b 913e
000003a0: f7ae 143e 12a5 dbbd b0d4 f83c 7959 623e
000003b0: 0959 f73c 2acd 093e 1d9c 98bc 8e03 45be
000003c0: d176 6abd 50a0 ae3b 2dc5 35bd 5884 e5bd
000003d0: 691c 363e 61b4 debd 5ced 65bc 6645 cf3d
000003e0: 57cc 27be f63b 523d 511e 25ba 640c 443b
000003f0: 8699 383d 6c2e 603e 6c4b e5bd 3768 a9bd

actor_module.module.2.bias f4 [128]
0.0011944614 0.0034166647 0.0020725362 0.003216804 0.0039878767 0.0035990411 0.00077468884 -0.0032089797
-0.0027882706 -0.0052506365 -0.00074393925 -0.0026001092 -0.0025613362 0.0008534802 -0.0009507583 0.0024166806
-0.00018913684 -0.0027255935 0.007992831 0.00042409106 -0.0031992507 0.00078606553 0.000185588 -0.0077670896
-1.0447147e-05 -0.00020380045 7.0970345e-06 0.003814651 -0.0037369167 -0.0059549836 0.0012878504 -0.0024436715
0.003604939 -0.006205124 0.004338814 -0.0007912896 -0.0004294478 0.001393314 -0.0020159387 -0.0028026807
0.0061587673 -0.0063742953 0.007209977 0.0009700202 -0.0047802106 0.0025934426 0.010375476 -0.0026009122
-0.0011528758 0.001646193 0.0041523986 0.009813568 0.0011810286 -0.00059684773 0.004806474 -0.0014122716
0.008794526 -0.010795661 0.0021957755 0.00018718836 -0.0013502409 0.0027953729 -0.00362847 0.0015768028
0.0035924087 0.004785924 -0.0014077444 0.006597207 0.009410784 -0.0075269877 0.00062695786 -0.0008011312
-0.00026267476 -0.005392512 -0.002172379 -0.0030136553 0.0027832692 -0.0034045582 0.0026441652 0.0046005417
-0.011788456 -0.0016081446 0.0012046355 -0.010779154 -0.0015856182 0.0033934917 -0.0061619235 0.0004093384
0.001015408 -0.0037545788 0.00020411934 0.0016027226 -0.0046143834 0.0014037905 0.0024145478 -0.002014846
0.002267538 -0.0018112273 -0.00023914406 -0.0036118936 0.00082643796 0.0027775916 0.0040375176 -0.009792334
-0.0066279243 -0.0034035924 0.0004225577 -0.0018037728 -0.0005732696 0.00040032231 -0.0028182655 0.005383394
-0.003012729 -0.0011916546 0.0021784396 -0.0010271167 0.00060691277 -0.0011991656 0.004976965 0.000739367
-0.0013919767 0.0002968103 0.0030270324 -0.0013970298 -0.0037978634 0.0036605925 -0.0037437398 -0.002164104
00000000: 798f 9c3a 1fea 5f3b 63d3 073b 04d1 523b
00000010: bcac 823b e4dd 6b3b 7d14 4b3a bf4d 52bb
00000020: 6bbb 36bb 880d acbb eb04 43ba 9866 2abb
00000030: 17dc 27bb 16bc 5f3a 4f3c 79ba 2c61 1e3b
00000040: 0953 46b9 df9f 32bb 5df4 023c 8a58 de39
00000050: 85aa 51bb f70f 4e3a 669a 4239 1283 febb
00000060: 2846 2fb7 44b3 55b9 1023 ee36 39ff 793b
00000070: 0fe7 74bb 0622 c3bb 17cd a83a 0126 20bb
00000080: d740 6c3b 5a54 cbbb 9c2c 8e3b 8c6e 4fba
00000090: 8227 e1b9 dc9f b63a d71d 04bb 2ead 37bb
000000a0: 7ccf c93b 77df d0bb ac41 ec3b f448 7e3a
000000b0: 50a3 9cbb bff6 293b e7fd 293c 1174 2abb
000000c0: 181c 97ba 12c5 d73a d810 883b 16c9 203c
000000d0: becc 9a3a c675 1cba a07f 9d3b f91b b9ba
000000e0: ea16 103c 49e0 30bc 00e7 0f3b fe47 4439
000000f0: 91fa b0ba 9332 373b a0cb 6dbb b9ac ce3a
00000100: 9e6e 6b3b 3ed3 9c3b 1084 b8ba 622d d83b
00000110: b02f 1a3c f3a4 f6bb 6e5a 243a 0103 52ba
00000120: 9cb7 89b9 abb3 b0bb 795e 0ebb bf80 45bb
00000130: 8267 363b 021f 5fbb bb49 2d3b 24c0 963b
00000140: 5e24 41bc 61c8 d2ba dce4 9d3a 0c9b 30bc
00000150: 85d4 cfba 5865 5e3b f6e9 c9bb 789c d639
00000160: 7017 853a 610f 76bb de08 5639 7212 d23a
00000170: 4134 97bb 65ff b73a 643d 1e3b 820b 04bb
00000180: fa9a 143b b466 edba bfc2 7ab9 85b5 6cbb
00000190: 50a5 583a 4108 363b 274d 843b 0770 20bc
000001a0: 0f2f d9bb ce0e 5fbb bc8a dd39 926c ecba
000001b0: 7947 16ba 5ae2 d139 a6b2 38bb 2f67 b03b
000001c0: 3571 45bb 4b31 9cba 27c4 0e3b 51a0 86ba
000001d0: 3a19 1f3a 522d 9dba cf15 a33b 14d2 413a
000001e0: fd72 b6ba 349d 9b39 2d61 463b 8b1c b7ba
000001f0: 93e5 78bb 8de6 6f3b 8859 75bb a4d3 0dbb

actor_module.module.4.logstd f4 [1, 4]
0.024400188 0.01699625 0.020805823 0.010118387
00000000: e7e2 c73c b83b 8b3c f970 aa3c 97c7 253c

actor_module.module.4.fc_mean.weight f4 [4, 128]
0.102453165 0.18975896 -0.07756081 -0.041694604 -0.01631353 0.20388752 0.07154208 -0.039767828
-0.15336207 -0.093067445 -0.054809522 0.13921964 -0.13151768 -0.08937825 -0.0010155432 0.08390421
-0.021942012 0.0628322 -0.060581177 0.066574596 0.10699658 -0.050173294 0.018743739 0.011070739
-0.089601204 0.083533786 -0.06511193 0.17388399 0.023260389 -0.10959531 -0.089880295 -0.09010203
0.14606594 0.060278974 0.04440207 0.03188578 -0.038581412 0.05123993 0.017109655 -0.103162006
-0.029604034 0.023606287 -0.039371584 -0.1312857 -0.18174759 -0.111856215 -0.011312513 0.0459693
-0.14131817 -0.13995802 0.054320622 -0.017205944 0.21158014 -0.06431598 0.024285913 0.049472287
-0.043190695 0.0672691 0.22438946 -0.17011303 -0.003114662 -0.04349086 0.020993108 -0.009729933
0.14833757 -0.085499786 -0.119303025 0.07511466 -0.0044843177 -0.08931813 0.03211206 -0.061291583
-0.08251182 0.08676857 0.09109359 0.025245253 0.02266772 0.04744514 -0.058392856 -0.038823843
0.029796278 -0.0654806 0.072226316 0.04899208 0.0062458375 -0.048268057 0.048509676 0.067894325
-0.030512204 -0.09739263 -0.13469142 -0.031539917 0.09303726 -0.0019252205 -0.037416644 0.036037654
-0.053253114 0.07379859 -0.045522988 -0.11661714 -0.071103625 -0.1114602 0.0067029404 0.008490438
0.046380863 -0.06064914 -0.026227932 -0.17453218 -0.07994341 -0.13383391 0.12903814 -0.022683246
-0.068146266 0.03987147 0.04029198 0.14239047 0.16769275 -0.07924333 -0.10008916 0.07628615
-0.033128887 -0.050682746 -0.08044666 0.06350026 0.060317606 0.11241621 -0.041689884 -0.06495832
0.01681721 -0.04839589 0.031204155 -0.019370511 0.101307355 0.16345552 0.15169257 -0.055143733
-0.023358969 0.0380606 -0.07223274 0.14368534 -0.13096216 -0.20505214 0.017922524 -0.03392813
-0.097916335 0.043766886 0.07468814 -0.030627225 -0.0009798293 0.028140977 -0.044922654 -0.109603345
-0.10399905 0.07809913 -0.034483116 -0.10347998 0.0015235611 -0.13653019 -0.03007223 0.02702027
-0.036832213 -0.1044521 0.08569878 -0.076591216 0.06364214 -0.05996354 -0.004133157 0.0093789315
0.0053975107 -0.058942694 0.09294125 -0.08074531 0.0057430523 -0.043816324 0.11624289 -0.040765584
0.049207393 0.06124053 0.08196581 0.14916392 0.07117746 -0.062495183 0.24711458 -0.09237079
0.049154736 -0.20392194 0.042535577 0.014579611 -0.14218308 0.019027265 -0.13972186 -0.012906518
-0.05164629 0.010052779 0.026604274 0.20644996 0.09860443 -0.1582017 -0.04837029 0.06436721
-0.07921806 0.0052026343 0.010091374 -0.0051867203 -0.019154962 0.031911127 0.043564435 -0.05940166
-0.1456041 -0.09869894 -0.11790247 -0.2204755 0.0062120957 -0.03236105 0.01512393 -0.010089763
-0.04136115 0.016336042 0.049461693 -0.003933708 -0.09621601 -0.03858812 0.032485534 -0.0012331725
0.008171604 -0.057090756 -0.15617757 -0.15038507 0.02864314 0.19607885 0.12661059 -0.11253833
-0.083026975 -0.0061151134 0.0042861137 0.109738685 0.081312105 -0.0025409565 -0.13742192 0.1110328
-0.16592565 0.03939444 -0.08733027 -0.09441433 -0.039457347 0.067843795 -0.056007296 0.016041989
-0.09787995 0.11248709 0.012898408 -0.11300518 0.05392538 0.0027922285 -0.06487095 0.004451887
00000000: f7d2 d13d 2c50 423e 34d8 9ebd f6c7 2abd
00000010: f4a3 85bc e4c7 503e a784 923d 97e3 22bd
00000020: f20a 1dbe 259a bebd f37f 60bd 988f 0e3e
00000030: 92ac 06be f20b b7bd fa1b 85ba f8d5 ab3d
00000040: bcbf b3bc 2bae 803d f823 78bd 4358 883d
00000050: 0621 db3d 8382 4dbd 788c 993c 0b62 353c
00000060: d680 b7bd c313 ab3d 6759 85bd a50e 323e
00000070: 928c be3c 8273 e0bd 2913 b8bd 6a87 b8bd
00000080: 4f92 153e 16e7 763d f2de 353d aa9a 023d
00000090: 8b07 1ebd f6e0 513d 8c29 8c3c 9a46 d3bd
000000a0: 2984 f2bc f961 c13c 1944 21bd c26f 06be
000000b0: 0a1c 3abe df14 e5bd 1e58 39bc 4e4a 3c3d
000000c0: b6b5 10be 2851 0fbe 4d7f 5e3d 7bf3 8cbc
000000d0: 77a8 583e 19b8 83bd 40f3 c63c 74a3 4a3d
000000e0: bae8 30bd 62c4 893d 5ac6 653e 1c32 2ebe
000000f0: 5b1f 4cbb 7923 32bd bdf9 ab3c 4c6a 1fbc
00000100: cee5 173e 831a afbd 2555 f4bd b7d5 993d
00000110: 2ff1 92bb 6cec b6bd ef87 033d e20c 7bbd
00000120: f5fb a8bd b8b3 b13d 478f ba3d 22cf ce3c
00000130: a8b1 b93c d655 423d 592d 6fbd c005 1fbd
00000140: 5317 f43c b11a 86bd 64eb 933d ebab 483d
00000150: e2a9 cc3b bab4 45bd 15b2 463d 2e0c 8b3d
00000160: bbf4 f9bc ca75 c7bd 8cec 09be 0030 01bd
00000170: 528a be3d ae57 fcba 3242 19bd 389c 133d
00000180: f01f 5abd b723 973d 5076 3abd f8d4 eebd
00000190: c79e 91bd 3f45 e4bd 57a4 db3b 7a1b 0b3c
000001a0: dcf9 3d3d 3c6b 78bd f6db d6bc 90b8 32be
000001b0: 5fb9 a3bd c20b 09be 9322 043e 37d2 b9bc
000001c0: 4590 8bbd 4450 233d 3409 253d cfce 113e
000001d0: a6b7 2b3e 544a a2bd 8cfb ccbd ea3b 9c3d
000001e0: 28b2 07bd b698 4fbd 38c1 a4bd 6d0c 823d
000001f0: 980f 773d 783a e63d 03c3 2abd de08 85bd
00000200: 3fc4 893c c53a 46bd db9f ff3c e8ae 9ebc
00000210: 3b7a cf3d e260 273e 4c55 1b3e 65de 61bd
00000220: 4f5b bfbc 6fe5 1b3d c2ee 93bd 4022 133e
00000230: f21a 06be 30f9 51be 42d2 923c 39f8 0abd
00000240: 5c88 c8bd e844 333d 18f6 983d f2e5 fabc
00000250: 9e6d 80ba e887 e63c d100 38bd b877 e0bd
00000260: 74fd d4bd 70f2 9f3d 2b3e 0dbd 50ed d3bd
00000270: 3ab2 c73a 92ce 0bbe 0a5a f6bc 9d59 dd3c
00000280: 60dd 16bd fcea d5bd d882 af3d dbdb 9cbd
00000290: cf56 823d 549c 75bd 6f6f 87bb 17aa 193c
000002a0: 9add b03b e56d 71bd fb57 be3d cc5d a5bd
000002b0: 3730 bc3b bf78 33bd c110 ee3d d0f9 26bd
000002c0: b18d 493d 5ad7 7a3d b1dd a73d 6dbe 183e
000002d0: 7dc5 913d f3fa 7fbd 9b0b 7d3e e62c bdbd
000002e0: 7a56 493d ead0 50be c939 2e3d 52df 6e3c
000002f0: 7198 11be 11df 9b3c 3f13 0fbe dc75 53bc
00000300: 0f8b 53bd 69b4 243c 35f1 d93c 9e67 533e
00000310: 1ff1 c93d a0ff 21be ed1f 46bd f5d2 833d
00000320: 143d a2bd dc7a aa3b 4a56 253c 5df5 a9bb
00000330: deea 9cbc 3eb5 023d 9f70 323d 284f 73bd
00000340: 3e19 15be ab22 cabd da76 f1bd 54c4 61be
00000350: d68e cb3b 058d 04bd 5cca 773c 894f 25bc
00000360: 4f6a 29bd 2ad3 853c 5898 4a3d 56e6 80bb
00000370: e60c c5bd 940e 1ebd 8d0f 053d 67a2 a1ba
00000380: 31e2 053c ffd7 69bd 03ed 1fbe 8bfe 19be
00000390: 05a5 ea3c e5c8 483e 35a6 013e 7f7a e6bd
000003a0: 0c0a aabd 4a61 c8bb 8772 8c3b adbe e03d
000003b0: f686 a63d 2d86 26bb 55b8 0cbe 2a65 e33d
000003c0: 6ae8 29be 105c 213d 36da b2bd 4d5c c1bd
000003d0: 079e 21bd b0f1 8a3d e867 65bd 7d6a 833c
000003e0: 4975 c8bd a25f e63d d853 533c 436f e7bd
000003f0: dce0 5c3d d2fd 363b 10db 84bd 23e1 913b

actor_module.module.4.fc_mean.bias f4 [4]
0.00080341345 0.0075923684 0.000788703 -0.00019189014
00000000: 2a9c 523a 67c9 f83b f6c0 4e3a 1e36 49b9

module.module.1.module.module.0.weight f4 [128, 10]
0.009672301 -0.0986618 -0.07471646 -0.022940386 -0.05054592 -0.12811562 -0.22044115 -0.09869237
-0.02049219 0.31493992 0.093825646 -0.23150977 0.08380667 0.17502245 -0.009726381 0.039094225
0.24674042 -0.02761354 0.0025784487 -0.023894565 -0.21674462 0.030119943 0.20688944 0.046768397
-0.029442178 0.15106541 0.030699812 -0.05945171 -0.11447125 0.11311915 -0.17182656 -0.09321589
0.2556548 -0.18947425 0.060480293 -0.14791223 -0.012286512 -0.088820994 -0.02035555 0.08251963
0.15260395 0.10936233 -0.017370591 0.041172247 -0.1373882 -0.19781971 0.10906094 -0.014642702
-0.0032682691 -0.00436875 0.043316435 0.12488037 0.23980519 -0.0313735 0.042061236 0.0041516437
-0.067461714 0.088911586 -0.18195884 0.04594852 0.037238616 -0.21739246 0.028661612 -0.12912016
0.0149021195 0.032927305 0.12725374 -0.08241983 -0.11619106 0.28950614 0.075867414 0.24330465
-0.10728301 -0.0033729707 0.17073816 0.18656783 0.19939493 0.037498694 -0.04351432 -0.07618626
0.037511438 -0.11985616 -0.040763393 -0.067511566 0.13415226 -0.104434274 0.05110778 -0.03286061
0.115142584 0.13398239 -0.0023631137 0.042019688 0.10424722 -0.18836941 0.05123777 0.08083551
-0.15409327 0.08369883 -0.07294466 0.0090613775 0.13168006 0.28878495 -0.09664011 0.10753276
0.14555247 -0.20282084 -0.120399565 -0.09614151 0.050455265 0.21549134 0.32904938 -0.04040172
0.086958155 0.059282925 -0.034352396 0.15934686 -0.025768228 -0.025627082 -0.1226592 -0.023856986
0.09357215 -0.13827987 0.068541005 -0.089523874 0.07838158 0.03472969 0.15235044 -0.0060662976
0.1340178 0.10128341 0.061936144 0.011665491 -0.11084512 0.13429205 0.008338072 -0.031679336
0.031471435 -0.020068688 0.10919134 0.10078221 -0.07014559 -0.16368656 0.017260758 0.0895952
-0.085014604 -0.050201852 0.03721329 -0.066451505 0.08682963 -0.2506982 0.016457288 0.16426384
0.021612076 -0.0071382183 -0.25756833 0.032393135 0.03846536 -0.10143479 -0.17617032 0.02620512
0.24396987 0.0845267 -0.032922868 0.011544502 0.017385282 -0.022336692 -0.010884358 -0.13131005
-0.0024757888 -0.19963424 -0.05628268 -0.0040055355 0.07971248 0.004259911 -0.021382093 0.1449487
-0.04332893 0.2505202 0.104338385 -0.11772051 0.00748526 0.05202557 -0.15294962 -0.07987865
0.118789665 0.090576515 0.043769326 -0.22958282 -0.06985251 -0.0017165887 -0.15755984 0.30818152
-0.17058723 -0.09618584 -0.096907265 0.03542574 0.14025374 0.040286683 -0.012145947 0.122728996
0.07413926 0.18966861 -0.09886333 -0.14235704 0.060026426 -0.19740543 0.09757605 0.22168618
-0.20724553 0.1317561 -0.009550594 0.01692619 0.07632293 -0.11263059 -0.1259213 -0.05610487
-0.26966003 0.031225558 0.18239997 -0.1895066 0.08258277 -0.20498258 -0.06930488 0.06656359
-0.08994181 -0.08564363 0.059695393 0.098876916 0.10470509 0.061 -0.09901796 -0.22265142
-0.18738642 -0.15015544 -0.011781656 0.17524415 -0.080598444 -0.021647502 0.14650597 -0.039585777
-0.24479184 -0.014580876 -0.07328093 -0.044324942 -0.24580505 0.2148487 -0.17735384 -0.042676814
0.097992234 -0.07922909 -0.11446736 -0.28583407 0.11761372 0.078754514 -0.06392913 -0.31831747
00000000: 9278 1e3c 330f cabd f204 99bd 7aed bbbc
00000010: 3d09 4fbd be30 03be 53bb 61be 3a1f cabd
00000020: 3ddf a7bc ce3f a13e a927 c03d e610 6dbe
00000030: d5a2 ab3d 1639 333e 665b 1fbc 4421 203d
00000040: 85a9 7c3e ca35 e2bc 31fb 283b 89be c3bc
00000050: 4df2 5dbe 19be f63c d3da 533e 3890 3f3d
00000060: b930 f1bc e4b0 1a3e 2c7e fb3c a383 73bd
00000070: e76f eabd 03ab e73d 4df3 2fbe f9e7 bebd
00000080: 30e5 823e 8a05 42be 2fba 773d 4e76 17be
00000090: 5e4d 49bc c8e7 b5bd afc0 a6bc 0d00 a93d
000000a0: 3644 1c3e 5bf9 df3d c54c 8ebc 3ba4 283d
000000b0: 7eaf 0cbe 4091 4abe 585b df3d f2e7 6fbc
000000c0: 7530 56bb bb27 8fbb 936c 313d 48c1 ff3d
000000d0: 7e8f 753e 8081 00bd 6748 2c3d 830a 883b
000000e0: 5e29 8abd 4717 b63d 6b53 3abe 8434 3c3d
000000f0: 8587 183d 219c 5ebe c2cb ea3c 1338 04be
00000100: 0528 743c c8de 063d ce4e 023e bacb a8bd
00000110: 94f5 edbd 263a 943e 6060 9b3d db24 793e
00000120: 32b7 dbbd 0f0d 5dbb fcd5 2e3e a30b 3f3e
00000130: 2f2e 4c3e 3b98 193d 123c 32bd 8b07 9cbd
00000140: 98a5 193d 2577 f5bd 84f7 26bd 8143 8abd
00000150: 365f 093e a3e1 d5bd 6456 513d d998 06bd
00000160: e0cf eb3d ae32 093e 78de 1abb d61c 2c3d
00000170: 917f d53d e9e3 40be b2de 513d 168d a53d
00000180: a0ca 1dbe 4b6a ab3d 0364 95bd 2c76 143c
00000190: 23d7 063e 9fdb 933e 40eb c5bd 233a dc3d
000001a0: b50b 153e 44b0 4fbe 0c94 f6bd d7e5 c4bd
000001b0: 2eaa 4e3d c3a9 5c3e 2979 a83e 467c 25bd
000001c0: 1e17 b23d a7d2 723d 19b5 0cbd d32b 233e
000001d0: e417 d3bc e3ef d1bc bf34 fbbd ba6f c3bc
000001e0: c1a2 bf3d 3d99 0dbe 3a5f 8c3d 4b58 b7bd
000001f0: 8686 a03d b840 0e3d c101 1c3e cbc7 c6bb
00000200: f63b 093e ad6d cf3d c1b0 7d3d 9e20 3f3c
00000210: c402 e3bd db83 093e 699c 083c 31c2 01bd
00000220: 31e8 003d 1767 a4bc b69f df3d e766 ce3d
00000230: 7ea8 8fbd 739d 27be 6f66 8d3c b07d b73d
00000240: 231c aebd 75a0 4dbd f66c 183d ba17 88bd
00000250: bcd3 b13d 845b 80be 6fd1 863c c834 283e
00000260: cf0b b13c b7e7 e9bb ffdf 83be aaae 043d
00000270: da8d 1d3d 0bbd cfbd fe65 34be 1fac d63c
00000280: 3dd3 793e 561c ad3d 21da 06bd 2725 3d3c
00000290: 946b 8e3c 70fb b6bc 4e54 32bc 2476 06be
000002a0: d840 22bb eb6c 4cbe ab88 66bd de40 83bb
000002b0: 4c40 a33d b996 8b3b 8029 afbc 6f6d 143e
000002c0: ad79 31bd 2f44 803e 5daf d53d 7317 f1bd
000002d0: e946 f53b c418 553d d39e 1cbe 6b97 a3bd
000002e0: ff47 f33d 2e80 b93d 7747 333d c217 6bbe
000002f0: d50e 8fbd 29ff e0ba 5e57 21be f8c9 9d3e
00000300: 6bae 2ebe 15fd c4bd 5177 c6bd 951a 113d
00000310: ad9e 0f3e a603 253d cbff 46bc 5759 fb3d
00000320: 53d6 973d 7d38 423e dc78 cabd 0bc6 11be
00000330: 45de 753d a624 4abe f4d5 c73d b401 633e
00000340: 2c38 54be 12eb 063e 187a 1cbc cba8 8a3c
00000350: 324f 9c3d deaa e6bd 83f1 00be 38ce 65bd
00000360: e110 8abe becc ff3c 0fc7 3a3e 050e 42be
00000370: 2821 a93d f4e6 51be b8ef 8dbd 7e52 883d
00000380: 6933 b8bd ed65 afbd 2883 743d fb7f ca3d
00000390: 9f6f d63d 23db 793d eec9 cabd bcfe 63be
000003a0: 3ae2 3fbe 59c2 19be d907 41bc 3473 333e
000003b0: cc10 a5bd 1a56 b1bc a905 163e b224 22bd
000003c0: b6aa 7abe a0e4 6ebc 5014 96bd 128e 35bd
000003d0: 52b4 7bbe 4c01 5c3e 3f9c 35be e2cd 2ebd
000003e0: 27b0 c83d dc42 a2bd dd6d eabd d858 92be
000003f0: 76df f03d 0c4a a13d 47ed 82bd 82fa a2be

module.module.1.module.module.0.bias f4 [128]
-0.0029990636 -0.00095114525 -0.0027945733 0.005414206 0.0008586971 0.000611265 0.0077294903 0.004598783
-0.003192222 -0.00037008288 0.0051875366 -0.0033929439 0.01019391 -0.0012294354 0.0035940632 0.002997719
-0.0025992913 -0.003180798 0.009392885 -0.006986641 0.0020078872 0.0002122449 0.0030162225 0.0026025614
0.0036143386 -0.00021835713 -0.0011916999 0.0020146102 -0.0015980792 -0.00039698248 0.0050119115 0.0009952931
-0.0057671294 0.0049350555 0.0065980926 -0.00409434 0.000597171 0.0027990232 1.0726442e-05 0.00787689
0.0022147906 0.0049874554 -0.0016185862 -0.00034370922 -0.0060063335 -0.0009964462 0.00084018096 -0.002406305
-0.005797272 -0.0012847274 0.0054006875 -0.0026228924 -0.0065952167 -0.0013878517 -0.004011502 -0.0073939227
0.003565686 0.00879984 -0.0013936675 -0.0028326898 0.0020047314 0.0044371295 0.0049960976 -0.0030129764
0.0018113904 0.00060556806 -0.0048133135 0.0033855338 -0.0011670592 0.0027919093 0.0049578636 0.0044029537
0.0052090604 -0.013808347 -0.0042124707 -0.0068094153 -0.00040409574 -0.0006380838 8.998877e-05 -0.0047888346
-0.0033821529 0.0022020692 0.00081316684 0.0040148078 -0.006442488 -0.007598162 0.0003968838 -0.0020151646
0.0007591397 -0.0028083269 0.0022112036 -0.007978521 -0.0029947679 -0.0034282824 0.005794854 -0.0017912836
0.0054082987 0.0017853397 -0.0028133462 0.00020865173 -0.0031218294 -0.00080377824 -0.00040563816 0.004388293
-0.00034048906 -0.00060694164 -0.0014069044 0.001011032 -0.0028021117 -0.0074098594 -0.0012054073 -0.0022012293
0.0070662317 -0.0007797622 0.0023926112 0.0014007549 -0.001776548 -0.004761643 -0.00020322566 0.0020046467
-0.006378015 0.0016115223 -0.002997786 -0.0040103705 -0.001384276 0.0017961935 1.6692793e-06 -0.008802857
00000000: f08b 44bb 4756 79ba 2925 37bb a769 b13b
00000010: 301a 613a 4d3d 203a aa47 fd3b 63b1 963b
00000020: 9934 51bb af07 c2b9 36fc a93b 275c 5ebb
00000030: 5c04 273c 0225 a1ba 608a 6b3b 6175 443b
00000040: df58 2abb ef74 50bb 9de4 193c 31f0 e4bb
00000050: c296 033b 0e8e 5e39 d1ab 453b bc8f 2a3b
00000060: 8ade 6c3b ccf6 64b9 d032 9cba 8d07 043b
00000070: a476 d1ba 1622 d0b9 f63a a43b 7f74 823a
00000080: 30fa bcbb 3fb6 a13b d034 d83b d029 86bb
00000090: 788b 1c3a d16f 373b b8f5 3337 120e 013c
000000a0: 0526 113b cf6d a33b be26 d4ba df33 b4b9
000000b0: c7d0 c4bb 309b 82ba 973f 5c3a 19b3 1dbb
000000c0: 0bf7 bdbb 4c64 a8ba 40f8 b03b d5e4 2bbb
000000d0: b01c d8bb 93e8 b5ba eb72 83bb b848 f2bb
000000e0: 49ae 693b 342d 103c b9ab b6ba a6a4 39bb
000000f0: d061 033b 5765 913b 4eb6 a33b 5b75 45bb
00000100: 2d6c ed3a fcbe 1e3a 00b9 9dbb d5df 5d3b
00000110: 02f8 98ba 77f8 363b 9375 a23b a746 903b
00000120: c4b0 aa3b 683c 62bc c408 8abb 8421 dfbb
00000130: d0dc d3b9 1445 27ba 5ab8 bc38 a8eb 9cbb
00000140: 1ca7 5dbb 9750 103b b42a 553a a68e 833b
00000150: 821b d3bb 01fa f8bb d814 d039 da10 04bb
00000160: 0101 473a e80b 38bb d7e9 103b 58b8 02bc
00000170: de43 44bb 09ad 60bb c2e2 bd3b 81c9 eaba
00000180: 1938 b13b 0f02 ea3a 1e60 38bb 86c9 5a39
00000190: 9b97 4cbb a5b4 52ba d5ab d4b9 abcb 8f3b
000001a0: ab83 b2b9 2a1b 1fba e167 b8ba 9b84 843a
000001b0: a2a3 37bb 68ce f2bb c2fe 9dba 8042 10bb
000001c0: d98b e73b f568 4cba 5bcd 1c3b 8999 b73a
000001d0: 0fdb e8ba 8e07 9cbb f918 55b9 6460 033b
000001e0: abfe d0bb b739 d33a 8176 44bb 6d69 83bb
000001f0: 9870 b5ba 416e eb3a 000c e035 dc39 10bc

module.module.1.module.module.2.weight f4 [128, 128]
0.009816951 -0.024774328 -0.24666037 0.13636743 0.15665218 -0.2696877 0.09513211 -0.27172005
0.053921875 -0.29508016 -0.026256373 -0.07669972 0.13538045 -0.0040529217 0.06944545 0.11655824
0.15594454 0.3504575 0.13116328 -0.013020213 -0.039907377 -0.065839864 -0.02998815 -0.056440424
-0.06779913 0.053415503 0.09566858 0.2422454 -0.009192627 -0.0070788786 0.10935674 0.06498263
-0.14777817 -0.1476166 -0.088871315 -0.09731476 0.063255735 0.039176706 0.012987665 -0.0037822244
-0.20492458 0.16088279 -0.022310063 0.06803411 0.11845911 0.14603649 -0.07103865 0.079405785
0.101667866 -0.113991484 0.02296493 -0.15396532 0.082835615 0.13762599 -0.2456796 0.050889794
-0.2330071 0.1033839 0.04755936 -0.1377028 0.08181859 -0.11815862 0.030328635 -0.1498138
-0.23656228 0.13352846 -0.088453665 0.05894504 -0.124958694 -0.11182841 -0.10680547 0.13137896
-0.07528359 -0.113465816 -0.12546468 0.04149179 0.09282774 0.16463698 0.009855985 -0.04973531
0.13404725 0.02081463 0.06894112 0.18349935 -0.029895823 -0.17767255 0.115406066 -0.20206739
-0.26278642 0.14885478 -0.07287857 0.0880014 0.027504833 -0.10370793 0.095831804 -0.009300856
0.035545647 0.19850008 0.12256186 -0.069276206 0.068602465 0.12065238 0.08217747 -0.20735909
-0.13412538 -0.0843832 0.07260126 0.1185116 0.23157914 -0.13154845 -0.12881432 0.0560337
-0.0058430163 0.038489938 -0.2830058 0.01448738 -0.10654591 0.002693928 -0.007828236 0.013954036
0.03796852 -0.08029797 -0.12000119 -0.015144505 -0.033170406 -0.14886001 -0.024235466 0.0060779387
0.2790781 -0.03927344 -0.02137076 0.05747711 -0.14397421 -0.09240745 -0.11195952 0.037858646
0.07938111 0.039433952 -0.03123003 -0.11550245 0.06196814 0.026756732 -0.008700082 0.000588519
-0.11006031 -0.08825987 0.19948596 0.06460716 0.10353509 -0.1081853 -0.044518758 -0.28251728
-0.04630506 0.07051996 -0.12956256 -0.095702454 -0.047970373 0.13179088 -0.23220532 -0.11583456
-0.06306113 -0.069505826 -0.12275945 -0.1717177 0.09526414 0.108898416 0.08743806 -0.004536889
-0.06175825 0.1404795 0.057935145 -0.27146047 0.1611392 -0.08455887 -0.12731077 0.09735162
-0.0038681668 0.24727699 0.0839031 0.0011556528 0.058330003 -0.01634667 0.10655975 -0.12578645
-0.19990091 0.1235372 0.06384367 0.053316016 -0.012056164 0.19822012 0.16824411 0.038227666
-0.057725735 -0.16420104 -0.039444808 -0.05935952 -0.07050895 -0.024399804 -0.082405485 0.23258352
-0.24040188 0.076690555 0.1991515 0.22874191 -0.100858785 -0.05893234 0.035212353 0.2701265
0.22395222 0.29325446 0.115572155 0.049052723 -0.055689733 -0.15764576 0.0017429639 0.10089381
0.043599974 0.055502784 -0.058533926 0.052027907 0.016483672 -0.026987629 -0.16531594 0.029497288
0.19839546 0.065542474 0.097684056 -0.046526305 -0.113584094 0.16865298 -0.04249316 0.2841433
0.14519869 -0.10724844 0.030374855 0.22104444 0.030193822 0.1345717 -0.018629128 -0.19239637
-0.05724222 0.0053291693 -0.044377495 -0.11206883 0.17784275 -0.10874248 -0.014033642 0.101206586
-0.16386543 0.051326714 -0.0006298768 0.0029914612 0.045068286 0.21892709 -0.11196026 -0.082718305
00000000: 47d7 203c 88f3 cabc 8994 7cbe e7a3 0b3e
00000010: 6e69 203e 8214 8abe a0d4 c23d e41e 8bbe
00000020: 2fdd 5c3d bf14 97be 9b17 d7bc be14 9dbd
00000030: 2ca1 0a3e 5fce 84bb 6b39 8e3d 16b6 ee3d
00000040: edaf 1f3e 2a6f b33e ab4f 063e bb52 55bc
00000050: eb75 23bd 0dd7 86bd b5a9 f5bc 132e 67bd
00000060: 45da 8abd 37ca 5a3d e3ed c33d 2e0f 783e
00000070: ac9c 16bc f0f5 e7bb 6df6 df3d 9d15 853d
00000080: 2953 17be ce28 17be 2a02 b6bd f64c c7bd
00000090: 398c 813d c177 203d 37ca 543c 32df 77bb
000000a0: c0d7 51be 75be 243e 98c3 b6bc 7855 8b3d
000000b0: b19a f23d 978a 153e b67c 91bd 809f a23d
000000c0: 3e37 d03d 5e74 e9bd f320 bc3c 16a9 1dbe
000000d0: b8a5 a93d d4ed 0c3e 6f93 7bbe d171 503d
000000e0: 6a99 6ebe f0ba d33d 9acd 423d f601 0dbe
000000f0: 8190 a73d 26fd f1bd c273 f83c ca68 19be
00000100: 623d 72be afbb 083e 3227 b5bd 5b70 713d
00000110: 58ea ffbd 4b06 e5bd d4bc dabd 3588 063e
00000120: 482e 9abd c460 e8bd d079 00be 4cf3 293d
00000130: 781c be3d 9996 283e ff7a 213c 41b7 4bbd
00000140: af43 093e 7183 aa3c 0031 8d3d 41e7 3b3e
00000150: 16e8 f4bc cbef 35be 045a ec3d c1ea 4ebe
00000160: f18b 86be 636d 183e 5c41 95bd 143a b43d
00000170: d151 e13c d364 d4bd 7743 c43d 9e62 18bc
00000180: 5098 113d 9b43 4b3e b601 fb3d afe0 8dbd
00000190: 737f 8c3d 9818 f73d a94c a83d f155 54be
000001a0: 2a58 09be 19d1 acbd f8af 943d 36b6 f23d
000001b0: 1523 6d3e a3b4 06be e7e7 03be 9883 653d
000001c0: c676 bfbb a0a7 1d3d 23e6 90be 7a5c 6d3c
000001d0: be34 dabd 9d8c 303b 0042 00bc 789f 643c
000001e0: e184 1b3d 4373 a4bd 2fc3 f5bd a820 78bc
000001f0: b1dd 07bd c26e 18be 7589 c6bc 7229 c73b
00000200: 53e3 8e3e 30dd 20bd bb11 afbc 1e6d 6b3d
00000210: fa6d 13be 1e40 bdbd 084b e5bd ab11 1b3d
00000220: 9092 a23d 7f85 213d 1fd6 ffbc 8c8c ecbd
00000230: 4ed2 7d3d ef30 db3c ca8a 0ebc d746 1a3a
00000240: 4d67 e1bd 97c1 b4bd 0c46 4c3e c250 843d
00000250: 350a d43d 4190 ddbd 4d59 36bd 1ba6 90be
00000260: 60aa 3dbd c56c 903d 0cac 04be a6ff c3bd
00000270: 957c 44bd 30f4 063e 3bc7 6dbe ab3a edbd
00000280: 3226 81bd 1259 8ebd 4e69 fbbd c4d6 2fbe
00000290: d819 c33d 2206 df3d ba12 b33d 2faa 94bb
000002a0: 38f6 7cbd dcd9 0f3e 674d 6d3d defc 8abe
000002b0: ad01 253e 332d adbd c15d 02be 4960 c73d
000002c0: 1281 7dbb 2e36 7d3e 63d5 ab3d 4679 973a
000002d0: 71eb 6e3d 74e9 85bc 003c da3d 2ace 00be
000002e0: d3b2 4cbe 1201 fd3d 78c0 823d e561 5a3d
000002f0: 3887 45bc 37fa 4a3e 2f48 2c3e 9d94 1c3d
00000300: d271 6cbd 5124 28be e190 21bd f822 73bd
00000310: ff66 90bd 19e2 c7bc 35c4 a8bd 602a 6e3e
00000320: e92b 76be f00f 9d3d 5fee 4b3e 523b 6a3e
00000330: 0d8f cebd 0a63 71bd d43a 103d 054e 8a3e
00000340: bb53 653e 7325 963e 18b1 ec3d 82eb 483d
00000350: eb1a 64bd e46d 21be 2a74 e43a 6aa1 ce3d
00000360: e395 323d e356 633d 45c1 6fbd 371b 553d
00000370: c408 873c 2915 ddbc 9548 29be 4ca4 f13c
00000380: 2e28 4b3e 223b 863d 940e c83d 5e92 3ebd
00000390: c79e e8bd 5eb3 2c3e 4f0d 2ebd 3b7b 913e
000003a0: f7ae 143e 12a5 dbbd b0d4 f83c 7959 623e
000003b0: 0959 f73c 2acd 093e 1d9c 98bc 8e03 45be
000003c0: d176 6abd 50a0 ae3b 2dc5 35bd 5884 e5bd
000003d0: 691c 363e 61b4 debd 5ced 65bc 6645 cf3d
000003e0: 57cc 27be f63b 523d 511e 25ba 640c 443b
000003f0: 8699 383d 6c2e 603e 6c4b e5bd 3768 a9bd

module.module.1.module.module.2.bias f4 [128]
0.0011944614 0.0034166647 0.0020725362 0.003216804 0.0039878767 0.0035990411 0.00077468884 -0.0032089797
-0.0027882706 -0.0052506365 -0.00074393925 -0.0026001092 -0.0025613362 0.0008534802 -0.0009507583 0.0024166806
-0.00018913684 -0.0027255935 0.007992831 0.00042409106 -0.0031992507 0.00078606553 0.000185588 -0.0077670896
-1.0447147e-05 -0.00020380045 7.0970345e-06 0.003814651 -0.0037369167 -0.0059549836 0.0012878504 -0.0024436715
0.003604939 -0.006205124 0.004338814 -0.0007912896 -0.0004294478 0.001393314 -0.0020159387 -0.0028026807
0.0061587673 -0.0063742953 0.007209977 0.0009700202 -0.0047802106 0.0025934426 0.010375476 -0.0026009122
-0.0011528758 0.001646193 0.0041523986 0.009813568 0.0011810286 -0.00059684773 0.004806474 -0.0014122716
0.008794526 -0.010795661 0.0021957755 0.00018718836 -0.0013502409 0.0027953729 -0.00362847 0.0015768028
0.0035924087 0.004785924 -0.0014077444 0.006597207 0.009410784 -0.0075269877 0.00062695786 -0.0008011312
-0.00026267476 -0.005392512 -0.002172379 -0.0030136553 0.0027832692 -0.0034045582 0.0026441652 0.0046005417
-0.011788456 -0.0016081446 0.0012046355 -0.010779154 -0.0015856182 0.0033934917 -0.0061619235 0.0004093384
0.001015408 -0.0037545788 0.00020411934 0.0016027226 -0.0046143834 0.0014037905 0.0024145478 -0.002014846
0.002267538 -0.0018112273 -0.00023914406 -0.0036118936 0.00082643796 0.0027775916 0.0040375176 -0.009792334
-0.0066279243 -0.0034035924 0.0004225577 -0.0018037728 -0.0005732696 0.00040032231 -0.0028182655 0.005383394
-0.003012729 -0.0011916546 0.0021784396 -0.0010271167 0.00060691277 -0.0011991656 0.004976965 0.000739367
-0.0013919767 0.0002968103 0.0030270324 -0.0013970298 -0.0037978634 0.0036605925 -0.0037437398 -0.002164104
00000000: 798f 9c3a 1fea 5f3b 63d3 073b 04d1 523b
00000010: bcac 823b e4dd 6b3b 7d14 4b3a bf4d 52bb
00000020: 6bbb 36bb 880d acbb eb04 43ba 9866 2abb
00000030: 17dc 27bb 16bc 5f3a 4f3c 79ba 2c61 1e3b
00000040: 0953 46b9 df9f 32bb 5df4 023c 8a58 de39
00000050: 85aa 51bb f70f 4e3a 669a 4239 1283 febb
00000060: 2846 2fb7 44b3 55b9 1023 ee36 39ff 793b
00000070: 0fe7 74bb 0622 c3bb 17cd a83a 0126 20bb
00000080: d740 6c3b 5a54 cbbb 9c2c 8e3b 8c6e 4fba
00000090: 8227 e1b9 dc9f b63a d71d 04bb 2ead 37bb
000000a0: 7ccf c93b 77df d0bb ac41 ec3b f448 7e3a
000000b0: 50a3 9cbb bff6 293b e7fd 293c 1174 2abb
000000c0: 181c 97ba 12c5 d73a d810 883b 16c9 203c
000000d0: becc 9a3a c675 1cba a07f 9d3b f91b b9ba
000000e0: ea16 103c 49e0 30bc 00e7 0f3b fe47 4439
000000f0: 91fa b0ba 9332 373b a0cb 6dbb b9ac ce3a
00000100: 9e6e 6b3b 3ed3 9c3b 1084 b8ba 622d d83b
00000110: b02f 1a3c f3a4 f6bb 6e5a 243a 0103 52ba
00000120: 9cb7 89b9 abb3 b0bb 795e 0ebb bf80 45bb
00000130: 8267 363b 021f 5fbb bb49 2d3b 24c0 963b
00000140: 5e24 41bc 61c8 d2ba dce4 9d3a 0c9b 30bc
00000150: 85d4 cfba 5865 5e3b f6e9 c9bb 789c d639
00000160: 7017 853a 610f 76bb de08 5639 7212 d23a
00000170: 4134 97bb 65ff b73a 643d 1e3b 820b 04bb
00000180: fa9a 143b b466 edba bfc2 7ab9 85b5 6cbb
00000190: 50a5 583a 4108 363b 274d 843b 0770 20bc
000001a0: 0f2f d9bb ce0e 5fbb bc8a dd39 926c ecba
000001b0: 7947 16ba 5ae2 d139 a6b2 38bb 2f67 b03b
000001c0: 3571 45bb 4b31 9cba 27c4 0e3b 51a0 86ba
000001d0: 3a19 1f3a 522d 9dba cf15 a33b 14d2 413a
000001e0: fd72 b6ba 349d 9b39 2d61 463b 8b1c b7ba
000001f0: 93e5 78bb 8de6 6f3b 8859 75bb a4d3 0dbb

module.module.1.module.module.4.logstd f4 [1, 4]
0.024400188 0.01699625 0.020805823 0.010118387
00000000: e7e2 c73c b83b 8b3c f970 aa3c 97c7 253c
