data/checkpoints/63-3-QTJ3vQ/ckpt.389.pth (torch, 563853 bytes, 52 tensors)

actor_module.module.0.weight f4 [128, 4]
0.16561334 -0.21489118 0.2278664 0.0579934 -0.21675722 0.13392961 -0.028688818 -0.096801884
0.09270501 0.047293875 -0.0960092 0.19565205 0.13489328 -0.07792081 -0.010778872 -0.13112526
-0.063782886 -0.05453598 -0.14748864 0.13612193 0.09739442 0.19771358 0.15012038 -0.11180031
-0.13043171 -0.10471015 -0.11955698 -0.27022105 0.13631372 0.19919999 -0.08218934 0.10312828
-0.13051961 -0.15128127 -0.17679 -0.03568097 0.024832714 0.08807367 0.12089902 0.23546295
0.010497679 0.026099352 -0.20214628 0.033092413 0.023898281 0.09603677 -0.101912215 0.06973044
0.15251607 -0.1483277 -0.037567154 0.16830143 -0.18218644 0.0038939228 -0.18793337 -0.17525992
-0.023327643 0.07490594 0.14211287 -0.061541423 -0.031005444 -0.0025891967 0.0130316755 -0.09279173
-0.0048379316 0.09315787 -0.14484006 -0.08729757 0.19166243 0.04416388 0.020145584 -0.07176312
0.2251894 0.0894305 -0.02851645 -0.10417102 -0.061307028 0.056473956 0.13924141 0.15825637
-0.22351056 0.07253424 0.14842552 -0.064349465 -0.08523231 0.05801686 0.06194695 -0.13431183
0.1593612 -0.076866806 0.05594596 -0.00075074506 0.09038984 0.26796362 -0.02979861 0.1320165
0.019749075 -0.011675317 -0.2611957 0.25349513 0.096358426 -0.12025453 -0.18259713 -0.080086
0.13748474 0.09465079 -0.15960404 -0.04391542 -0.04277249 0.22971268 0.21537273 0.116635635
-0.0028978114 0.13074215 0.2115835 0.085727744 -0.048686877 0.039430447 0.17024894 0.07241015
0.08132011 0.09133514 -0.1287844 0.08639814 0.13561484 0.13236673 0.20544642 0.22147948
-0.10750763 -0.04304526 -0.042034272 0.18471892 -0.26006326 0.18912034 0.07515184 -0.08417929
0.004420726 -0.0776866 -0.07624214 -0.043644212 0.0049064965 -0.07178626 -0.07905902 -0.20190138
0.09077954 0.011420904 -0.06797268 -0.091955565 -0.11090869 0.041223567 0.028539354 -0.08009693
-0.04767412 -0.045769125 0.2288745 0.003818675 0.0075128675 -0.0028616276 -0.01126376 0.035457373
0.07453658 0.052575234 -0.0067893015 -0.04741852 -0.04663265 -0.13322908 -0.05017551 0.10744947
-0.119784676 -0.12491591 0.033553112 0.11013711 0.008907135 -0.103066854 0.08912494 0.032351248
0.015460272 -0.012608118 0.15874492 0.27065536 0.021751039 -0.03923937 0.113510095 -0.12332644
0.045057494 0.04720287 0.023043256 0.011387526 0.17657872 -0.21064068 -0.11115399 0.11221788
-0.21151716 -0.124262795 0.043382633 0.007920693 0.16229023 -0.11097829 0.108952865 -0.13697475
0.11559964 0.024878038 -0.0006272029 -0.07306681 0.013171443 -0.11231357 0.01594825 0.2316404
-0.12368937 0.01490739 -0.08212542 0.07505715 0.026475647 0.1617228 0.06669822 -0.0055044256
-0.0854565 -0.06851653 -0.17982323 0.11829474 0.03763788 0.062281575 -0.22188285 0.05438039
0.06348258 0.06314256 0.054261394 -0.14021969 0.1181737 0.050507855 0.1979308 0.123715796
0.24264054 0.23399344 -0.2853998 0.11020089 -0.15737645 -0.08011846 -0.06742185 -0.122498505
0.077838615 -0.059647538 -0.118982196 -0.2669403 0.1540518 -0.060424436 -0.025882628 0.14041321
0.14631787 -0.087067015 0.060405802 0.096995436 0.061322838 -0.024102509 0.06291142 -0.21206467
00000000: 8b96 293e 6f0c 5cbe cf55 693e 7d8a 6d3d
00000010: 9bf5 5dbe d824 093e d004 ebbc 1140 c6bd
00000020: 20dc bd3d 39b7 413d 79a0 c4bd 0359 483e
00000030: 7721 0a3e f294 9fbd de99 30bc b345 06be
00000040: 9aa0 82bd 1f61 5fbd 4307 17be 8c63 0b3e
00000050: ba76 c73d 6e75 4a3e 28b9 193e 90f7 e4bd
00000060: e48f 05be 4672 d6bd 4ada f4bd 6a5a 8abe
00000070: d395 0b3e 15fb 4b3e e252 a8bd eb34 d33d
00000080: efa6 05be 7ae9 1abe 7008 35be 3526 12bd
00000090: fa6d cb3c f85f b43d e899 f73d 331d 713e
000000a0: 75fe 2b3c 4fce d53c 6fff 4ebe e98b 073d
000000b0: 54c6 c33c edae c43d 5ab7 d0bd d5ce 8e3d
000000c0: 2c2d 1c3e 37e3 17be 04e0 19bd 3657 2c3e
000000d0: 158f 3abe 2f31 7f3b 9b71 40be 5677 33be
000000e0: 9d19 bfbc 4968 993d 0986 113e dc12 7cbd
000000f0: 21ff fdbc 83af 29bb cf82 553c 9709 bebd
00000100: 8387 9ebb 8ec9 be3d f450 14be 12c9 b2bd
00000110: 2843 443e 2fe5 343d 5a08 a53c 8bf8 92bd
00000120: 0d98 663e 5727 b73d 559b e9bc 9e57 d5bd
00000130: 141d 7bbd 3c51 673d 4d95 0e3e f50d 223e
00000140: f4df 64be d58c 943d dcfc 173e a7c9 83bd
00000150: 478e aebd 16a3 6d3d 16bc 7d3d 0a89 09be
00000160: 952f 233e 586c 9dbd 9727 653d a6cd 44ba
00000170: 4f1e b93d 8732 893e 371c f4bc 552f 073e
00000180: d0c8 a13c d449 3fbc 71bb 85be 1dca 813e
00000190: 9157 c53d 0248 f6bd befa 3abe 2104 a4bd
000001a0: cdc8 0c3e 46d8 c13d 3e6f 23be a8e0 33bd
000001b0: 3532 2fbd cd39 6b3e ab8a 5c3e aade ee3d
000001c0: 35e9 3dbb 45e1 053e 58a9 583e 0792 af3d
000001d0: e46b 47bd d281 213d bd55 2e3e c64b 943d
000001e0: 288b a63d eb0d bb3d 0fe0 03be 82f1 b03d
000001f0: 9ede 0a3e 258b 073e 8c60 523e 84cb 623e
00000200: f62c dcbd 3a50 30bd 212c 2cbd f526 3d3e
00000210: 0327 85be c3a8 413e 35e9 993d 3166 acbd
00000220: bddb 903b 271a 9fbd d724 9cbd 46c4 32bd
00000230: adc6 a03b ad04 93bd b2e9 a1bd 3cbf 4ebe
00000240: a0ea b93d be1e 3b3c 4335 8bbd 3353 bcbd
00000250: 1824 e3bd 0bda 283d 5dcb e93c dc09 a4bd
00000260: f045 43bd 6878 3bbd 145e 6a3e bc42 7a3b
00000270: 802e f63b 258a 3bbb a28b 38bc c03b 113d
00000280: a2a6 983d 2159 573d ca78 debb ec39 42bd
00000290: e101 3fbd 346d 08be d684 4dbd 780e dc3d
000002a0: ab51 f5bd ead3 ffbd fd6e 093d 918f e13d
000002b0: 3bef 113c b714 d3bd 2387 b63d be82 043d
000002c0: 154d 7d3c 4892 4ebc 078e 223e 5793 8a3e
000002d0: 3c2f b23c 76b9 20bd fb77 e83d 9392 fcbd
000002e0: 358e 383d cc57 413d 36c5 bc3c bf92 3a3c
000002f0: 0dd1 343e 31b2 57be b4a4 e3bd 7dd2 e53d
00000300: f497 58be 7e7d febd fdb1 313d cbc5 013c
00000310: 692f 263e 9648 e3bd ae22 df3d 1c43 0cbe
00000320: 81bf ec3d 07cd cb3c e06a 24ba 0da4 95bd
00000330: 09cd 573c a804 e6bd e8a5 823c 2433 6d3e
00000340: da50 fdbd 203e 743c 5f31 a8bd 90b7 993d
00000350: 75e3 d83c a99a 253e 1499 883d 785e b4bb
00000360: d103 afbd 6552 8cbd 9523 38be 8344 f23d
00000370: 2d2a 1a3d f71a 7f3d 4235 63be f9bd 5e3d
00000380: 2803 823d e350 813d 3241 5e3d c095 0fbe
00000390: 0e05 f23d 53e1 4e3d 5fae 4a3e b55e fd3d
000003a0: c376 783e fa9b 6f3e ec1f 92be 01b1 e13d
000003b0: 4b27 21be 2615 a4bd 7814 8abd 7fe0 fabd
000003c0: da69 9f3d fa50 74bd f0ac f3bd 66ac 88be
000003d0: c1bf 1d3e 9d7f 77bd ce07 d4bc 7bc8 0f3e
000003e0: 5ad4 153e 3150 b2bd 136c 773d 8ba5 c63d
000003f0: a82d 7b3d a072 c5bc b4d7 803d 7b27 59be

actor_module.module.0.bias f4 [128]
-0.0019994825 9.5115465e-06 -0.000982993 0.0016035989 -0.00020297639 0.00039851796 0.0001952755 0.00016846345
-0.0008012068 -0.0015991864 3.7080536e-06 0.0011993462 0.0004018159 -0.0015816748 -0.0012103897 -0.0009996769
-0.0017968573 0.0009993258 0.00018900476 -0.0021872683 0.0017991007 0.0022042054 0.0006034819 -0.00019844856
-0.0023980672 0.002199656 0.00059340574 -0.0011361921 -0.00019873763 -0.0033949055 -0.0011956727 1.0217547e-05
0.0015910893 0.0005996623 -0.0009742565 -0.00079747173 -0.0005697598 0.000799322 -0.0015970038 -0.0035926146
-0.0012025019 0.0007996626 0.00038853113 0.00039718705 0.0022061493 -0.0015886317 -0.0009958929 -0.0005939266
0.0029975995 -0.0013952056 0.0015980934 0.0006016082 0.0012087792 -0.00059740327 -0.00060638296 -0.0012000758
-0.0003921033 -0.00080157345 -0.0005999775 -0.0022008352 0.0015951621 0.0025827806 0.00030796696 -5.8196747e-07
-0.0018039481 -0.0009973111 -0.0008051026 0.0021996691 -0.001378746 -0.0012102841 0.00021692403 0.0008094869
0.0005982527 -0.00020188725 0.001796412 0.00020854414 -0.003398119 -0.00039976428 0.0009989422 0.0017703488
-0.00039391307 -0.000798455 -0.0020000793 0.0009125922 -0.0016015426 4.252586e-06 -0.00040992035 0.00019941939
-0.00040562934 -0.0002034228 -0.00040244518 -0.0011979335 0.0021963886 -0.0012121268 -0.0015990144 0.0025974638
-6.5594577e-06 0.0013945324 -0.0010015898 -0.0009986205 -0.0016071959 0.0013927155 0.00079809304 0.0035950644
-7.400289e-06 -0.0007859151 0.0035968784 0.0012505573 -0.0012062717 0.00039939999 0.00177978 5.9848244e-06
-0.00020156684 0.0014390938 -0.001962761 0.0005968736 0.00064974016 -6.905997e-06 0.0015792932 0.0017921742
0.0011983224 0.0022011986 -1.9399595e-06 0.0007994239 -0.0008006593 -0.0026013926 0.0011981394 0.0001997648
00000000: c009 03bb c893 1f37 c6d7 80ba da2f d23a
00000010: 0fd6 54b9 2df0 d039 dec2 4c39 90a5 3039
00000020: 1408 52ba cb9b d1ba e0d7 7836 6133 9d3a
00000030: d1aa d239 3350 cfba f0a5 9eba 9707 83ba
00000040: 8784 ebba cffb 823a 942f 4639 4658 0fbb
00000050: cdcf eb3a 6e74 103b fc32 1e3a a116 50b9
00000060: e428 1dbb 1b28 103b c98e 1b3a 48ec 94ba
00000070: 3a64 50b9 107d 5ebb 1eb8 9cba 086c 2b37
00000080: 198c d03a a832 1d3a 3f65 7fba 6c0d 51ba
00000090: ef5b 15ba 9789 513a 8e52 d1ba 1272 6bbb
000000a0: 459d 9dba 73a0 513a c4b3 cb39 8b3d d039
000000b0: 0b95 103b a239 d0ba 9f88 82ba bdb1 1bba
000000c0: 6073 443b 55df b6ba 1e77 d13a 3eb5 1d3a
000000d0: e66f 9e3a 0e9b 1cba acf5 1eba dd4b 9dba
000000e0: 3793 cdb9 af20 52ba cf47 1dba e33b 10bb
000000f0: c214 d13a de43 293b a076 a139 8038 1cb5
00000100: 7472 ecba 35b8 82ba 850d 53ba 5328 103b
00000110: 0ab7 b4ba 65a2 9eba 1a76 6339 bf33 543a
00000120: 0fd4 1c3a b2b1 53b9 9675 eb3a a4ac 5a39
00000130: fab2 5ebb 7497 d1b9 f0ee 823a 0c0b e83a
00000140: 1e86 ceb9 684f 51ba c313 03bb 073b 6f3a
00000150: daea d1ba 70b1 8e36 94ea d6b9 3c1b 5139
00000160: a6aa d4b9 e44d 55b9 47ff d2b9 fa03 9dba
00000170: 49f1 0f3b 3ae0 9eba 0596 d1ba 363a 2a3b
00000180: 5019 dcb6 bec8 b63a c747 83ba 25e4 82ba
00000190: 8ca8 d2ba c78b b63a 1e37 513a 2c9b 6b3b
000001a0: 0050 f8b6 df05 4eba 9bb9 6b3b bde9 a33a
000001b0: c31b 9eba 8f66 d139 8247 e93a 40d1 c836
000001c0: b05b 53b9 fa9f bc3a aaa1 00bb 8277 1c3a
000001d0: 5353 2a3a 10ba e7b6 4900 cf3a 63e7 ea3a
000001e0: 0711 9d3a fc41 103b 4030 02b6 6e90 513a
000001f0: 56e3 51ba 207c 2abb e30a 9d3a f577 5139

actor_module.module.2.weight f4 [128, 128]
-0.112527125 0.028732374 0.23374966 0.17256805 0.12043711 0.0069353734 0.10833827 0.024667166
0.0071269562 0.078857906 0.032324128 -0.16650198 -0.12650993 0.19751361 0.2486829 0.053736176
-0.10240922 -0.0275086 0.103830345 0.010377221 -0.03141072 0.10418762 -0.098313995 -0.13246259
-0.20191354 -0.10553915 0.047575347 0.15139922 -0.13473083 -0.11397716 -0.1796598 -0.12879474
0.11759013 0.026412752 0.036358282 -0.06045046 -0.02841757 -0.16202432 0.2139753 0.27608952
-0.027968526 -0.0032259007 0.0493956 0.11998742 0.09862362 -0.1762958 -0.13780715 0.090754405
-0.055329338 -0.055354133 0.23355451 0.05045117 0.07308758 0.25170755 -0.11082805 0.25261888
-0.021866992 -0.18702054 -0.049661856 -0.20989396 -0.058505308 0.023531849 -0.036989823 0.021577409
0.3016796 -0.10360441 0.15046579 0.04775983 0.09861219 -0.25288323 -0.08574054 0.097702384
-0.018968964 -0.13929808 -0.0027049296 -0.040827416 0.11014002 0.06625248 0.16939372 0.093400426
-0.0107322 0.04110908 0.0067721223 0.10285121 -0.017909206 -0.074243374 0.011485332 0.026359145
-0.0061465795 -0.06921146 0.042413097 -0.001979044 0.1672294 0.12656736 -0.09916456 0.15011005
0.014976119 0.005025421 0.17899133 -0.04945421 0.10580308 -0.095573924 -0.040474847 0.039323453
0.0706557 0.19815154 0.015380384 0.033825226 0.16724452 -0.12567559 0.015933102 -0.09884922
-0.06095142 -0.17608279 0.14187454 -0.030940644 0.0044237864 0.34782028 0.067892365 -0.08131936
0.19095229 0.05764006 0.19842537 -0.109124206 0.23674159 -0.057743635 0.01993081 -0.25788936
-0.090772994 -0.26322365 -0.033618145 0.03837924 -0.014651858 0.12008803 -0.101744205 0.11811353
-0.08893004 0.19511677 -0.17032535 0.011681816 -0.0013052318 0.035159104 0.05280493 -0.0064345966
0.012866316 0.17654632 -0.04072118 -0.04183398 0.11563416 -0.11116625 0.19506364 -0.06616247
0.02298556 0.06931439 -0.009089776 -0.13790637 -0.17801781 -0.14074352 -0.11532563 0.05927782
-0.02080699 0.08452633 -0.008719689 0.24428165 -0.16898082 -0.012997194 0.019135341 -0.050332606
-0.16556697 0.05196416 0.06651123 0.3424031 0.30823094 0.016142428 -0.1511341 -0.020972569
-0.0044085328 -0.017946323 -0.06111979 0.18586138 0.12057328 -0.050953906 0.02266497 -0.22110596
-0.06973265 0.13714623 -0.052303977 0.0885991 -0.2192287 0.0418522 0.12874931 -0.010440823
-0.19736634 -0.04833472 -0.019808544 -0.086845465 0.15535045 -0.07098728 0.089350626 0.1656611
-0.14814393 -0.05115337 -0.010154802 -0.04078876 0.022801597 0.007778254 -0.15081905 -0.08952717
-0.064342804 0.048260815 0.025858326 -0.049713016 0.079311624 -0.0026453978 -0.0028308872 0.05145501
0.1540217 0.047686275 -0.058020797 -0.14354336 0.022791943 0.020595042 -0.07283826 -0.3707765
-0.27839783 -0.007660023 0.044945303 -0.15691033 -0.05435332 0.1419181 -0.22549665 0.25088426
-0.11157833 0.16024326 0.017838545 -0.10938802 -0.1963428 0.17564382 -0.07811497 0.17042276
0.10155556 -0.15646648 0.124018066 0.029979263 -0.105516024 -0.06914854 0.018192738 -0.15523514
0.14752887 0.20411763 0.19076064 -0.048127014 0.02585398 0.13338627 -0.0323106 -0.16393268
00000000: 9f74 e6bd 2860 eb3c 125c 6f3e aeb5 303e
00000010: bba7 f63d 2142 e33b 74e0 dd3d cc12 ca3c
00000020: 3e89 e93b 4180 a13d 4e66 043d 7f7f 2abe
00000030: d28b 01be 0241 4a3e bba6 7e3e 771a 5c3d
00000040: edbb d1bd b759 e1bc 01a5 d43d 3805 2a3c
00000050: 87a8 00bd 5260 d53d d958 c9bd 46a4 07be
00000060: 6cc2 4ebe e924 d8bd 5ede 423d 6608 1b3e
00000070: e1f6 09be db6c e9bd bdf8 37be c5e2 03be
00000080: 18d3 f03d 8e5f d83c 6cec 143d e79a 77bd
00000090: f7cb e8bc b4e9 25be 571c 5b3e 9b5b 8d3e
000000a0: 401e e5bc a269 53bb 0a53 4a3d f7bb f53d
000000b0: 2efb c93d e386 34be 511d 0dbe 72dd b93d
000000c0: 04a1 62bd 04bb 62bd ea28 6f3e e3a5 4e3d
000000d0: f1ae 953d d0df 803e d1f9 e2bd 4357 813e
000000e0: 6822 b3bc 5082 3fbe 3b6a 4bbd 71ee 56be
000000f0: 43a3 6fbd ddc5 c03c a482 17bd 1bc3 b03c
00000100: c075 9a3e 8d2e d4bd b413 1a3e d09f 433d
00000110: 30f5 c93d e979 81be bc98 afbd 3018 c83d
00000120: cd64 9bbc 28a4 0ebe 3045 31bb a63a 27bd
00000130: 1791 e13d 61af 873d 8c75 2d3e b948 bf3d
00000140: 1cd6 2fbc ff61 283d aee8 dd3b a8a3 d23d
00000150: 54b6 92bc e90c 98bd f92c 3c3c 22ef d73c
00000160: 3f69 c9bb bdbe 8dbd 5bb9 2d3d d9b2 01bb
00000170: 2f3e 2b3e e09a 013e ca16 cbbd 73b6 193e
00000180: 655e 753c 49ac a43b 8149 373e 7f90 4abd
00000190: 49af d83d 43bc c3bd f4c8 25bd a111 213d
000001a0: f0b3 903d 3de8 4a3e 02fe 7b3c 528c 0a3d
000001b0: 2642 2b3e 1ab1 00be 2386 823c 7671 cabd
000001c0: 32a8 79bd 0c4f 34be 8f47 113e 3c77 fdbc
000001d0: 69f5 903b 8015 b23e 270b 8b3d c48a a6bd
000001e0: ff88 433e fc17 6c3d 0530 4b3e 837c dfbd
000001f0: 636c 723e 9784 6cbd f045 a33c 130a 84be
00000200: 31e7 b9bd 40c5 86be 2eb3 09bd 8d33 1d3d
00000210: 590e 70bc b7f0 f53d 445f d0bd 82e5 f13d
00000220: f420 b6bd b1cc 473e c569 2ebe 1665 3f3c
00000230: 5014 abba fe02 103d fb49 583d 4fd9 d2bb
00000240: 3ecd 523c 8fc8 343e 41cb 26bd 1b5a 2bbd
00000250: 9ad1 ec3d 22ab e3bd c3be 473e 3080 87bd
00000260: 374c bc3c b4f4 8d3d 49ed 14bc 5437 0dbe
00000270: 4d4a 36be 121f 10be d82f ecbd 4dcd 723d
00000280: 6c73 aabc 241c ad3d 07dd 0ebc f824 7a3e
00000290: 4f09 2dbe 2ff2 54bc b8c1 9c3c 9029 4ebd
000002a0: 638a 29be 5fd8 543d 0a37 883d 764f af3e
000002b0: 72d0 9d3e 203d 843c e6c2 1abe aace abbc
000002c0: 7475 90bb 2b04 93bc bf58 7abd 7252 3e3e
000002d0: 20ef f63d 0bb5 50bd e3ab b93c 9a69 62be
000002e0: fecf 8ebd 1070 0c3e b23c 56bd 7273 b53d
000002f0: 7d7d 60be 366d 2b3d dcd6 033e fc0f 2bbc
00000300: 671a 4abe a1fa 45bd 8745 a2bc 09dc b1bd
00000310: 3014 1f3e c761 91bd 76fd b63d 10a3 293e
00000320: 0bb3 17be 3286 51bd 5460 26bc 1d12 27bd
00000330: 6aca ba3c b9e0 fe3b 4f70 1abe 055a b7bd
00000340: 29c6 83bd 22ad 453d d7d4 d33c e09f 4bbd
00000350: 226e a23d 695e 2dbb 6886 39bb 7dc2 523d
00000360: ddb7 1d3e af52 433d 37a7 6dbd 08fd 12be
00000370: 2bb6 ba3c efb6 a83c 3a2c 95bd 6bd6 bdbe
00000380: 298a 8ebe ee00 fbbb 9118 383d 1aad 20be
00000390: 96a1 5ebd fa52 113e 98e8 66be e773 803e
000003a0: 2e83 e4bd cf16 243e 2422 923c d406 e0bd
000003b0: 160e 49be f9db 333e befa 9fbd 4e83 2e3e
000003c0: 5dfc cf3d c038 20be 2ffd fd3d 1297 f53c
000003d0: c918 d8bd c09d 8dbd f008 953c f6f5 1ebe
000003e0: cf11 173e 3604 513e c256 433e d520 45bd
000003f0: bacb d33c 6996 083e 1f58 04bd f8dd 27be

actor_module.module.2.bias f4 [128]
-0.0020047997 -0.0017934168 0.0006165848 -0.0007974467 0.0012034735 0.0016183052 -0.0021991914 -0.00020158465
-0.00040206622 0.00060878636 -0.001198536 0.0012109258 -0.0014044526 -0.0019931945 0.0012074905 -0.00039518904
0.0023932366 -0.0011955324 0.0010452194 0.0002505079 0.0006383129 0.00031661845 0.00019934063 -0.0028006942
-0.00018169687 0.0005963627 0.00060383393 0.00040383317 -0.0022001092 -0.00038939272 -0.00015935331 -0.0013946301
0.00041204394 -0.0021033082 -0.00039851395 0.0016033724 -0.0006438388 0.0017965293 0.0016224459 0.0007977446
0.00060149666 0.0012008593 0.0017997108 -0.0029973066 -0.00037720904 -0.0006005702 -0.00039789174 0.0009936934
0.00040438073 -0.000800938 -0.00045735092 -0.002193882 -1.5229161e-06 0.0005877362 0.0005985083 -0.0005953147
0.00020465752 0.003198715 0.0005986708 -0.0011992564 -1.3885205e-05 0.00040148373 -5.8476435e-06 0.0002566674
-0.0016071273 0.0011896001 -0.0015950323 -0.0007997301 0.0021852108 0.0010143718 0.00060732634 -0.001996361
0.00080769527 0.0005871372 0.0016032747 0.0013986786 -0.001178983 0.0018141406 0.0018067925 -0.00023764784
0.0005989453 0.0007964234 0.0018151127 0.0009866545 -0.0011910272 -0.0003985434 0.001203418 0.00078911375
0.0019985791 0.001402869 1.1942146e-05 0.0003914173 -0.0010031606 -0.0011893983 0.001984106 0.00019649827
0.002586808 0.0015979958 -0.0015982547 0.0013882371 -0.00041281208 -0.000605266 0.00019032016 0.0014026489
-0.00095316535 0.0013887602 -0.00059720385 -0.00039514207 0.0011972648 0.0018069728 -0.00066859287 0.0018302815
-0.0029268477 0.0015970814 0.00022969051 0.00019886406 0.0008118256 0.00040073215 -4.5647554e-05 -0.0005960858
0.0011982919 0.001028358 -1.1760814e-05 -0.00019564907 -0.0026036003 -0.0023941563 -0.0015972463 0.0020004346
00000000: f562 03bb 1511 ebba 4ea2 213a be0b 51ba
00000010: dfbd 9d3a 501d d43a 4f20 10bb 7860 53b9
00000020: 6acc d2b9 f696 1f3a 3218 9dba edb7 9e3a
00000030: 9c15 b8ba 41a0 02bb a844 9e3a 6031 cfb9
00000040: d9d7 1c3b 69b3 9cba beff 883a 9a56 8339
00000050: 7454 273a cfff a539 1806 5139 da8b 37bb
00000060: e285 3eb9 3955 1c3a 9c4a 1e3a 92b9 d339
00000070: b52f 10bb 6827 ccb9 1418 27b9 05cc b6ba
00000080: 9a07 d839 a8d7 09bb a3ef d0b9 4028 d23a
00000090: 4ac7 28ba 8579 eb3a 40a8 d43a bc1f 513a
000000a0: c2ad 1d3a 2766 9d3a 46e4 eb3a 766e 44bb
000000b0: 24c4 c5b9 956f 1dba 209c d0b9 d13e 823a
000000c0: 1003 d439 0af6 51ba 9ac8 efb9 3bc7 0fbb
000000d0: 0067 ccb5 4f12 1a3a 36e5 1c3a e50e 1cba
000000e0: 5699 5639 88a1 513b 1ef0 1c3a 5e30 9dba
000000f0: 80f4 68b7 3c7e d239 e036 c4b6 5191 8639
00000100: 3ea6 d2ba 5bec 9b3a 6710 d1ba fba4 51ba
00000110: c135 0f3b abf4 843a fb34 1f3a 61d5 02bb
00000120: 83bb 533a 1cea 193a f924 d23a de53 b73a
00000130: 1b88 9aba 75c8 ed3a e5d1 ec3a 1b31 79b9
00000140: 8a02 1d3a 12c7 503a 13e9 ed3a a252 813a
00000150: 3e1c 9cba 97f3 d0b9 02bc 9d3a 87dc 4e3a
00000160: 98fa 023b 79e0 b73a 205b 4837 2437 cd39
00000170: 7c7c 83ba 96e5 9bba c607 023b 1a0b 4e39
00000180: 7087 293b d773 d13a 877c d1ba 82f5 b53a
00000190: b36e d8b9 b7aa 1eba ae90 4739 16d9 b73a
000001a0: d8dd 79ba 0f07 b63a ac8d 1cba 122b cfb9
000001b0: 8aed 9c3a f2d7 ec3a 8244 2fba 0ee6 ef3a
000001c0: 5bd0 3fbb 2955 d13a 14d9 7039 2a86 5039
000001d0: b2d0 543a 5c19 d239 b075 3fb8 a442 1cba
000001e0: 0110 9d3a f8c9 863a 5050 45b7 2627 4db9
000001f0: 2aa1 2abb 47e7 1cbb b15a d1ba b919 033b

actor_module.module.4.logstd f4 [1, 4]
0.00060010375 0.0039996635 -0.00059942977 0.0019989158
00000000: 4850 1d3a 9c0f 833b 0d23 1dba 3e00 033b

actor_module.module.4.fc_mean.weight f4 [4, 128]
0.009642296 0.03792 -0.04176465 -0.07561585 -0.120563954 0.053861897 -0.1332085 0.069712915
-0.03328804 0.023879021 0.017537463 0.12096328 -0.04653254 -0.06432606 -0.10128022 0.06991109
-0.018309323 0.03588753 0.030922554 -0.034466736 0.0036917077 0.086482726 -0.040532604 -0.0030845106
0.11608837 -0.118536495 -0.009488404 0.031021578 -0.08010403 -0.050897747 0.09161796 -0.098341525
0.107408114 -0.023704441 0.054008614 -0.02502391 -0.007867043 0.026530704 -0.05329605 0.080944255
-0.16224618 -0.12206502 -0.17054123 -0.09396998 -0.097211555 0.12707677 0.02966699 -0.06005705
-0.20069711 -0.21540102 -0.06971609 0.18426882 -0.16578664 0.028331572 0.065616354 0.015622897
0.024064213 -0.012423207 0.08044265 -0.028524583 0.15646006 -0.008177285 0.18113169 -0.016460765
0.01259077 -0.13690676 0.1424132 -0.09361712 -0.005398007 -0.16307312 0.027723217 0.047281597
0.07895003 0.069045745 -0.022232713 0.047122817 -0.07041137 0.060299 0.0076216436 0.07228531
0.0065146857 0.07981042 0.05250627 -0.15714705 0.0032528923 -0.108770244 0.012795601 0.015050897
0.01685833 0.056314934 -0.07480563 -0.023156863 -0.06549463 -0.094739035 -0.09915693 -0.10925319
-0.10649879 0.23618504 0.11501669 0.016868414 -0.15999204 -0.025418835 0.133761 -0.2002077
0.020996273 0.0661873 -0.094677344 0.07415079 0.063051306 0.057364605 -0.03279865 -0.1451881
0.007875964 0.023777861 0.10148182 0.04287248 0.018837625 -0.008360301 0.018561888 -0.032220174
-0.029156229 -0.055719733 -0.064852685 -0.08868459 -0.12878534 -0.1437559 -0.020372286 0.064402394
-0.031321097 0.12586196 -0.10263042 -0.15105984 0.13214846 -0.050594244 -0.018642897 -0.10457948
0.058386866 0.10828533 -0.109024405 0.0040313867 -0.05119319 -0.043320518 -0.1299237 -0.021957994
-0.015940154 -0.05844548 -0.043716572 0.039813414 -0.0044662775 -0.068851866 -0.05639208 0.009581635
-0.11690242 0.047289196 -0.15375733 0.06404973 -0.17440295 0.15080063 0.10686275 -0.082050286
-0.12952536 0.02170789 0.08913765 0.025591685 0.06195211 0.16476859 0.15665282 -0.006199444
-0.0985352 0.012825806 0.11124988 -0.113885485 -0.005205221 0.06452825 -0.0742561 -0.16875267
0.00259416 0.025009481 0.017281167 -0.040163185 -0.044249218 -0.028707901 0.024013378 0.118005484
0.13381678 -0.0032362083 -0.16679332 -0.14706141 0.054200444 -0.119318455 0.016893324 0.04691174
0.000101619094 -0.004105097 -0.07992872 0.16510338 0.04215186 -0.17777695 0.030603208 -0.12290438
0.0161061 0.0513153 0.10962799 -0.07327826 -0.016487539 0.08002578 -0.047528576 -0.06149978
0.02745386 -0.11004727 0.10474161 -0.0010413734 0.22261716 0.11990217 -0.0895878 -0.018525662
-0.008636152 0.01214813 0.01888881 0.054410774 -0.08580508 0.05168282 0.040006295 0.15380533
0.097946525 0.048264045 0.04721571 -0.0094528925 0.09526412 0.0043323617 -0.07531939 0.0410991
0.0043897303 0.06957668 0.08853731 0.0750604 0.0534917 -0.07057753 0.013925089 -0.017918015
0.021499496 -0.061376356 -0.022628972 0.20708627 0.033400975 -0.122128814 0.07310297 -0.13412955
0.1594468 -0.035584744 0.06657626 -0.17667669 -0.033436276 -0.06969946 0.015251593 0.057807796
00000000: b8fa 1d3c 0052 1b3d 6911 2bbd 7cdc 9abd
00000010: 3cea f6bd 4b9e 5c3d cf67 08be a5c5 8e3d
00000020: 0a59 08bd f09d c33c baaa 8f3c 99bb f73d
00000030: e898 3ebd 62bd 83bd 016c cfbd 8c2d 8f3d
00000040: 6ffd 95bc cdfe 123d 4c51 fd3c fe2c 0dbd
00000050: 94f0 713b db1d b13d 8405 26bd 8025 4abb
00000060: bdbf ed3d 43c3 f2bd 4075 1bbc f720 fe3c
00000070: 950d a4bd 287a 50bd 32a2 bb3d 4867 c9bd
00000080: c9f8 db3d d12f c2bc 2338 5d3d f1fe ccbc
00000090: c5e4 00bc eb56 d93c f54c 5abd 1ac6 a53d
000000a0: dd23 26be 3afd f9bd 5ca2 2ebe 5573 c0bd
000000b0: da16 c7bd 6a20 023e 3008 f33c 62fe 75bd
000000c0: 8b83 4dbe 1692 5cbe 4fc7 8ebd f7b0 3c3e
000000d0: f9c3 29be 9d17 e83c de61 863d 2ef7 7f3c
000000e0: 5022 c53c b58a 4bbc 1ebf a43d 63ac e9bc
000000f0: 1137 203e 05fa 05bc 967a 393e bad8 86bc
00000100: 8449 4e3c 4931 0cbe c4d4 113e 55ba bfbd
00000110: c4e1 b0bb a4fc 26be cd1b e33c 59aa 413d
00000120: 8eb0 a13d db67 8d3d 6121 b6bc db03 413d
00000130: d633 90bd 16fc 763d fbbe f93b 520a 943d
00000140: 2579 d53b a573 a33d d110 573d 28eb 20be
00000150: 7a2e 553b efc2 debd a4a4 513c 0a98 763c
00000160: 7b1a 8a3c 7daa 663d b233 99bd 76b3 bdbc
00000170: 0c22 86bd 8a06 c2bd ca12 cbbd 23c0 dfbd
00000180: 0a1c dabd 7eda 713e df8d eb3d a12f 8a3c
00000190: f4d4 23be 293b d0bc a5f8 083e 3f03 4dbe
000001a0: 6000 ac3c 358d 873d 32e6 c1bd 5fdc 973d
000001b0: 0b21 813d 26f7 6a3d e157 06bd 30ac 14be
000001c0: 300a 013c cac9 c23c b3d5 cf3d 0e9b 2f3d
000001d0: 5d51 9a3c a5f9 08bc 1a0f 983c 4df9 03bd
000001e0: 0bd9 eebc 603a 64bd 7cd1 84bd 44a0 b5bd
000001f0: 4ee0 03be bf34 13be c8e3 a6bc 67e5 833d
00000200: 8d4a 00bd f5e1 003e e62f d2bd 6eaf 1abe
00000210: ed51 073e e93b 4fbd fdb8 98bc c42d d6bd
00000220: 1127 6f3d b3c4 dd3d 3048 dfbd b919 843b
00000230: f3af 51bd db70 31bd b80a 05be 40e1 b3bc
00000240: ed94 82bc 8764 6fbd 2610 33bd 6413 233d
00000250: da59 92bb 3502 8dbd 62fb 66bd 4afc 1c3c
00000260: 896a efbd 51b2 413d 9072 1dbe 812c 833d
00000270: b096 32be 7b6b 1a3e dcda da3d fb09 a8bd
00000280: 4ca2 04be bfd4 b13c cd8d b63d a7a5 d13c
00000290: 7fc1 7d3d 19b9 283e 9969 203e b524 cbbb
000002a0: d3cc c9bd 5423 523c fad6 e33d cb3c e9bd
000002b0: 8f90 aabb 6327 843d 9513 98bd 80cd 2cbe
000002c0: c802 2a3b afe0 cc3c 3c91 8d3c 2782 24bd
000002d0: ab3e 35bd d52c ebbc b4b7 c43c dcac f13d
000002e0: 4407 093e 9116 54bb decb 2abe 4497 16be
000002f0: 4901 5e3d 3c5d f4bd de63 8a3c 8626 403d
00000300: 561c d538 0d84 86bb abb1 a3bd dc10 293e
00000310: 6ea7 2c3d 290b 36be 94b3 fa3c 4bb5 fbbd
00000320: f1f0 833c fe2f 523d a484 e03d ea12 96bd
00000330: e010 87bc 8ee4 a33d 53ad 42bd 31e7 7bbd
00000340: ebe6 e03c 7760 e1bd c582 d63d b17e 88ba
00000350: c1f5 633e 458f f53d cf79 b7bd 21c3 97bc
00000360: a67e 0dbc f308 473c b5bc 9a3c d5dd 5e3d
00000370: 93ba afbd 5db1 533d a4dd 233d 257f 1d3e
00000380: 3098 c83d 85b0 453d 4365 413d 4ee0 1abc
00000390: d619 c33d 7cf6 8d3b 0d41 9abd 8857 283d
000003a0: bad7 8f3b 387e 8e3d 0d53 b53d 44b9 993d
000003b0: 1d1a 5b3d f48a 90bd 0e26 643c cdc8 92bc
000003c0: b61f b03c c665 7bbd 6560 b9bc 6c0e 543e
000003d0: 76cf 083d ac1e fabd 03b7 953d 4259 09be
000003e0: 0646 233e 4fc1 11bd 2259 883d bcea 34be
000003f0: 7af4 08bd 97be 8ebd d1e1 793c dec7 6c3d

actor_module.module.4.fc_mean.bias f4 [4]
-0.00080522127 -0.00040046358 -0.0027993275 0.0014012012
00000000: 7c15 53ba 50f5 d1b9 ec74 37bb 83a8 b73a

module.module.1.module.module.0.weight f4 [128, 4]
0.16561334 -0.21489118 0.2278664 0.0579934 -0.21675722 0.13392961 -0.028688818 -0.096801884
0.09270501 0.047293875 -0.0960092 0.19565205 0.13489328 -0.07792081 -0.010778872 -0.13112526
-0.063782886 -0.05453598 -0.14748864 0.13612193 0.09739442 0.19771358 0.15012038 -0.11180031
-0.13043171 -0.10471015 -0.11955698 -0.27022105 0.13631372 0.19919999 -0.08218934 0.10312828
-0.13051961 -0.15128127 -0.17679 -0.03568097 0.024832714 0.08807367 0.12089902 0.23546295
0.010497679 0.026099352 -0.20214628 0.033092413 0.023898281 0.09603677 -0.101912215 0.06973044
0.15251607 -0.1483277 -0.037567154 0.16830143 -0.18218644 0.0038939228 -0.18793337 -0.17525992
-0.023327643 0.07490594 0.14211287 -0.061541423 -0.031005444 -0.0025891967 0.0130316755 -0.09279173
-0.0048379316 0.09315787 -0.14484006 -0.08729757 0.19166243 0.04416388 0.020145584 -0.07176312
0.2251894 0.0894305 -0.02851645 -0.10417102 -0.061307028 0.056473956 0.13924141 0.15825637
-0.22351056 0.07253424 0.14842552 -0.064349465 -0.08523231 0.05801686 0.06194695 -0.13431183
0.1593612 -0.076866806 0.05594596 -0.00075074506 0.09038984 0.26796362 -0.02979861 0.1320165
0.019749075 -0.011675317 -0.2611957 0.25349513 0.096358426 -0.12025453 -0.18259713 -0.080086
0.13748474 0.09465079 -0.15960404 -0.04391542 -0.04277249 0.22971268 0.21537273 0.116635635
-0.0028978114 0.13074215 0.2115835 0.085727744 -0.048686877 0.039430447 0.17024894 0.07241015
0.08132011 0.09133514 -0.1287844 0.08639814 0.13561484 0.13236673 0.20544642 0.22147948
-0.10750763 -0.04304526 -0.042034272 0.18471892 -0.26006326 0.18912034 0.07515184 -0.08417929
0.004420726 -0.0776866 -0.07624214 -0.043644212 0.0049064965 -0.07178626 -0.07905902 -0.20190138
0.09077954 0.011420904 -0.06797268 -0.091955565 -0.11090869 0.041223567 0.028539354 -0.08009693
-0.04767412 -0.045769125 0.2288745 0.003818675 0.0075128675 -0.0028616276 -0.01126376 0.035457373
0.07453658 0.052575234 -0.0067893015 -0.04741852 -0.04663265 -0.13322908 -0.05017551 0.10744947
-0.119784676 -0.12491591 0.033553112 0.11013711 0.008907135 -0.103066854 0.08912494 0.032351248
0.015460272 -0.012608118 0.15874492 0.27065536 0.021751039 -0.03923937 0.113510095 -0.12332644
0.045057494 0.04720287 0.023043256 0.011387526 0.17657872 -0.21064068 -0.11115399 0.11221788
-0.21151716 -0.124262795 0.043382633 0.007920693 0.16229023 -0.11097829 0.108952865 -0.13697475
0.11559964 0.024878038 -0.0006272029 -0.07306681 0.013171443 -0.11231357 0.01594825 0.2316404
-0.12368937 0.01490739 -0.08212542 0.07505715 0.026475647 0.1617228 0.06669822 -0.0055044256
-0.0854565 -0.06851653 -0.17982323 0.11829474 0.03763788 0.062281575 -0.22188285 0.05438039
0.06348258 0.06314256 0.054261394 -0.14021969 0.1181737 0.050507855 0.1979308 0.123715796
0.24264054 0.23399344 -0.2853998 0.11020089 -0.15737645 -0.08011846 -0.06742185 -0.122498505
0.077838615 -0.059647538 -0.118982196 -0.2669403 0.1540518 -0.060424436 -0.025882628 0.14041321
0.14631787 -0.087067015 0.060405802 0.096995436 0.061322838 -0.024102509 0.06291142 -0.21206467
00000000: 8b96 293e 6f0c 5cbe cf55 693e 7d8a 6d3d
00000010: 9bf5 5dbe d824 093e d004 ebbc 1140 c6bd
00000020: 20dc bd3d 39b7 413d 79a0 c4bd 0359 483e
00000030: 7721 0a3e f294 9fbd de99 30bc b345 06be
00000040: 9aa0 82bd 1f61 5fbd 4307 17be 8c63 0b3e
00000050: ba76 c73d 6e75 4a3e 28b9 193e 90f7 e4bd
00000060: e48f 05be 4672 d6bd 4ada f4bd 6a5a 8abe
00000070: d395 0b3e 15fb 4b3e e252 a8bd eb34 d33d
00000080: efa6 05be 7ae9 1abe 7008 35be 3526 12bd
00000090: fa6d cb3c f85f b43d e899 f73d 331d 713e
000000a0: 75fe 2b3c 4fce d53c 6fff 4ebe e98b 073d
000000b0: 54c6 c33c edae c43d 5ab7 d0bd d5ce 8e3d
000000c0: 2c2d 1c3e 37e3 17be 04e0 19bd 3657 2c3e
000000d0: 158f 3abe 2f31 7f3b 9b71 40be 5677 33be
000000e0: 9d19 bfbc 4968 993d 0986 113e dc12 7cbd
000000f0: 21ff fdbc 83af 29bb cf82 553c 9709 bebd
00000100: 8387 9ebb 8ec9 be3d f450 14be 12c9 b2bd
00000110: 2843 443e 2fe5 343d 5a08 a53c 8bf8 92bd
00000120: 0d98 663e 5727 b73d 559b e9bc 9e57 d5bd
00000130: 141d 7bbd 3c51 673d 4d95 0e3e f50d 223e
00000140: f4df 64be d58c 943d dcfc 173e a7c9 83bd
00000150: 478e aebd 16a3 6d3d 16bc 7d3d 0a89 09be
00000160: 952f 233e 586c 9dbd 9727 653d a6cd 44ba
00000170: 4f1e b93d 8732 893e 371c f4bc 552f 073e
00000180: d0c8 a13c d449 3fbc 71bb 85be 1dca 813e
00000190: 9157 c53d 0248 f6bd befa 3abe 2104 a4bd
000001a0: cdc8 0c3e 46d8 c13d 3e6f 23be a8e0 33bd
000001b0: 3532 2fbd cd39 6b3e ab8a 5c3e aade ee3d
000001c0: 35e9 3dbb 45e1 053e 58a9 583e 0792 af3d
000001d0: e46b 47bd d281 213d bd55 2e3e c64b 943d
000001e0: 288b a63d eb0d bb3d 0fe0 03be 82f1 b03d
000001f0: 9ede 0a3e 258b 073e 8c60 523e 84cb 623e
00000200: f62c dcbd 3a50 30bd 212c 2cbd f526 3d3e
00000210: 0327 85be c3a8 413e 35e9 993d 3166 acbd
00000220: bddb 903b 271a 9fbd d724 9cbd 46c4 32bd
00000230: adc6 a03b ad04 93bd b2e9 a1bd 3cbf 4ebe
00000240: a0ea b93d be1e 3b3c 4335 8bbd 3353 bcbd
00000250: 1824 e3bd 0bda 283d 5dcb e93c dc09 a4bd
00000260: f045 43bd 6878 3bbd 145e 6a3e bc42 7a3b
00000270: 802e f63b 258a 3bbb a28b 38bc c03b 113d
00000280: a2a6 983d 2159 573d ca78 debb ec39 42bd
00000290: e101 3fbd 346d 08be d684 4dbd 780e dc3d
000002a0: ab51 f5bd ead3 ffbd fd6e 093d 918f e13d
000002b0: 3bef 113c b714 d3bd 2387 b63d be82 043d
000002c0: 154d 7d3c 4892 4ebc 078e 223e 5793 8a3e
000002d0: 3c2f b23c 76b9 20bd fb77 e83d 9392 fcbd
000002e0: 358e 383d cc57 413d 36c5 bc3c bf92 3a3c
000002f0: 0dd1 343e 31b2 57be b4a4 e3bd 7dd2 e53d
00000300: f497 58be 7e7d febd fdb1 313d cbc5 013c
00000310: 692f 263e 9648 e3bd ae22 df3d 1c43 0cbe
00000320: 81bf ec3d 07cd cb3c e06a 24ba 0da4 95bd
00000330: 09cd 573c a804 e6bd e8a5 823c 2433 6d3e
00000340: da50 fdbd 203e 743c 5f31 a8bd 90b7 993d
00000350: 75e3 d83c a99a 253e 1499 883d 785e b4bb
00000360: d103 afbd 6552 8cbd 9523 38be 8344 f23d
00000370: 2d2a 1a3d f71a 7f3d 4235 63be f9bd 5e3d
00000380: 2803 823d e350 813d 3241 5e3d c095 0fbe
00000390: 0e05 f23d 53e1 4e3d 5fae 4a3e b55e fd3d
000003a0: c376 783e fa9b 6f3e ec1f 92be 01b1 e13d
000003b0: 4b27 21be 2615 a4bd 7814 8abd 7fe0 fabd
000003c0: da69 9f3d fa50 74bd f0ac f3bd 66ac 88be
000003d0: c1bf 1d3e 9d7f 77bd ce07 d4bc 7bc8 0f3e
000003e0: 5ad4 153e 3150 b2bd 136c 773d 8ba5 c63d
000003f0: a82d 7b3d a072 c5bc b4d7 803d 7b27 59be

module.module.1.module.module.0.bias f4 [128]
-0.0019994825 9.5115465e-06 -0.000982993 0.0016035989 -0.00020297639 0.00039851796 0.0001952755 0.00016846345
-0.0008012068 -0.0015991864 3.7080536e-06 0.0011993462 0.0004018159 -0.0015816748 -0.0012103897 -0.0009996769
-0.0017968573 0.0009993258 0.00018900476 -0.0021872683 0.0017991007 0.0022042054 0.0006034819 -0.00019844856
-0.0023980672 0.002199656 0.00059340574 -0.0011361921 -0.00019873763 -0.0033949055 -0.0011956727 1.0217547e-05
0.0015910893 0.0005996623 -0.0009742565 -0.00079747173 -0.0005697598 0.000799322 -0.0015970038 -0.0035926146
-0.0012025019 0.0007996626 0.00038853113 0.00039718705 0.0022061493 -0.0015886317 -0.0009958929 -0.0005939266
0.0029975995 -0.0013952056 0.0015980934 0.0006016082 0.0012087792 -0.00059740327 -0.00060638296 -0.0012000758
-0.0003921033 -0.00080157345 -0.0005999775 -0.0022008352 0.0015951621 0.0025827806 0.00030796696 -5.8196747e-07
-0.0018039481 -0.0009973111 -0.0008051026 0.0021996691 -0.001378746 -0.0012102841 0.00021692403 0.0008094869
0.0005982527 -0.00020188725 0.001796412 0.00020854414 -0.003398119 -0.00039976428 0.0009989422 0.0017703488
-0.00039391307 -0.000798455 -0.0020000793 0.0009125922 -0.0016015426 4.252586e-06 -0.00040992035 0.00019941939
-0.00040562934 -0.0002034228 -0.00040244518 -0.0011979335 0.0021963886 -0.0012121268 -0.0015990144 0.0025974638
-6.5594577e-06 0.0013945324 -0.0010015898 -0.0009986205 -0.0016071959 0.0013927155 0.00079809304 0.0035950644
-7.400289e-06 -0.0007859151 0.0035968784 0.0012505573 -0.0012062717 0.00039939999 0.00177978 5.9848244e-06
-0.00020156684 0.0014390938 -0.001962761 0.0005968736 0.00064974016 -6.905997e-06 0.0015792932 0.0017921742
0.0011983224 0.0022011986 -1.9399595e-06 0.0007994239 -0.0008006593 -0.0026013926 0.0011981394 0.0001997648
00000000: c009 03bb c893 1f37 c6d7 80ba da2f d23a
00000010: 0fd6 54b9 2df0 d039 dec2 4c39 90a5 3039
00000020: 1408 52ba cb9b d1ba e0d7 7836 6133 9d3a
00000030: d1aa d239 3350 cfba f0a5 9eba 9707 83ba
00000040: 8784 ebba cffb 823a 942f 4639 4658 0fbb
00000050: cdcf eb3a 6e74 103b fc32 1e3a a116 50b9
00000060: e428 1dbb 1b28 103b c98e 1b3a 48ec 94ba
00000070: 3a64 50b9 107d 5ebb 1eb8 9cba 086c 2b37
00000080: 198c d03a a832 1d3a 3f65 7fba 6c0d 51ba
00000090: ef5b 15ba 9789 513a 8e52 d1ba 1272 6bbb
000000a0: 459d 9dba 73a0 513a c4b3 cb39 8b3d d039
000000b0: 0b95 103b a239 d0ba 9f88 82ba bdb1 1bba
000000c0: 6073 443b 55df b6ba 1e77 d13a 3eb5 1d3a
000000d0: e66f 9e3a 0e9b 1cba acf5 1eba dd4b 9dba
000000e0: 3793 cdb9 af20 52ba cf47 1dba e33b 10bb
000000f0: c214 d13a de43 293b a076 a139 8038 1cb5
00000100: 7472 ecba 35b8 82ba 850d 53ba 5328 103b
00000110: 0ab7 b4ba 65a2 9eba 1a76 6339 bf33 543a
00000120: 0fd4 1c3a b2b1 53b9 9675 eb3a a4ac 5a39
00000130: fab2 5ebb 7497 d1b9 f0ee 823a 0c0b e83a
00000140: 1e86 ceb9 684f 51ba c313 03bb 073b 6f3a
00000150: daea d1ba 70b1 8e36 94ea d6b9 3c1b 5139
00000160: a6aa d4b9 e44d 55b9 47ff d2b9 fa03 9dba
00000170: 49f1 0f3b 3ae0 9eba 0596 d1ba 363a 2a3b
00000180: 5019 dcb6 bec8 b63a c747 83ba 25e4 82ba
00000190: 8ca8 d2ba c78b b63a 1e37 513a 2c9b 6b3b
000001a0: 0050 f8b6 df05 4eba 9bb9 6b3b bde9 a33a
000001b0: c31b 9eba 8f66 d139 8247 e93a 40d1 c836
000001c0: b05b 53b9 fa9f bc3a aaa1 00bb 8277 1c3a
000001d0: 5353 2a3a 10ba e7b6 4900 cf3a 63e7 ea3a
000001e0: 0711 9d3a fc41 103b 4030 02b6 6e90 513a
000001f0: 56e3 51ba 207c 2abb e30a 9d3a f577 5139

module.module.1.module.module.2.weight f4 [128, 128]
-0.112527125 0.028732374 0.23374966 0.17256805 0.12043711 0.0069353734 0.10833827 0.024667166
0.0071269562 0.078857906 0.032324128 -0.16650198 -0.12650993 0.19751361 0.2486829 0.053736176
-0.10240922 -0.0275086 0.103830345 0.010377221 -0.03141072 0.10418762 -0.098313995 -0.13246259
-0.20191354 -0.10553915 0.047575347 0.15139922 -0.13473083 -0.11397716 -0.1796598 -0.12879474
0.11759013 0.026412752 0.036358282 -0.06045046 -0.02841757 -0.16202432 0.2139753 0.27608952
-0.027968526 -0.0032259007 0.0493956 0.11998742 0.09862362 -0.1762958 -0.13780715 0.090754405
-0.055329338 -0.055354133 0.23355451 0.05045117 0.07308758 0.25170755 -0.11082805 0.25261888
-0.021866992 -0.18702054 -0.049661856 -0.20989396 -0.058505308 0.023531849 -0.036989823 0.021577409
0.3016796 -0.10360441 0.15046579 0.04775983 0.09861219 -0.25288323 -0.08574054 0.097702384
-0.018968964 -0.13929808 -0.0027049296 -0.040827416 0.11014002 0.06625248 0.16939372 0.093400426
-0.0107322 0.04110908 0.0067721223 0.10285121 -0.017909206 -0.074243374 0.011485332 0.026359145
-0.0061465795 -0.06921146 0.042413097 -0.001979044 0.1672294 0.12656736 -0.09916456 0.15011005
0.014976119 0.005025421 0.17899133 -0.04945421 0.10580308 -0.095573924 -0.040474847 0.039323453
0.0706557 0.19815154 0.015380384 0.033825226 0.16724452 -0.12567559 0.015933102 -0.09884922
-0.06095142 -0.17608279 0.14187454 -0.030940644 0.0044237864 0.34782028 0.067892365 -0.08131936
0.19095229 0.05764006 0.19842537 -0.109124206 0.23674159 -0.057743635 0.01993081 -0.25788936
-0.090772994 -0.26322365 -0.033618145 0.03837924 -0.014651858 0.12008803 -0.101744205 0.11811353
-0.08893004 0.19511677 -0.17032535 0.011681816 -0.0013052318 0.035159104 0.05280493 -0.0064345966
0.012866316 0.17654632 -0.04072118 -0.04183398 0.11563416 -0.11116625 0.19506364 -0.06616247
0.02298556 0.06931439 -0.009089776 -0.13790637 -0.17801781 -0.14074352 -0.11532563 0.05927782
-0.02080699 0.08452633 -0.008719689 0.24428165 -0.16898082 -0.012997194 0.019135341 -0.050332606
-0.16556697 0.05196416 0.06651123 0.3424031 0.30823094 0.016142428 -0.1511341 -0.020972569
-0.0044085328 -0.017946323 -0.06111979 0.18586138 0.12057328 -0.050953906 0.02266497 -0.22110596
-0.06973265 0.13714623 -0.052303977 0.0885991 -0.2192287 0.0418522 0.12874931 -0.010440823
-0.19736634 -0.04833472 -0.019808544 -0.086845465 0.15535045 -0.07098728 0.089350626 0.1656611
-0.14814393 -0.05115337 -0.010154802 -0.04078876 0.022801597 0.007778254 -0.15081905 -0.08952717
-0.064342804 0.048260815 0.025858326 -0.049713016 0.079311624 -0.0026453978 -0.0028308872 0.05145501
0.1540217 0.047686275 -0.058020797 -0.14354336 0.022791943 0.020595042 -0.07283826 -0.3707765
-0.27839783 -0.007660023 0.044945303 -0.15691033 -0.05435332 0.1419181 -0.22549665 0.25088426
-0.11157833 0.16024326 0.017838545 -0.10938802 -0.1963428 0.17564382 -0.07811497 0.17042276
0.10155556 -0.15646648 0.124018066 0.029979263 -0.105516024 -0.06914854 0.018192738 -0.15523514
0.14752887 0.20411763 0.19076064 -0.048127014 0.02585398 0.13338627 -0.0323106 -0.16393268
00000000: 9f74 e6bd 2860 eb3c 125c 6f3e aeb5 303e
00000010: bba7 f63d 2142 e33b 74e0 dd3d cc12 ca3c
00000020: 3e89 e93b 4180 a13d 4e66 043d 7f7f 2abe
00000030: d28b 01be 0241 4a3e bba6 7e3e 771a 5c3d
00000040: edbb d1bd b759 e1bc 01a5 d43d 3805 2a3c
00000050: 87a8 00bd 5260 d53d d958 c9bd 46a4 07be
00000060: 6cc2 4ebe e924 d8bd 5ede 423d 6608 1b3e
00000070: e1f6 09be db6c e9bd bdf8 37be c5e2 03be
00000080: 18d3 f03d 8e5f d83c 6cec 143d e79a 77bd
00000090: f7cb e8bc b4e9 25be 571c 5b3e 9b5b 8d3e
000000a0: 401e e5bc a269 53bb 0a53 4a3d f7bb f53d
000000b0: 2efb c93d e386 34be 511d 0dbe 72dd b93d
000000c0: 04a1 62bd 04bb 62bd ea28 6f3e e3a5 4e3d
000000d0: f1ae 953d d0df 803e d1f9 e2bd 4357 813e
000000e0: 6822 b3bc 5082 3fbe 3b6a 4bbd 71ee 56be
000000f0: 43a3 6fbd ddc5 c03c a482 17bd 1bc3 b03c
00000100: c075 9a3e 8d2e d4bd b413 1a3e d09f 433d
00000110: 30f5 c93d e979 81be bc98 afbd 3018 c83d
00000120: cd64 9bbc 28a4 0ebe 3045 31bb a63a 27bd
00000130: 1791 e13d 61af 873d 8c75 2d3e b948 bf3d
00000140: 1cd6 2fbc ff61 283d aee8 dd3b a8a3 d23d
00000150: 54b6 92bc e90c 98bd f92c 3c3c 22ef d73c
00000160: 3f69 c9bb bdbe 8dbd 5bb9 2d3d d9b2 01bb
00000170: 2f3e 2b3e e09a 013e ca16 cbbd 73b6 193e
00000180: 655e 753c 49ac a43b 8149 373e 7f90 4abd
00000190: 49af d83d 43bc c3bd f4c8 25bd a111 213d
000001a0: f0b3 903d 3de8 4a3e 02fe 7b3c 528c 0a3d
000001b0: 2642 2b3e 1ab1 00be 2386 823c 7671 cabd
000001c0: 32a8 79bd 0c4f 34be 8f47 113e 3c77 fdbc
000001d0: 69f5 903b 8015 b23e 270b 8b3d c48a a6bd
000001e0: ff88 433e fc17 6c3d 0530 4b3e 837c dfbd
000001f0: 636c 723e 9784 6cbd f045 a33c 130a 84be
00000200: 31e7 b9bd 40c5 86be 2eb3 09bd 8d33 1d3d
00000210: 590e 70bc b7f0 f53d 445f d0bd 82e5 f13d
00000220: f420 b6bd b1cc 473e c569 2ebe 1665 3f3c
00000230: 5014 abba fe02 103d fb49 583d 4fd9 d2bb
00000240: 3ecd 523c 8fc8 343e 41cb 26bd 1b5a 2bbd
00000250: 9ad1 ec3d 22ab e3bd c3be 473e 3080 87bd
00000260: 374c bc3c b4f4 8d3d 49ed 14bc 5437 0dbe
00000270: 4d4a 36be 121f 10be d82f ecbd 4dcd 723d
00000280: 6c73 aabc 241c ad3d 07dd 0ebc f824 7a3e
00000290: 4f09 2dbe 2ff2 54bc b8c1 9c3c 9029 4ebd
000002a0: 638a 29be 5fd8 543d 0a37 883d 764f af3e
000002b0: 72d0 9d3e 203d 843c e6c2 1abe aace abbc
000002c0: 7475 90bb 2b04 93bc bf58 7abd 7252 3e3e
000002d0: 20ef f63d 0bb5 50bd e3ab b93c 9a69 62be
000002e0: fecf 8ebd 1070 0c3e b23c 56bd 7273 b53d
000002f0: 7d7d 60be 366d 2b3d dcd6 033e fc0f 2bbc
00000300: 671a 4abe a1fa 45bd 8745 a2bc 09dc b1bd
00000310: 3014 1f3e c761 91bd 76fd b63d 10a3 293e
00000320: 0bb3 17be 3286 51bd 5460 26bc 1d12 27bd
00000330: 6aca ba3c b9e0 fe3b 4f70 1abe 055a b7bd
00000340: 29c6 83bd 22ad 453d d7d4 d33c e09f 4bbd
00000350: 226e a23d 695e 2dbb 6886 39bb 7dc2 523d
00000360: ddb7 1d3e af52 433d 37a7 6dbd 08fd 12be
00000370: 2bb6 ba3c efb6 a83c 3a2c 95bd 6bd6 bdbe
00000380: 298a 8ebe ee00 fbbb 9118 383d 1aad 20be
00000390: 96a1 5ebd fa52 113e 98e8 66be e773 803e
000003a0: 2e83 e4bd cf16 243e 2422 923c d406 e0bd
000003b0: 160e 49be f9db 333e befa 9fbd 4e83 2e3e
000003c0: 5dfc cf3d c038 20be 2ffd fd3d 1297 f53c
000003d0: c918 d8bd c09d 8dbd f008 953c f6f5 1ebe
000003e0: cf11 173e 3604 513e c256 433e d520 45bd
000003f0: bacb d33c 6996 083e 1f58 04bd f8dd 27be

module.module.1.module.module.2.bias f4 [128]
-0.0020047997 -0.0017934168 0.0006165848 -0.0007974467 0.0012034735 0.0016183052 -0.0021991914 -0.00020158465
-0.00040206622 0.00060878636 -0.001198536 0.0012109258 -0.0014044526 -0.0019931945 0.0012074905 -0.00039518904
0.0023932366 -0.0011955324 0.0010452194 0.0002505079 0.0006383129 0.00031661845 0.00019934063 -0.0028006942
-0.00018169687 0.0005963627 0.00060383393 0.00040383317 -0.0022001092 -0.00038939272 -0.00015935331 -0.0013946301
0.00041204394 -0.0021033082 -0.00039851395 0.0016033724 -0.0006438388 0.0017965293 0.0016224459 0.0007977446
0.00060149666 0.0012008593 0.0017997108 -0.0029973066 -0.00037720904 -0.0006005702 -0.00039789174 0.0009936934
0.00040438073 -0.000800938 -0.00045735092 -0.002193882 -1.5229161e-06 0.0005877362 0.0005985083 -0.0005953147
0.00020465752 0.003198715 0.0005986708 -0.0011992564 -1.3885205e-05 0.00040148373 -5.8476435e-06 0.0002566674
-0.0016071273 0.0011896001 -0.0015950323 -0.0007997301 0.0021852108 0.0010143718 0.00060732634 -0.001996361
0.00080769527 0.0005871372 0.0016032747 0.0013986786 -0.001178983 0.0018141406 0.0018067925 -0.00023764784
0.0005989453 0.0007964234 0.0018151127 0.0009866545 -0.0011910272 -0.0003985434 0.001203418 0.00078911375
0.0019985791 0.001402869 1.1942146e-05 0.0003914173 -0.0010031606 -0.0011893983 0.001984106 0.00019649827
0.002586808 0.0015979958 -0.0015982547 0.0013882371 -0.00041281208 -0.000605266 0.00019032016 0.0014026489
-0.00095316535 0.0013887602 -0.00059720385 -0.00039514207 0.0011972648 0.0018069728 -0.00066859287 0.0018302815
-0.0029268477 0.0015970814 0.00022969051 0.00019886406 0.0008118256 0.00040073215 -4.5647554e-05 -0.0005960858
0.0011982919 0.001028358 -1.1760814e-05 -0.00019564907 -0.0026036003 -0.0023941563 -0.0015972463 0.0020004346
00000000: f562 03bb 1511 ebba 4ea2 213a be0b 51ba
00000010: dfbd 9d3a 501d d43a 4f20 10bb 7860 53b9
00000020: 6acc d2b9 f696 1f3a 3218 9dba edb7 9e3a
00000030: 9c15 b8ba 41a0 02bb a844 9e3a 6031 cfb9
00000040: d9d7 1c3b 69b3 9cba beff 883a 9a56 8339
00000050: 7454 273a cfff a539 1806 5139 da8b 37bb
00000060: e285 3eb9 3955 1c3a 9c4a 1e3a 92b9 d339
00000070: b52f 10bb 6827 ccb9 1418 27b9 05cc b6ba
00000080: 9a07 d839 a8d7 09bb a3ef d0b9 4028 d23a
00000090: 4ac7 28ba 8579 eb3a 40a8 d43a bc1f 513a
000000a0: c2ad 1d3a 2766 9d3a 46e4 eb3a 766e 44bb
000000b0: 24c4 c5b9 956f 1dba 209c d0b9 d13e 823a
000000c0: 1003 d439 0af6 51ba 9ac8 efb9 3bc7 0fbb
000000d0: 0067 ccb5 4f12 1a3a 36e5 1c3a e50e 1cba
000000e0: 5699 5639 88a1 513b 1ef0 1c3a 5e30 9dba
000000f0: 80f4 68b7 3c7e d239 e036 c4b6 5191 8639
00000100: 3ea6 d2ba 5bec 9b3a 6710 d1ba fba4 51ba
00000110: c135 0f3b abf4 843a fb34 1f3a 61d5 02bb
00000120: 83bb 533a 1cea 193a f924 d23a de53 b73a
00000130: 1b88 9aba 75c8 ed3a e5d1 ec3a 1b31 79b9
00000140: 8a02 1d3a 12c7 503a 13e9 ed3a a252 813a
00000150: 3e1c 9cba 97f3 d0b9 02bc 9d3a 87dc 4e3a
00000160: 98fa 023b 79e0 b73a 205b 4837 2437 cd39
00000170: 7c7c 83ba 96e5 9bba c607 023b 1a0b 4e39
00000180: 7087 293b d773 d13a 877c d1ba 82f5 b53a
00000190: b36e d8b9 b7aa 1eba ae90 4739 16d9 b73a
000001a0: d8dd 79ba 0f07 b63a ac8d 1cba 122b cfb9
000001b0: 8aed 9c3a f2d7 ec3a 8244 2fba 0ee6 ef3a
000001c0: 5bd0 3fbb 2955 d13a 14d9 7039 2a86 5039
000001d0: b2d0 543a 5c19 d239 b075 3fb8 a442 1cba
000001e0: 0110 9d3a f8c9 863a 5050 45b7 2627 4db9
000001f0: 2aa1 2abb 47e7 1cbb b15a d1ba b919 033b

module.module.1.module.module.4.logstd f4 [1, 4]
0.00060010375 0.0039996635 -0.00059942977 0.0019989158
00000000: 4850 1d3a 9c0f 833b 0d23 1dba 3e00 033b
