data/checkpoints/63-3-N9wNPS/ckpt.389.pth (torch, 579213 bytes, 52 tensors)

actor_module.module.0.weight f4 [128, 10]
000000 74 f9 eb 3b d3 dc c1 bd 3c 33 9d bd 84 6c d9 bc
       0.007201368 -0.09465947 -0.07675788 -0.026541002
000010 45 09 4f bd bf 30 03 be 53 bb 61 be 3d 1f ca bd
       -0.05054595 -0.12811564 -0.22044115 -0.098692395
000020 48 df a7 bc cd 3f a1 3e b5 fc c0 3d 58 bd 67 be
       -0.020492211 0.3149399 0.094232 -0.22630823
000030 fe f1 a3 3d 1e 74 2d 3e 7c 5b 1f bc 48 21 20 3d
       0.08005141 0.16938826 -0.009726401 0.03909424
000040 88 a9 7c 3e c9 35 e2 bc 12 fb 28 3b 8d be c3 bc
       0.24674046 -0.027613537 0.0025784415 -0.023894573
000050 c0 6b 60 be cb b2 eb 3c 96 30 5a 3e de 6a 49 3d
       -0.21916103 0.028771779 0.21307597 0.049174182
000060 b6 30 f1 bc e5 b0 1a 3e 37 7e fb 3c 97 83 73 bd
       -0.029442172 0.15106542 0.030699832 -0.059451666
000070 e8 6f ea bd 03 ab e7 3d 94 3b 34 be 2a 29 d0 bd
       -0.11447126 0.11311915 -0.17600852 -0.101641014
000080 79 89 7d 3e 96 a8 42 be 2d ba 77 3d 4e 76 17 be
       0.24759473 -0.19009623 0.060480285 -0.14791223
000090 4e 4d 49 bc c8 e7 b5 bd aa c0 a6 bc 0c 00 a9 3d
       -0.012286497 -0.088820994 -0.020355541 0.08251962
0000a0 26 07 18 3e 72 d7 de 3d 18 10 8a bc d3 99 31 3d
       0.14846477 0.10880937 -0.016853377 0.04335959
0000b0 7f af 0c be 41 91 4a be 59 5b df 3d e3 e7 6f bc
       -0.13738821 -0.19781972 0.10906095 -0.014642688
0000c0 1c 30 56 bb 9b 27 8f bb af c9 33 3d 82 0d 01 3e
       -0.0032682484 -0.004368735 0.043893512 0.12602809
0000d0 f0 91 77 3e 59 bd 04 bd 68 48 2c 3d 8b 0a 88 3b
       0.24176764 -0.03240714 0.04206124 0.0041516474
0000e0 5c 29 8a bd 46 17 b6 3d 69 53 3a be 80 34 3c 3d
       -0.0674617 0.08891158 -0.18195881 0.045948505
0000f0 fb fc 2c 3d 25 d5 5d be 6e 2f f8 3c 97 41 05 be
       0.04223345 -0.2166334 0.030296054 -0.13013302
000100 03 28 74 3c c6 de 06 3d ce 4e 02 3e b3 cb a8 bd
       0.014902118 0.032927297 0.12725374 -0.082419775
000110 97 f5 ed bd 24 3a 94 3e dd 1b 8d 3d c8 c8 80 3e
       -0.11619108 0.28950608 0.0689008 0.25153184
000120 f0 2c d5 bd fa af 08 bc fc d5 2e 3e a3 0b 3f 3e
       -0.10408962 -0.008342737 0.17073816 0.18656783
000130 2c 2e 4c 3e 3e 98 19 3d 17 3c 32 bd 89 07 9c bd
       0.19939488 0.037498705 -0.043514337 -0.07618625
000140 b2 81 23 3d ec fd fb bd 49 24 2a bd 91 6c 7b bd
       0.03991861 -0.12304291 -0.04153851 -0.061382834
000150 37 5f 09 3e a1 e1 d5 bd 67 56 51 3d d8 98 06 bd
       0.13415228 -0.10443426 0.05110779 -0.032860607
000160 e0 cf eb 3d b1 32 09 3e ef f8 09 bc 71 c8 2f 3d
       0.115142584 0.13398243 -0.008421167 0.042915765
000170 b8 86 d7 3d 19 a7 47 be b4 de 51 3d 16 8d a5 3d
       0.105237424 -0.19497336 0.051237777 0.08083551
000180 a1 ca 1d be 4b 6a ab 3d 04 64 95 bd 28 76 14 3c
       -0.15409328 0.08369883 -0.07294467 0.009061374
000190 05 3a 08 3e 30 ea 91 3e 5d 1d c5 bd 1c 6e d6 3d
       0.13303383 0.28498983 -0.09624741 0.104702204
0001a0 b6 0b 15 3e 44 b0 4f be 0a 94 f6 bd d7 e5 c4 bd
       0.14555249 -0.20282084 -0.12039955 -0.09614151
0001b0 2a aa 4e 3d c1 a9 5c 3e 49 5c ac 3e ca c8 31 bd
       0.05045525 0.21549131 0.33664158 -0.043404378
0001c0 35 72 ab 3d 84 4d 8c 3d 1c b5 0c bd d3 2b 23 3e
       0.08371393 0.068507224 -0.034352407 0.15934686
0001d0 e4 17 d3 bc e3 ef d1 bc bf 34 fb bd ba 6f c3 bc
       -0.025768228 -0.025627082 -0.1226592 -0.023856986
0001e0 08 4e b7 3d 8a a7 12 be 4a 99 91 3d 95 46 be bd
       0.0895043 -0.14321724 0.07109316 -0.09290806
0001f0 85 86 a0 3d b8 40 0e 3d c1 01 1c 3e bf c7 c6 bb
       0.078381576 0.03472969 0.15235044 -0.006066292
000200 f4 3b 09 3e ad 6d cf 3d ba 6a 7f 3d 20 15 5a 3c
       0.13401777 0.10128341 0.06235764 0.013310701
000210 9d a6 df bd 18 59 0a 3e 67 9c 08 3c 32 c2 01 bd
       -0.10920451 0.13510549 0.0083380705 -0.03167934
000220 32 e8 00 3d 15 67 a4 bc b6 9f df 3d e5 66 ce 3d
       0.03147144 -0.020068685 0.10919134 0.10078219
000230 bd 04 99 bd 80 5c 2c be e0 a7 50 3c 56 83 b9 3d
       -0.07471607 -0.16832161 0.012735337 0.090582535
000240 23 1c ae bd 7a a0 4d bd f6 6c 18 3d b9 17 88 bd
       -0.085014604 -0.05020187 0.03721329 -0.0664515
000250 bc d3 b1 3d 83 5b 80 be fa 81 88 3c 3e 97 27 3e
       0.08682963 -0.25069818 0.01666354 0.16366288
000260 61 f3 89 3c 2f c2 e3 bb ff df 83 be a9 ae 04 3d
       0.016839685 -0.0069506387 -0.25756833 0.03239313
000270 d9 8d 1d 3d 0b bd cf bd fc 65 34 be 1b ac d6 3c
       0.038465355 -0.10143479 -0.17617029 0.026205113
000280 06 f7 76 3e a0 2f af 3d 3a 62 08 bd 20 63 5e 3c
       0.2411767 0.085540056 -0.0332968 0.013573438
000290 93 6b 8e 3c 71 fb b6 bc 4b 54 32 bc 23 76 06 be
       0.01738528 -0.022336693 -0.010884355 -0.13131003
0002a0 e3 40 22 bb eb 6c 4c be 43 0a 5d bd 57 ac 43 bc
       -0.0024757914 -0.19963424 -0.053964864 -0.0119429445
0002b0 2e 4e a0 3d d4 f0 ed bb 81 29 af bc 6f 6d 14 3e
       0.078274116 -0.007261375 -0.021382095 0.1449487
0002c0 ad 79 31 bd 2e 44 80 3e 5c af d5 3d 72 17 f1 bd
       -0.04332893 0.25052017 0.10433838 -0.1177205
0002d0 44 ca 42 3c 5b cf 3b 3d b7 d9 1d be 36 70 a5 bd
       0.011889044 0.045852046 -0.15415083 -0.08078043
0002e0 ff 47 f3 3d 30 80 b9 3d 79 47 33 3d bf 17 6b be
       0.118789665 0.09057653 0.043769334 -0.22958277
0002f0 d3 0e 8f bd e2 fe e0 ba c2 71 25 be 12 e9 9e 3e
       -0.06985249 -0.0017165805 -0.16156676 0.31037194
000300 67 62 35 be 7d 55 c6 bd 51 77 c6 bd 97 1a 11 3d
       -0.17713319 -0.09684274 -0.096907265 0.03542575
000310 ac 9e 0f 3e a5 03 25 3d c7 ff 46 bc 51 59 fb 3d
       0.14025372 0.04028668 -0.012145943 0.12272895
000320 c2 2e a5 3d 01 3b 4a 3e 0e 78 cc bd b6 40 13 be
       0.08065559 0.1974907 -0.09983836 -0.14380154
000330 45 de 75 3d a9 24 4a be ef d5 c7 3d b2 01 63 3e
       0.060026426 -0.19740547 0.097576015 0.22168615
000340 2b 38 54 be 12 eb 06 3e a9 d9 8d bb c5 82 4d 3c
       -0.20724551 0.1317561 -0.0043289256 0.012543385
000350 80 90 a1 3d 68 2e d4 bd 83 f1 00 be 38 ce 65 bd
       0.07888889 -0.10360414 -0.1259213 -0.05610487
000360 e1 10 8a be ba cc ff 3c 0f c7 3a 3e 03 0e 42 be
       -0.26966003 0.03122555 0.18239997 -0.18950658
000370 e1 a5 9b 3d 39 79 54 be d0 18 98 bd ca 36 82 3d
       0.07599998 -0.20749368 -0.074266076 0.063581064
000380 69 33 b8 bd ef 65 af bd 2a 83 74 3d fa 7f ca 3d
       -0.08994181 -0.08564364 0.0596954 0.09887691
000390 a0 6f d6 3d 1f db 79 3d de 43 d6 bd 68 71 64 be
       0.104705095 0.060999986 -0.104621634 -0.22308886
0003a0 9f b8 41 be 2c 09 1d be d6 07 41 bc 34 73 33 3e
       -0.18918084 -0.1533553 -0.011781653 0.17524415
0003b0 cb 10 a5 bd 12 56 b1 bc ab 05 16 3e b3 24 22 bd
       -0.08059844 -0.021647487 0.146506 -0.03958578
0003c0 ad a2 7b be f5 cf 16 bc ec c9 8c bd a3 39 45 bd
       -0.24573775 -0.009204854 -0.06874451 -0.04815067
0003d0 52 b4 7b be 4c 01 5c 3e 42 9c 35 be de cd 2e bd
       -0.24580505 0.2148487 -0.17735389 -0.0426768
0003e0 25 b0 c8 3d db 42 a2 bd 4c 4f df bd fd 44 93 be
       0.09799222 -0.07922908 -0.109037966 -0.2876357
0003f0 c8 85 f8 3d 9e c9 a7 3d 46 ed 82 bd 82 fa a2 be
       0.12134892 0.08192752 -0.063929126 -0.31831747

actor_module.module.0.bias f4 [128]
000000 82 58 44 3b 1b f3 82 ba 53 58 4a b9 a7 a5 78 bb
       0.0029959981 -0.0009990664 -0.00019297125 -0.0037940533
000010 d4 76 10 3b 53 4a d3 3a bb 51 aa 3b cc e6 90 b9
       0.0022043483 0.0016120173 0.0051977313 -0.00027637777
000020 52 44 d2 ba b4 d5 1c bb b4 2f 1d 3b e6 fd cf 39
       -0.001604209 -0.0023931088 0.0023984732 0.00039671286
000030 55 40 43 3b a6 21 58 ba 27 36 d6 b9 d5 72 1d 3b
       0.0029792984 -0.000824476 -0.00040857607 0.0024024744
000040 03 81 cd ba 01 83 1b ba b8 ae b8 3a 6a dc 50 bb
       -0.0015678707 -0.0005932302 0.0014090156 -0.0031869658
000050 b7 d5 82 ba 8c 36 79 3b 41 85 37 bb d0 ac 51 3a
       -0.0009981905 0.0038026897 -0.002800301 0.00079984684
000060 46 e0 18 3a b7 85 20 3a 4c ff eb 3a 08 4c aa 3b
       0.0005831759 0.00061234407 0.0018005162 0.005197052
000070 a4 90 44 3b 2f f2 9c 3a 54 56 ea ba 9b 33 2a bb
       0.002999344 0.0011974032 -0.0017878511 -0.00259707
000080 7c 1c 6c 3b 49 b2 51 3b a7 50 78 3b 16 8c b7 ba
       0.003602772 0.0031997135 0.003788987 -0.0014003541
000090 cc d0 6b bb 33 30 79 3b 43 d1 eb ba 92 5b 37 3b
       -0.0035982607 0.0038023114 -0.0017991442 0.0027978164
0000a0 20 b1 1d 3a 28 f2 1c 3a 05 3f 10 3b 20 f4 99 ba
       0.00060154684 0.0005987012 0.0022010219 -0.0011745729
0000b0 98 f2 82 3a 5a 61 1b bb 17 a8 2a 3b 2c bf 54 ba
       0.0009990511 -0.002370915 0.002604013 -0.0008115645
0000c0 74 81 d0 b9 00 92 c0 36 22 3c d0 39 46 64 2a bb
       -0.00039769302 5.7390425e-06 0.00039717654 -0.002599971
0000d0 7f 84 37 3b b9 5d 2a bb c4 ea 78 bb a7 89 51 bb
       0.0028002558 -0.0025995804 -0.0037981728 -0.0031972916
0000e0 90 d4 0f bb cd 5a b7 3b ac e1 51 39 e1 10 2a 3b
       -0.0021946765 0.005595541 0.00020015863 0.0025950002
0000f0 b6 66 1e 3a 9e 92 37 3b ca 60 11 bb a5 a6 5e bb
       0.0006042527 0.0028010975 -0.0022182935 -0.003397384
000100 c4 d6 54 3b 90 22 10 bb 25 bf bd 3b f7 9e 89 3b
       0.0032476643 -0.0021993257 0.0057906085 0.0041998583
000110 cd 61 ec ba ae de 1c 3a 76 19 1d 3b d8 a3 19 3b
       -0.0018034518 0.00059841096 0.0023971475 0.0023443606
000120 8a 8d 96 3b b8 14 a4 bb 67 de 51 ba bb 71 10 bb
       0.0045945095 -0.0050073527 -0.0008005858 -0.0022040445
000130 3e 59 b7 ba 8d de 78 3b 3d 49 ec ba 4c d2 76 bb
       -0.0013988388 0.0037974447 -0.0018027198 -0.0037661968
000140 70 8b 48 b8 2b b0 1d 3a e6 be 36 3b 70 e3 a3 3b
       -4.7813577e-05 0.0006015326 0.002788478 0.005001478
000150 ae 11 ec 3a cf 85 37 bb 08 4a 03 3b 0b 0e fa 3a
       0.001801064 -0.002800334 0.002003314 0.0019077671
000160 51 5a aa 3b ae d6 82 ba f6 36 9d 3a 88 2d 9d bb
       0.005198755 -0.0009982192 0.0011994529 -0.0047966875
000170 4a d8 01 3b 99 52 52 3a 76 95 44 3b 44 da d2 b9
       0.0019812756 0.0008023172 0.0029996312 -0.00040216942
000180 7c 45 d5 39 54 70 51 39 b7 88 9d ba f4 a5 29 bb
       0.00040678296 0.00019973639 -0.0012018894 -0.002588627
000190 7d c7 2a bb b0 c0 b6 36 38 ee 1c ba ea 3e b6 ba
       -0.0026058846 5.4464545e-06 -0.0005986425 -0.0013904248
0001a0 04 3e 10 bb 8a 94 2a 3b 20 53 0f bb 6b 80 9d 3a
       -0.002200962 0.0026028478 -0.0021869615 0.0012016421
0001b0 86 25 83 bb 5c 79 29 bb 18 83 b7 ba 83 bc 51 3b
       -0.004002276 -0.002585969 -0.0014000861 0.003200323
0001c0 2e e6 78 3b 07 00 b0 bb 4b 8d b7 3b 2c 1a 10 3b
       0.0037978995 -0.005371097 0.00560156 0.0021988256
0001d0 08 50 60 3b ec e2 02 3b 60 6b 2a 3b cc 33 1d bb
       0.003422739 0.0019971682 0.0026003942 -0.0023987172
0001e0 d2 aa 1c bb d7 5f eb 3a ff 66 eb 3a bb 07 03 bb
       -0.0023905528 0.001795764 0.0017959772 -0.0019993621
0001f0 74 b3 6b bb 58 8f 4d 39 0e dc 17 bb 8e 67 9d bb
       -0.0035965117 0.00019603723 -0.0023171934 -0.0048036044

actor_module.module.2.weight f4 [128, 128]
000000 e6 53 d0 3b 29 2a 9e bc 34 51 77 be a8 f9 07 3e
       0.0063576577 -0.019307213 -0.2415207 0.1327883
000010 9e cc 1e 3e ee c0 8b be 91 51 bf 3d fa 4e 8d be
       0.15507743 -0.2729563 0.093417294 -0.27599317
000020 f5 f0 4f 3d 07 96 95 be e6 92 af bc 70 1a a0 bd
       0.050766904 -0.29216024 -0.021432351 -0.078175426
000030 30 89 0f 3e 22 5e c7 ba d2 54 a2 3d 4c cd f0 3d
       0.14017177 -0.0015210549 0.079263344 0.11757907
000040 6a 77 17 3e 99 04 b4 3e c5 7f fe 3d 31 5b 99 bc
       0.14791647 0.35159758 0.12426714 -0.018720241
000050 25 2a 41 bd dd 9f 84 bd 8c 12 bf bc 47 e6 72 bd
       -0.047159333 -0.06475804 -0.023324274 -0.05930164
000060 c8 b0 7f bd d5 ea 81 3d b8 9a b9 3d 67 98 78 3e
       -0.06242445 0.06343619 0.090627134 0.24276887
000070 1a 38 86 bc fd d4 d8 bb 77 75 ee 3d 4b 19 8c 3d
       -0.016384173 -0.006617187 0.116434984 0.06840762
000080 49 55 1c be 90 3f 14 be 68 15 be bd fa 19 ca bd
       -0.15266909 -0.14477372 -0.09281427 -0.09868236
000090 0b ea 7b 3d e3 1e 38 3d 4d 94 a8 3b 94 43 b8 bb
       0.061502498 0.04495133 0.005144632 -0.0056232903
0000a0 aa fe 56 be 5a ea 23 3e 50 d8 9d bc 24 db 95 3d
       -0.20995584 0.16007367 -0.019268185 0.073171884
0000b0 b6 29 e8 3d 76 6e 1e 3e 08 79 95 bd b7 68 9a 3d
       0.11336081 0.15471825 -0.072984755 0.07539504
0000c0 df 28 e1 3d b3 71 eb bd dc 44 b3 3c 52 f9 1b be
       0.10994124 -0.11496296 0.02188342 -0.15231827
0000d0 80 b1 a0 3d ea 0a 0a 3e 8f 35 84 be 8c 42 31 3d
       0.078463554 0.13480726 -0.25822112 0.043276355
0000e0 11 ca 6c be 73 23 c3 3d a8 2f 59 3d 48 5c 0b be
       -0.23123957 0.09528246 0.053023964 -0.13609421
0000f0 99 e5 bb 3d 6a 1c 04 be 97 ba 0b 3d 31 b1 0e be
       0.09174652 -0.12901464 0.034113493 -0.1393478
000100 61 fc 6c be e3 a1 0b 3e 44 44 b8 bd b1 86 77 3d
       -0.2314315 0.13635974 -0.08997396 0.060431186
000110 a7 0f fe bd a4 3c ea bd 72 96 de bd b6 de fe 3d
       -0.12405329 -0.114373475 -0.10868539 0.124448225
000120 11 c5 9f bd 99 b8 f0 bd fd 4d fb bd b1 98 14 3d
       -0.07801259 -0.11753959 -0.122707345 0.03627843
000130 e8 11 b0 3d 4f e8 2c 3e cc 52 a0 3b b1 4b 40 bd
       0.08597165 0.16885494 0.0048926827 -0.046947185
000140 a9 2a 03 3e b3 ab cb 3c 3c fe 8a 3d 04 c2 35 3e
       0.12809242 0.024862146 0.067867726 0.17749792
000150 7b 49 1a bd e9 d6 2c be fc db dc 3d cd dd 42 be
       -0.037667733 -0.16878857 0.10784146 -0.19029923
000160 1f 1e 86 be ae 1e 19 3e 44 b9 93 bd 6b e9 cb 3d
       -0.26194856 0.1495311 -0.07213071 0.0995663
000170 19 68 02 3d ff 1a cd bd d3 47 cc 3d d3 f2 40 bc
       0.031837557 -0.10014915 0.09974637 -0.011776644
000180 c7 5d 37 3d 1a 6c 4e 3e c7 b3 ed 3d 39 29 8b bd
       0.044767167 0.20158425 0.116065554 -0.06794972
000190 b6 ab 9f 3d f0 cd f7 3d ed 4b b8 3d 33 67 58 be
       0.07796423 0.12099826 0.08998857 -0.21133117
0001a0 b6 27 0f be 11 9d b6 bd 03 2f a0 3d 11 8f e9 3d
       -0.13979992 -0.08916677 0.07821467 0.11404241
0001b0 79 af 6d 3e 0e c2 0e be 6d 1a 04 be 3a 1a 57 3d
       0.23211469 -0.13941213 -0.12900706 0.052515246
0001c0 a6 be ef bb bc 54 2a 3d ee 64 8e be 76 09 2c 3c
       -0.0073164282 0.041584715 -0.27811378 0.010500303
0001d0 94 1b de bd 09 85 98 3b 15 d0 b8 ba 76 24 98 3c
       -0.10845104 0.004654531 -0.0014100099 0.018572073
0001e0 49 a4 31 3d 4e 77 af bd 2e f5 f0 bd d3 50 81 bc
       0.043369565 -0.085676774 -0.11765514 -0.01578561
0001f0 52 77 1f bd 61 96 14 be 72 f4 fa bc a5 92 56 3c
       -0.038932152 -0.1451049 -0.030634139 0.013096486
000200 bb 58 8d 3e 20 e6 44 bd b9 3d 19 bc 27 05 86 3d
       0.27606758 -0.048071027 -0.009353095 0.065439515
000210 17 73 18 be c0 58 be bd 75 9c ee bd ac 2f 24 3d
       -0.14887653 -0.092942715 -0.116509356 0.040084526
000220 23 f6 97 3d 43 54 23 3d 99 86 ea bc 19 6e f8 bd
       0.07419994 0.03987528 -0.028628634 -0.121303745
000230 57 6c 71 3d 43 94 93 3c f5 4c 15 bc 25 7b 42 3a
       0.05894121 0.018015033 -0.009112586 0.00074188627
000240 0d 1d ea bd e2 a6 a7 bd 5f 1e 4b 3e 1a 69 8f 3d
       -0.11431322 -0.08186127 0.19835804 0.070024684
000250 ec 8d d4 3d 73 f6 df bd a1 be 51 bd 4c b9 8f be
       0.10378632 -0.10935678 -0.05120719 -0.28071058
000260 a1 28 24 bd f1 91 92 3d 14 af 07 be d2 ca a7 bd
       -0.04007781 0.07156742 -0.13250381 -0.08192982
000270 fe 72 0e bd ea af 04 3e c5 93 6a be a9 da e1 bd
       -0.034777634 0.12957731 -0.22907932 -0.11028034
000280 b0 9c 93 bd 89 63 8a bd c2 2d f5 bd ae 63 2f be
       -0.0720762 -0.06757266 -0.11971618 -0.17127869
000290 3c 63 af 3d 23 c8 e4 3d 43 c2 d1 3d 28 c2 ca bb
       0.08563849 0.111709855 0.102421306 -0.006187696
0002a0 38 61 66 bd 64 b6 04 3e 42 6a 6e 3d ca d6 8d be
       -0.05624506 0.12960202 0.058206804 -0.27702934
0002b0 f6 89 2a 3e 33 ef ae bd a8 03 f6 bd 61 6b d7 3d
       0.1665419 -0.085417174 -0.12012416 0.10518528
0002c0 f2 33 b6 ba 4c 2f 7b 3e 4e cf b9 3d 96 d9 1d 3b
       -0.0013900979 0.24529761 0.09072743 0.002408599
0002d0 91 04 78 3d 18 c4 81 bc 03 dd df 3d 54 19 06 be
       0.06055123 -0.015840575 0.109308265 -0.130956
0002e0 16 02 53 be 26 86 0c 3e 64 81 86 3d e2 cd 6e 3d
       -0.20606264 0.13723049 0.06567648 0.058301814
0002f0 6a c9 da bb ca 55 4b 3e 4c ee 35 3e 55 88 18 3d
       -0.0066768425 0.19856945 0.17766684 0.03723939
000300 7f f6 68 bd ab e1 24 be 99 33 08 bd ed 1e 83 bd
       -0.056875702 -0.1610171 -0.033252332 -0.06402383
000310 3e b2 95 bd 2c 62 c4 bc 79 5b a3 bd a4 6f 6f 3e
       -0.073093876 -0.023972593 -0.079764314 0.23382431
000320 d7 cb 7a be d5 f8 ad 3d fc 4a 52 3e 20 8d 66 3e
       -0.24491821 0.084947266 0.20536417 0.22514772
000330 48 a5 d6 bd 09 96 8c bd e6 99 dd 3c 0e 1c 8c 3e
       -0.10480744 -0.068645544 0.027050924 0.27365154
000340 bc ea 63 3e 54 1a 91 3e 3a 41 e0 3d 89 77 68 3d
       0.22257513 0.283404 0.10949941 0.056754623
000350 b5 14 7b bd 99 a6 2b be 7a de 80 bb 36 25 d6 3d
       -0.061299045 -0.1676277 -0.0039327713 0.10456316
000360 29 39 2a 3d 74 cf 7d 3d 7d 00 88 bd a1 25 46 3d
       0.04155842 0.06196542 -0.06640718 0.04837573
000370 ae 6d 95 3c b0 02 fa bc 95 57 25 be bd 44 fd 3c
       0.018240776 -0.03051886 -0.16146691 0.030916566
000380 c5 aa 49 3e 5c e6 9f 3d 5d a9 c9 3d ef 2d 20 bd
       0.1969405 0.078076094 0.098467566 -0.039106306
000390 a7 99 eb bd ff 1a 29 3e 04 ad 2a bd 38 a4 96 3e
       -0.11503916 0.16514204 -0.041668907 0.29422164
0003a0 3a 03 18 3e 20 df d9 bd aa 45 c6 3c 26 ae 59 3e
       0.14844981 -0.10638261 0.02420314 0.21257839
0003b0 05 0d e8 3c 4a 9c 18 3e cf 0d d7 bc 18 9a 43 be
       0.02832652 0.1490337 -0.026251702 -0.19101751
0003c0 3e 31 63 bd 36 d6 0e 3c b2 cc 4a bd e9 78 f2 bd
       -0.055466883 0.008718064 -0.04951162 -0.11839468
0003d0 f6 85 39 3e ac aa da bd 8a f7 88 bc 2f d7 df 3d
       0.18117508 -0.10677084 -0.016719598 0.10929715
0003e0 9f 54 24 be 69 b4 63 3d 62 9e 26 bc 46 d2 26 3c
       -0.16047905 0.055591974 -0.010169597 0.010181969
0003f0 18 4b 2c 3d ab 4a 64 3e bf 44 e4 bd 14 4f a5 bd
       0.042063802 0.22294109 -0.11145925 -0.080717236

actor_module.module.2.bias f4 [128]
000000 40 b8 d0 39 c0 a6 89 bb 31 f0 b0 3b cd 87 8a 3b
       0.00039810129 -0.0042007864 0.005399727 0.0042276145
000010 08 0f 79 3b ec c7 78 3b bf 02 9d 3a 00 de 83 35
       0.0038003344 0.003796096 0.0011978968 9.824871e-07
000020 f1 82 51 ba fe 37 1c 3b 98 eb 78 bb fc 36 1d 3a
       -0.0007992229 0.0023837085 -0.0037982222 0.0005997268
000030 da 16 9c ba cc 4c 4e 39 95 f9 ce b9 6e b7 5f bb
       -0.0011908666 0.000196743 -0.00039477335 -0.0034136432
000040 69 45 03 bb 80 59 e4 36 26 ea 82 3b 9d 15 76 bb
       -0.0020030385 6.8053487e-06 0.003995198 -0.0037549504
000050 69 e2 eb ba 55 dd 6c bb 62 96 b7 3a 36 29 aa bb
       -0.0017996553 -0.0036142666 0.001400661 -0.005192901
000060 44 3a 1d bb 34 74 1a 3a 37 48 9e ba 90 2a 1d bb
       -0.0023991028 0.00058919494 -0.0012075965 -0.0023981668
000070 cb 13 cf b9 70 b5 5e bb c8 fa 1d 3a 56 d8 e4 3a
       -0.00039496864 -0.0033982657 0.0006026444 0.0017459493
000080 ad c5 b9 ba fd 73 03 bb 49 60 aa 3b 4a 50 9c 3b
       -0.0014173292 -0.0020058148 0.0051994664 0.0047703134
000090 b3 2c 10 bb f9 0c 45 bb 28 b4 44 bb 37 2a ea 3a
       -0.00219993 -0.0030067547 -0.0030014608 0.0017865364
0000a0 61 2d 9d bb b8 5d 1b ba e0 5a 82 3b a1 af 1d ba
       -0.0047966694 -0.0005926746 0.0039781183 -0.00060152455
0000b0 74 66 4b b9 a4 0e 6c bb a3 00 89 3b 47 f0 6b bb
       -0.00019397755 -0.0036019469 0.004180984 -0.003600137
0000c0 8f 50 83 3b fd e0 82 ba e8 58 76 3b b2 31 45 3b
       0.004007406 -0.0009985265 0.0037589613 0.0030089435
0000d0 6f 9e 5e 3b 04 ee 4d b9 79 26 10 3b db 44 83 3a
       0.0033968945 -0.00019638991 0.0021995588 0.0010015027
0000e0 6d 24 96 3b 3e b5 96 bb 86 fc 1b ba 62 54 03 bb
       0.004581979 -0.0045992425 -0.00059504097 -0.002003931
0000f0 5d 62 b7 ba 3f b3 ca 39 92 ef 82 bb 60 3d 53 3a
       -0.0013991107 0.0003866199 -0.003995844 0.0008058157
000100 4e ed 4d b9 26 b3 2a bb 92 14 4f 39 4c 8e 5e 3b
       -0.00019638726 -0.0026046722 0.00019748721 0.0033959327
000110 e0 54 79 3b 7a 5d 37 bb d9 0b 2a 3b 03 24 cb 39
       0.0038044974 -0.00279793 0.0025947003 0.00038746008
000120 68 f1 41 bb a4 b9 47 39 d7 29 03 bb b5 8b 0f bb
       -0.0029593352 0.00019047275 -0.0020013952 -0.002190334
000130 18 b7 80 ba 60 fd 63 b6 ad 2b 83 3b 38 af 44 3b
       -0.0009820191 -3.397312e-06 0.0040030093 0.0030011665
000140 79 d9 33 bb 25 0e 83 ba f7 77 d2 39 bd f2 03 bb
       -0.0027442856 -0.0009998722 0.00040143702 -0.0020133697
000150 e7 c7 50 3a 11 7b 89 bb 40 52 90 bb 48 b9 cc b9
       0.0007964358 -0.004195579 -0.004404336 -0.00039047957
000160 48 2c 1d 3a 85 9c 9b 3a 3d 2f b7 3a 7d 07 9d 3a
       0.0005995673 0.0011872208 0.001397587 0.0011980381
000170 8b 0b 79 bb 2a d4 ea 3a b3 4b c4 3b 95 b1 9e 3a
       -0.0038001265 0.0017916013 0.0059904694 0.0012107367
000180 d7 44 03 bb f9 bd 51 3b da 07 9d ba ca b8 82 bb
       -0.0020030045 0.0032004102 -0.0011980489 -0.0039893137
000190 db 6e aa 3b 81 00 d2 3a 78 1c 1e 3b 06 0b 89 bb
       0.0052012033 0.0016021879 0.0024125855 -0.0041822223
0001a0 54 f0 5b ba bb 22 90 bb 91 84 83 bb ec 42 1d 3b
       -0.00083899987 -0.0043986714 -0.004013606 0.0023996187
0001b0 8c cd 2a 3b 0f 49 b9 ba 7a be ec ba ba 01 96 3b
       0.0026062457 -0.0014136153 -0.0018062138 0.0045778425
0001c0 35 ac 29 bb ed 49 d3 39 f9 64 d1 3a ed 1c 83 3a
       -0.0025889997 0.00040300135 0.0015975527 0.0010003127
0001d0 ca d3 5e bb 88 df 02 bb 26 2f d1 39 b7 ca e9 ba
       -0.0034000748 -0.001996966 0.00039898715 -0.0017836903
0001e0 35 3f 0e 3b 06 21 51 39 01 7e 1f 3a dc 74 d1 ba
       0.0021705155 0.00019944095 0.00060841447 -0.0015980261
0001f0 88 e3 52 ba 93 c0 1a ba dc 3e 51 bb 22 b9 f4 ba
       -0.0008044769 -0.00059033296 -0.0031928336 -0.0018670897

actor_module.module.4.logstd f4 [1, 4]
000000 31 b8 51 ba c6 34 84 3a c0 9b b7 ba 35 c4 51 ba
       -0.0008000164 0.0010086528 -0.0014008209 -0.00080019544

actor_module.module.4.fc_mean.weight f4 [4, 128]
000000 92 82 c3 3d 28 af 4a 3e 13 ad a1 bd 49 d8 24 bd
       0.09546389 0.1979338 -0.078943394 -0.040245328
000010 67 43 3f bb 06 a0 62 3e 2b de a0 3d 25 c7 43 bd
       -0.0029184462 0.22131357 0.07854875 -0.04779734
000020 c4 c9 22 be 5f d1 c6 bd 8c 4c 6a bd e6 d4 09 3e
       -0.1589728 -0.09707903 -0.057201907 0.1346012
000030 39 bb 00 be 8b e6 9e bd 2b 57 04 3b ca 7c b6 3d
       -0.1257142 -0.07758816 0.0020193558 0.089105204
000040 8e d7 13 bd 50 b0 84 3d e2 3a 83 bd 0b 22 90 3d
       -0.03609424 0.064789414 -0.064077154 0.07037743
000050 c3 3b c4 3d 03 14 2b bd ae 39 bd 3c a3 06 25 3c
       0.09581711 -0.04176713 0.023098793 0.010072383
000060 d4 6a ba bd f8 b5 bc 3d c4 76 70 bd fa 0a 31 3e
       -0.09102407 0.09214395 -0.058707014 0.17289343
000070 fc fa 93 3c 47 a0 d1 bd f6 10 bd bd e0 ad a7 bd
       0.018064015 -0.102356486 -0.09231751 -0.08187461
000080 bc 6a 0c 3e 40 30 52 3d 80 2b 38 3d 81 c4 1e 3d
       0.13712591 0.051315546 0.04496336 0.03876162
000090 38 d7 15 bd 25 a1 4e 3d 94 39 b9 3c bf 7c c2 bd
       -0.0365822 0.05044665 0.022610463 -0.0949645
0000a0 be b7 e5 bc 58 ed 9e 3c c6 41 16 bd 14 ba 0a be
       -0.028041717 0.019400284 -0.03668382 -0.13547546
0000b0 b1 9a 36 be d4 01 e5 bd 0e eb 11 bc 11 70 42 3d
       -0.17832448 -0.11181989 -0.008906139 0.047470156
0000c0 a9 71 0e be 7b b3 13 be e1 9e 74 3d b6 67 89 bc
       -0.13910545 -0.14423935 0.05972183 -0.016773086
0000d0 9b 93 5d 3e 3f cf 86 bd 9c 98 93 3c 38 d5 5b 3d
       0.21638338 -0.06582498 0.018017106 0.053670138
0000e0 f3 cc 43 bd 6e f7 88 3d 95 6e 60 3e 50 9f 2f be
       -0.047802877 0.066878185 0.21917184 -0.17150617
0000f0 9e df 4f bc 51 79 2a bd e0 75 81 3c 0e d0 c0 bc
       -0.012687592 -0.041619603 0.015803277 -0.023536708
000100 91 7a 1b 3e 9e 90 b6 bd 01 32 f3 bd 64 9e 92 3d
       0.15183474 -0.08914302 -0.11874772 0.07159117
000110 b3 6a f4 bb d0 96 a8 bd 2d 12 14 3d e2 6d 79 bd
       -0.0074590086 -0.0823189 0.036150146 -0.060895808
000120 b2 ce a7 bd ff 2f ad 3d 7a 02 b8 3d 72 b0 cd 3c
       -0.08193721 0.0845642 0.08984847 0.02510855
000130 ee 37 cf 3c 2d 16 4c 3d fd 5a 69 bd 94 45 0b bd
       0.025295224 0.049825836 -0.05697154 -0.0340019
000140 56 30 c0 3c d1 3f 8f bd b6 1e 94 3d e9 c9 48 3d
       0.023460548 -0.06994594 0.0723242 0.04902068
000150 55 45 91 3b 1a b1 71 bd 35 d3 4d 3d 7a 9a a3 3d
       0.004433314 -0.059006788 0.05025025 0.079884484
000160 c2 08 f0 bc 93 1b d2 bd 27 5f 0f be 44 3a 1c bd
       -0.029301051 -0.102591656 -0.14001141 -0.038141504
000170 86 cf b4 3d 17 2a 10 3b 11 70 f3 bc 8f 33 0c 3d
       0.088286445 0.0021997744 -0.029716523 0.034228858
000180 d1 25 79 bd 8f 3a a2 3d 65 8a 35 bd 6d 90 eb bd
       -0.06082708 0.079213254 -0.044321436 -0.115021564
000190 84 29 8b bd 94 fe e9 bd 5f 89 cd 3b 98 ba 64 3c
       -0.06795028 -0.1142551 0.0062724794 0.013960503
0001a0 3d 54 32 3d 89 10 40 bd a7 cb bf bc d8 4f 39 be
       0.043537367 -0.04689077 -0.023412539 -0.18096864
0001b0 bc 78 a4 bd e7 f3 0b be 6b 67 0f 3e e4 b9 be bc
       -0.08030841 -0.1366726 0.14004295 -0.023281999
0001c0 37 b3 85 bd 20 63 2f 3d fc 17 00 3d 4f e5 15 3e
       -0.06528323 0.042819142 0.031272873 0.14638256
0001d0 e1 62 29 3e 95 58 b8 bd d7 11 b8 bd c8 38 9a 3d
       0.16541626 -0.09001271 -0.08987778 0.075303614
0001e0 65 d0 18 bd a5 c7 54 bd 18 09 a1 bd 8a 30 71 3d
       -0.037308116 -0.05194821 -0.078630626 0.05888418
0001f0 74 3e 81 3d 8b 1f ef 3d 15 25 36 bd ad 40 86 bd
       0.0631074 0.11675938 -0.044468958 -0.06555305
000200 16 07 2f 3c 17 3e 42 bd d6 7a 09 3d cc 66 94 bc
       0.010682842 -0.047422495 0.03356441 -0.018115424
000210 c1 bf dc 3d b9 39 20 3e 53 ce 1e 3e 6d 80 74 bd
       0.10778762 0.1564702 0.15508394 -0.05969279
000220 56 78 a0 bc 00 82 17 3d 30 a6 89 bd 9b 43 10 3e
       -0.01958863 0.036989212 -0.06721151 0.1408829
000230 eb 27 05 be a4 dd 4c be 0a 98 a4 3c 70 e8 0b bd
       -0.13003509 -0.20006424 0.02009203 -0.034157217
000240 86 8c e1 bd c2 37 53 3d 9e 8e 98 3d fe cf b2 bc
       -0.11013131 0.051566847 0.07449077 -0.021827694
000250 55 4c 30 3b 17 8f 26 3d bb a6 1d bd 55 ae d6 bd
       0.0026900966 0.040663805 -0.038489085 -0.1048247
000260 56 a3 cd bd 51 aa 93 3d 64 20 00 bd 0d e2 ca bd
       -0.100409195 0.0721022 -0.03128089 -0.09906397
000270 e7 5b d9 ba 6a dc 04 be 4a b6 db bc 16 4e 13 3d
       -0.0016583175 -0.12974706 -0.02682032 0.03596314
000280 9d 79 2a bd 22 0f d5 bd 7f 2f b8 3d 73 7a a9 bd
       -0.041619886 -0.10403277 0.08993434 -0.082753085
000290 9c 8e 83 3d 0e 1f 5d bd f5 5d fc bb 66 f4 71 3c
       0.06423685 -0.053984694 -0.0077016302 0.014767742
0002a0 13 b4 43 3c b6 bc 81 bd da 94 c4 3d 9b f3 a6 bd
       0.0119447885 -0.06334822 0.09598704 -0.08151933
0002b0 28 3c f0 ba 01 87 2e bd 53 2e fb 3d 8f de 39 bd
       -0.0018328475 -0.04260922 0.12264695 -0.045378264
0002c0 de 80 56 3d ac 49 6f 3d 4f fd b0 3d ba eb 17 3e
       0.05236899 0.05841987 0.08642065 0.14836016
0002d0 60 70 96 3d 4a f8 93 bd 5c 4a 73 3e e8 2a c0 bd
       0.073456526 -0.07225092 0.23758835 -0.09383184
0002e0 d4 01 61 3d 2c fc 4f be ad 17 18 3d 43 67 33 3c
       0.054933384 -0.2031104 0.037131954 0.0109499125
0002f0 67 48 1c be 43 2c ac 3c 15 da 10 be cf cd 8d bc
       -0.15261994 0.0210172 -0.14145692 -0.017310051
000300 81 4b 46 bd a0 9b 14 3c fb 48 f7 3c c0 b7 4f 3e
       -0.04841185 0.009070307 0.030186167 0.20284939
000310 c4 54 c1 3d 17 1d 1f be 43 34 46 bd 53 1e 87 3d
       0.09439996 -0.1553844 -0.048389684 0.06597581
000320 93 60 97 bd 88 ec 78 3b 94 9b fb 3b 5e 4e 13 bb
       -0.07391467 0.003798278 0.0076784585 -0.002247713
000330 6b 52 c7 bc bb e4 01 3d 6e 84 1b 3d e3 99 49 bd
       -0.024331292 0.031712275 0.03796809 -0.049219023
000340 cb 1d 13 be 45 ca c0 bd 9a 27 fe bd f6 bf 5f be
       -0.14366834 -0.0941358 -0.12409897 -0.21850571
000350 16 fe 19 3c 4a a9 14 bd f6 53 82 3c 05 7f 9e ba
       0.009398958 -0.03629426 0.015909176 -0.0012092298
000360 76 e1 22 bd a0 14 74 3c a0 06 4e 3d d5 89 c7 bb
       -0.039765798 0.0148974955 0.050299287 -0.006089429
000370 bd 27 db bd 94 9a 38 bd ca e3 cc 3c fb dd b0 bb
       -0.10700939 -0.045069292 0.025010962 -0.005397556
000380 66 46 b4 3b c6 06 5e bd 9b fd 22 be 4b a7 1b be
       0.005501556 -0.05420568 -0.15917055 -0.15200536
000390 aa e6 e0 3c 67 d2 46 3e 2b 8b 05 3e 85 b0 da bd
       0.02745374 0.194162 0.1304137 -0.106782
0003a0 15 82 b5 bd f4 b2 71 3b ed 4c 36 3a ea 19 eb 3d
       -0.08862702 0.0036880346 0.0006954212 0.11479552
0003b0 11 8c bc 3d d4 ca 5a bb 35 8a 0d be 2b 2d df 3d
       0.09206403 -0.0033385055 -0.13822253 0.10897287
0003c0 90 3b 26 be 9a be 14 3d 72 8c c1 bd fb 30 bc bd
       -0.16233659 0.036314584 -0.09450616 -0.0918903
0003d0 eb a5 2a bd 41 95 83 3d a7 77 58 bd 22 b7 6c 3c
       -0.041662138 0.06424952 -0.052848484 0.014447959
0003e0 e0 a1 c7 bd 84 61 e2 3d 61 9f 8a 3c 7b 3c df bd
       -0.09747672 0.11053756 0.0169217 -0.109002076
0003f0 12 1b 6b 3d 2f 70 3b b9 8c b0 78 bd 10 d7 db 3a
       0.057398863 -0.00017875501 -0.060715243 0.0016772468

actor_module.module.4.fc_mean.bias f4 [4]
000000 5c 1c 50 ba 56 04 79 3b 3f 69 aa bb 9a d9 5e 3b
       -0.0007938796 0.003799697 -0.0052005346 0.0034004212

module.module.1.module.module.0.weight f4 [128, 10]
000000 74 f9 eb 3b d3 dc c1 bd 3c 33 9d bd 84 6c d9 bc
       0.007201368 -0.09465947 -0.07675788 -0.026541002
000010 45 09 4f bd bf 30 03 be 53 bb 61 be 3d 1f ca bd
       -0.05054595 -0.12811564 -0.22044115 -0.098692395
000020 48 df a7 bc cd 3f a1 3e b5 fc c0 3d 58 bd 67 be
       -0.020492211 0.3149399 0.094232 -0.22630823
000030 fe f1 a3 3d 1e 74 2d 3e 7c 5b 1f bc 48 21 20 3d
       0.08005141 0.16938826 -0.009726401 0.03909424
000040 88 a9 7c 3e c9 35 e2 bc 12 fb 28 3b 8d be c3 bc
       0.24674046 -0.027613537 0.0025784415 -0.023894573
000050 c0 6b 60 be cb b2 eb 3c 96 30 5a 3e de 6a 49 3d
       -0.21916103 0.028771779 0.21307597 0.049174182
000060 b6 30 f1 bc e5 b0 1a 3e 37 7e fb 3c 97 83 73 bd
       -0.029442172 0.15106542 0.030699832 -0.059451666
000070 e8 6f ea bd 03 ab e7 3d 94 3b 34 be 2a 29 d0 bd
       -0.11447126 0.11311915 -0.17600852 -0.101641014
000080 79 89 7d 3e 96 a8 42 be 2d ba 77 3d 4e 76 17 be
       0.24759473 -0.19009623 0.060480285 -0.14791223
000090 4e 4d 49 bc c8 e7 b5 bd aa c0 a6 bc 0c 00 a9 3d
       -0.012286497 -0.088820994 -0.020355541 0.08251962
0000a0 26 07 18 3e 72 d7 de 3d 18 10 8a bc d3 99 31 3d
       0.14846477 0.10880937 -0.016853377 0.04335959
0000b0 7f af 0c be 41 91 4a be 59 5b df 3d e3 e7 6f bc
       -0.13738821 -0.19781972 0.10906095 -0.014642688
0000c0 1c 30 56 bb 9b 27 8f bb af c9 33 3d 82 0d 01 3e
       -0.0032682484 -0.004368735 0.043893512 0.12602809
0000d0 f0 91 77 3e 59 bd 04 bd 68 48 2c 3d 8b 0a 88 3b
       0.24176764 -0.03240714 0.04206124 0.0041516474
0000e0 5c 29 8a bd 46 17 b6 3d 69 53 3a be 80 34 3c 3d
       -0.0674617 0.08891158 -0.18195881 0.045948505
0000f0 fb fc 2c 3d 25 d5 5d be 6e 2f f8 3c 97 41 05 be
       0.04223345 -0.2166334 0.030296054 -0.13013302
000100 03 28 74 3c c6 de 06 3d ce 4e 02 3e b3 cb a8 bd
       0.014902118 0.032927297 0.12725374 -0.082419775
000110 97 f5 ed bd 24 3a 94 3e dd 1b 8d 3d c8 c8 80 3e
       -0.11619108 0.28950608 0.0689008 0.25153184
000120 f0 2c d5 bd fa af 08 bc fc d5 2e 3e a3 0b 3f 3e
       -0.10408962 -0.008342737 0.17073816 0.18656783
000130 2c 2e 4c 3e 3e 98 19 3d 17 3c 32 bd 89 07 9c bd
       0.19939488 0.037498705 -0.043514337 -0.07618625
000140 b2 81 23 3d ec fd fb bd 49 24 2a bd 91 6c 7b bd
       0.03991861 -0.12304291 -0.04153851 -0.061382834
000150 37 5f 09 3e a1 e1 d5 bd 67 56 51 3d d8 98 06 bd
       0.13415228 -0.10443426 0.05110779 -0.032860607
000160 e0 cf eb 3d b1 32 09 3e ef f8 09 bc 71 c8 2f 3d
       0.115142584 0.13398243 -0.008421167 0.042915765
000170 b8 86 d7 3d 19 a7 47 be b4 de 51 3d 16 8d a5 3d
       0.105237424 -0.19497336 0.051237777 0.08083551
000180 a1 ca 1d be 4b 6a ab 3d 04 64 95 bd 28 76 14 3c
       -0.15409328 0.08369883 -0.07294467 0.009061374
000190 05 3a 08 3e 30 ea 91 3e 5d 1d c5 bd 1c 6e d6 3d
       0.13303383 0.28498983 -0.09624741 0.104702204
0001a0 b6 0b 15 3e 44 b0 4f be 0a 94 f6 bd d7 e5 c4 bd
       0.14555249 -0.20282084 -0.12039955 -0.09614151
0001b0 2a aa 4e 3d c1 a9 5c 3e 49 5c ac 3e ca c8 31 bd
       0.05045525 0.21549131 0.33664158 -0.043404378
0001c0 35 72 ab 3d 84 4d 8c 3d 1c b5 0c bd d3 2b 23 3e
       0.08371393 0.068507224 -0.034352407 0.15934686
0001d0 e4 17 d3 bc e3 ef d1 bc bf 34 fb bd ba 6f c3 bc
       -0.025768228 -0.025627082 -0.1226592 -0.023856986
0001e0 08 4e b7 3d 8a a7 12 be 4a 99 91 3d 95 46 be bd
       0.0895043 -0.14321724 0.07109316 -0.09290806
0001f0 85 86 a0 3d b8 40 0e 3d c1 01 1c 3e bf c7 c6 bb
       0.078381576 0.03472969 0.15235044 -0.006066292
000200 f4 3b 09 3e ad 6d cf 3d ba 6a 7f 3d 20 15 5a 3c
       0.13401777 0.10128341 0.06235764 0.013310701
000210 9d a6 df bd 18 59 0a 3e 67 9c 08 3c 32 c2 01 bd
       -0.10920451 0.13510549 0.0083380705 -0.03167934
000220 32 e8 00 3d 15 67 a4 bc b6 9f df 3d e5 66 ce 3d
       0.03147144 -0.020068685 0.10919134 0.10078219
000230 bd 04 99 bd 80 5c 2c be e0 a7 50 3c 56 83 b9 3d
       -0.07471607 -0.16832161 0.012735337 0.090582535
000240 23 1c ae bd 7a a0 4d bd f6 6c 18 3d b9 17 88 bd
       -0.085014604 -0.05020187 0.03721329 -0.0664515
000250 bc d3 b1 3d 83 5b 80 be fa 81 88 3c 3e 97 27 3e
       0.08682963 -0.25069818 0.01666354 0.16366288
000260 61 f3 89 3c 2f c2 e3 bb ff df 83 be a9 ae 04 3d
       0.016839685 -0.0069506387 -0.25756833 0.03239313
000270 d9 8d 1d 3d 0b bd cf bd fc 65 34 be 1b ac d6 3c
       0.038465355 -0.10143479 -0.17617029 0.026205113
000280 06 f7 76 3e a0 2f af 3d 3a 62 08 bd 20 63 5e 3c
       0.2411767 0.085540056 -0.0332968 0.013573438
000290 93 6b 8e 3c 71 fb b6 bc 4b 54 32 bc 23 76 06 be
       0.01738528 -0.022336693 -0.010884355 -0.13131003
0002a0 e3 40 22 bb eb 6c 4c be 43 0a 5d bd 57 ac 43 bc
       -0.0024757914 -0.19963424 -0.053964864 -0.0119429445
0002b0 2e 4e a0 3d d4 f0 ed bb 81 29 af bc 6f 6d 14 3e
       0.078274116 -0.007261375 -0.021382095 0.1449487
0002c0 ad 79 31 bd 2e 44 80 3e 5c af d5 3d 72 17 f1 bd
       -0.04332893 0.25052017 0.10433838 -0.1177205
0002d0 44 ca 42 3c 5b cf 3b 3d b7 d9 1d be 36 70 a5 bd
       0.011889044 0.045852046 -0.15415083 -0.08078043
0002e0 ff 47 f3 3d 30 80 b9 3d 79 47 33 3d bf 17 6b be
       0.118789665 0.09057653 0.043769334 -0.22958277
0002f0 d3 0e 8f bd e2 fe e0 ba c2 71 25 be 12 e9 9e 3e
       -0.06985249 -0.0017165805 -0.16156676 0.31037194
000300 67 62 35 be 7d 55 c6 bd 51 77 c6 bd 97 1a 11 3d
       -0.17713319 -0.09684274 -0.096907265 0.03542575
000310 ac 9e 0f 3e a5 03 25 3d c7 ff 46 bc 51 59 fb 3d
       0.14025372 0.04028668 -0.012145943 0.12272895
000320 c2 2e a5 3d 01 3b 4a 3e 0e 78 cc bd b6 40 13 be
       0.08065559 0.1974907 -0.09983836 -0.14380154
000330 45 de 75 3d a9 24 4a be ef d5 c7 3d b2 01 63 3e
       0.060026426 -0.19740547 0.097576015 0.22168615
000340 2b 38 54 be 12 eb 06 3e a9 d9 8d bb c5 82 4d 3c
       -0.20724551 0.1317561 -0.0043289256 0.012543385
000350 80 90 a1 3d 68 2e d4 bd 83 f1 00 be 38 ce 65 bd
       0.07888889 -0.10360414 -0.1259213 -0.05610487
000360 e1 10 8a be ba cc ff 3c 0f c7 3a 3e 03 0e 42 be
       -0.26966003 0.03122555 0.18239997 -0.18950658
000370 e1 a5 9b 3d 39 79 54 be d0 18 98 bd ca 36 82 3d
       0.07599998 -0.20749368 -0.074266076 0.063581064
000380 69 33 b8 bd ef 65 af bd 2a 83 74 3d fa 7f ca 3d
       -0.08994181 -0.08564364 0.0596954 0.09887691
000390 a0 6f d6 3d 1f db 79 3d de 43 d6 bd 68 71 64 be
       0.104705095 0.060999986 -0.104621634 -0.22308886
0003a0 9f b8 41 be 2c 09 1d be d6 07 41 bc 34 73 33 3e
       -0.18918084 -0.1533553 -0.011781653 0.17524415
0003b0 cb 10 a5 bd 12 56 b1 bc ab 05 16 3e b3 24 22 bd
       -0.08059844 -0.021647487 0.146506 -0.03958578
0003c0 ad a2 7b be f5 cf 16 bc ec c9 8c bd a3 39 45 bd
       -0.24573775 -0.009204854 -0.06874451 -0.04815067
0003d0 52 b4 7b be 4c 01 5c 3e 42 9c 35 be de cd 2e bd
       -0.24580505 0.2148487 -0.17735389 -0.0426768
0003e0 25 b0 c8 3d db 42 a2 bd 4c 4f df bd fd 44 93 be
       0.09799222 -0.07922908 -0.109037966 -0.2876357
0003f0 c8 85 f8 3d 9e c9 a7 3d 46 ed 82 bd 82 fa a2 be
       0.12134892 0.08192752 -0.063929126 -0.31831747

module.module.1.module.module.0.bias f4 [128]
000000 82 58 44 3b 1b f3 82 ba 53 58 4a b9 a7 a5 78 bb
       0.0029959981 -0.0009990664 -0.00019297125 -0.0037940533
000010 d4 76 10 3b 53 4a d3 3a bb 51 aa 3b cc e6 90 b9
       0.0022043483 0.0016120173 0.0051977313 -0.00027637777
000020 52 44 d2 ba b4 d5 1c bb b4 2f 1d 3b e6 fd cf 39
       -0.001604209 -0.0023931088 0.0023984732 0.00039671286
000030 55 40 43 3b a6 21 58 ba 27 36 d6 b9 d5 72 1d 3b
       0.0029792984 -0.000824476 -0.00040857607 0.0024024744
000040 03 81 cd ba 01 83 1b ba b8 ae b8 3a 6a dc 50 bb
       -0.0015678707 -0.0005932302 0.0014090156 -0.0031869658
000050 b7 d5 82 ba 8c 36 79 3b 41 85 37 bb d0 ac 51 3a
       -0.0009981905 0.0038026897 -0.002800301 0.00079984684
000060 46 e0 18 3a b7 85 20 3a 4c ff eb 3a 08 4c aa 3b
       0.0005831759 0.00061234407 0.0018005162 0.005197052
000070 a4 90 44 3b 2f f2 9c 3a 54 56 ea ba 9b 33 2a bb
       0.002999344 0.0011974032 -0.0017878511 -0.00259707
000080 7c 1c 6c 3b 49 b2 51 3b a7 50 78 3b 16 8c b7 ba
       0.003602772 0.0031997135 0.003788987 -0.0014003541
000090 cc d0 6b bb 33 30 79 3b 43 d1 eb ba 92 5b 37 3b
       -0.0035982607 0.0038023114 -0.0017991442 0.0027978164
0000a0 20 b1 1d 3a 28 f2 1c 3a 05 3f 10 3b 20 f4 99 ba
       0.00060154684 0.0005987012 0.0022010219 -0.0011745729
0000b0 98 f2 82 3a 5a 61 1b bb 17 a8 2a 3b 2c bf 54 ba
       0.0009990511 -0.002370915 0.002604013 -0.0008115645
0000c0 74 81 d0 b9 00 92 c0 36 22 3c d0 39 46 64 2a bb
       -0.00039769302 5.7390425e-06 0.00039717654 -0.002599971
0000d0 7f 84 37 3b b9 5d 2a bb c4 ea 78 bb a7 89 51 bb
       0.0028002558 -0.0025995804 -0.0037981728 -0.0031972916
0000e0 90 d4 0f bb cd 5a b7 3b ac e1 51 39 e1 10 2a 3b
       -0.0021946765 0.005595541 0.00020015863 0.0025950002
0000f0 b6 66 1e 3a 9e 92 37 3b ca 60 11 bb a5 a6 5e bb
       0.0006042527 0.0028010975 -0.0022182935 -0.003397384
000100 c4 d6 54 3b 90 22 10 bb 25 bf bd 3b f7 9e 89 3b
       0.0032476643 -0.0021993257 0.0057906085 0.0041998583
000110 cd 61 ec ba ae de 1c 3a 76 19 1d 3b d8 a3 19 3b
       -0.0018034518 0.00059841096 0.0023971475 0.0023443606
000120 8a 8d 96 3b b8 14 a4 bb 67 de 51 ba bb 71 10 bb
       0.0045945095 -0.0050073527 -0.0008005858 -0.0022040445
000130 3e 59 b7 ba 8d de 78 3b 3d 49 ec ba 4c d2 76 bb
       -0.0013988388 0.0037974447 -0.0018027198 -0.0037661968
000140 70 8b 48 b8 2b b0 1d 3a e6 be 36 3b 70 e3 a3 3b
       -4.7813577e-05 0.0006015326 0.002788478 0.005001478
000150 ae 11 ec 3a cf 85 37 bb 08 4a 03 3b 0b 0e fa 3a
       0.001801064 -0.002800334 0.002003314 0.0019077671
000160 51 5a aa 3b ae d6 82 ba f6 36 9d 3a 88 2d 9d bb
       0.005198755 -0.0009982192 0.0011994529 -0.0047966875
000170 4a d8 01 3b 99 52 52 3a 76 95 44 3b 44 da d2 b9
       0.0019812756 0.0008023172 0.0029996312 -0.00040216942
000180 7c 45 d5 39 54 70 51 39 b7 88 9d ba f4 a5 29 bb
       0.00040678296 0.00019973639 -0.0012018894 -0.002588627
000190 7d c7 2a bb b0 c0 b6 36 38 ee 1c ba ea 3e b6 ba
       -0.0026058846 5.4464545e-06 -0.0005986425 -0.0013904248
0001a0 04 3e 10 bb 8a 94 2a 3b 20 53 0f bb 6b 80 9d 3a
       -0.002200962 0.0026028478 -0.0021869615 0.0012016421
0001b0 86 25 83 bb 5c 79 29 bb 18 83 b7 ba 83 bc 51 3b
       -0.004002276 -0.002585969 -0.0014000861 0.003200323
0001c0 2e e6 78 3b 07 00 b0 bb 4b 8d b7 3b 2c 1a 10 3b
       0.0037978995 -0.005371097 0.00560156 0.0021988256
0001d0 08 50 60 3b ec e2 02 3b 60 6b 2a 3b cc 33 1d bb
       0.003422739 0.0019971682 0.0026003942 -0.0023987172
0001e0 d2 aa 1c bb d7 5f eb 3a ff 66 eb 3a bb 07 03 bb
       -0.0023905528 0.001795764 0.0017959772 -0.0019993621
0001f0 74 b3 6b bb 58 8f 4d 39 0e dc 17 bb 8e 67 9d bb
       -0.0035965117 0.00019603723 -0.0023171934 -0.0048036044

module.module.1.module.module.2.weight f4 [128, 128]
000000 e6 53 d0 3b 29 2a 9e bc 34 51 77 be a8 f9 07 3e
       0.0063576577 -0.019307213 -0.2415207 0.1327883
000010 9e cc 1e 3e ee c0 8b be 91 51 bf 3d fa 4e 8d be
       0.15507743 -0.2729563 0.093417294 -0.27599317
000020 f5 f0 4f 3d 07 96 95 be e6 92 af bc 70 1a a0 bd
       0.050766904 -0.29216024 -0.021432351 -0.078175426
000030 30 89 0f 3e 22 5e c7 ba d2 54 a2 3d 4c cd f0 3d
       0.14017177 -0.0015210549 0.079263344 0.11757907
000040 6a 77 17 3e 99 04 b4 3e c5 7f fe 3d 31 5b 99 bc
       0.14791647 0.35159758 0.12426714 -0.018720241
000050 25 2a 41 bd dd 9f 84 bd 8c 12 bf bc 47 e6 72 bd
       -0.047159333 -0.06475804 -0.023324274 -0.05930164
000060 c8 b0 7f bd d5 ea 81 3d b8 9a b9 3d 67 98 78 3e
       -0.06242445 0.06343619 0.090627134 0.24276887
000070 1a 38 86 bc fd d4 d8 bb 77 75 ee 3d 4b 19 8c 3d
       -0.016384173 -0.006617187 0.116434984 0.06840762
000080 49 55 1c be 90 3f 14 be 68 15 be bd fa 19 ca bd
       -0.15266909 -0.14477372 -0.09281427 -0.09868236
000090 0b ea 7b 3d e3 1e 38 3d 4d 94 a8 3b 94 43 b8 bb
       0.061502498 0.04495133 0.005144632 -0.0056232903
0000a0 aa fe 56 be 5a ea 23 3e 50 d8 9d bc 24 db 95 3d
       -0.20995584 0.16007367 -0.019268185 0.073171884
0000b0 b6 29 e8 3d 76 6e 1e 3e 08 79 95 bd b7 68 9a 3d
       0.11336081 0.15471825 -0.072984755 0.07539504
0000c0 df 28 e1 3d b3 71 eb bd dc 44 b3 3c 52 f9 1b be
       0.10994124 -0.11496296 0.02188342 -0.15231827
0000d0 80 b1 a0 3d ea 0a 0a 3e 8f 35 84 be 8c 42 31 3d
       0.078463554 0.13480726 -0.25822112 0.043276355
0000e0 11 ca 6c be 73 23 c3 3d a8 2f 59 3d 48 5c 0b be
       -0.23123957 0.09528246 0.053023964 -0.13609421
0000f0 99 e5 bb 3d 6a 1c 04 be 97 ba 0b 3d 31 b1 0e be
       0.09174652 -0.12901464 0.034113493 -0.1393478
000100 61 fc 6c be e3 a1 0b 3e 44 44 b8 bd b1 86 77 3d
       -0.2314315 0.13635974 -0.08997396 0.060431186
000110 a7 0f fe bd a4 3c ea bd 72 96 de bd b6 de fe 3d
       -0.12405329 -0.114373475 -0.10868539 0.124448225
000120 11 c5 9f bd 99 b8 f0 bd fd 4d fb bd b1 98 14 3d
       -0.07801259 -0.11753959 -0.122707345 0.03627843
000130 e8 11 b0 3d 4f e8 2c 3e cc 52 a0 3b b1 4b 40 bd
       0.08597165 0.16885494 0.0048926827 -0.046947185
000140 a9 2a 03 3e b3 ab cb 3c 3c fe 8a 3d 04 c2 35 3e
       0.12809242 0.024862146 0.067867726 0.17749792
000150 7b 49 1a bd e9 d6 2c be fc db dc 3d cd dd 42 be
       -0.037667733 -0.16878857 0.10784146 -0.19029923
000160 1f 1e 86 be ae 1e 19 3e 44 b9 93 bd 6b e9 cb 3d
       -0.26194856 0.1495311 -0.07213071 0.0995663
000170 19 68 02 3d ff 1a cd bd d3 47 cc 3d d3 f2 40 bc
       0.031837557 -0.10014915 0.09974637 -0.011776644
000180 c7 5d 37 3d 1a 6c 4e 3e c7 b3 ed 3d 39 29 8b bd
       0.044767167 0.20158425 0.116065554 -0.06794972
000190 b6 ab 9f 3d f0 cd f7 3d ed 4b b8 3d 33 67 58 be
       0.07796423 0.12099826 0.08998857 -0.21133117
0001a0 b6 27 0f be 11 9d b6 bd 03 2f a0 3d 11 8f e9 3d
       -0.13979992 -0.08916677 0.07821467 0.11404241
0001b0 79 af 6d 3e 0e c2 0e be 6d 1a 04 be 3a 1a 57 3d
       0.23211469 -0.13941213 -0.12900706 0.052515246
0001c0 a6 be ef bb bc 54 2a 3d ee 64 8e be 76 09 2c 3c
       -0.0073164282 0.041584715 -0.27811378 0.010500303
0001d0 94 1b de bd 09 85 98 3b 15 d0 b8 ba 76 24 98 3c
       -0.10845104 0.004654531 -0.0014100099 0.018572073
0001e0 49 a4 31 3d 4e 77 af bd 2e f5 f0 bd d3 50 81 bc
       0.043369565 -0.085676774 -0.11765514 -0.01578561
0001f0 52 77 1f bd 61 96 14 be 72 f4 fa bc a5 92 56 3c
       -0.038932152 -0.1451049 -0.030634139 0.013096486
000200 bb 58 8d 3e 20 e6 44 bd b9 3d 19 bc 27 05 86 3d
       0.27606758 -0.048071027 -0.009353095 0.065439515
000210 17 73 18 be c0 58 be bd 75 9c ee bd ac 2f 24 3d
       -0.14887653 -0.092942715 -0.116509356 0.040084526
000220 23 f6 97 3d 43 54 23 3d 99 86 ea bc 19 6e f8 bd
       0.07419994 0.03987528 -0.028628634 -0.121303745
000230 57 6c 71 3d 43 94 93 3c f5 4c 15 bc 25 7b 42 3a
       0.05894121 0.018015033 -0.009112586 0.00074188627
000240 0d 1d ea bd e2 a6 a7 bd 5f 1e 4b 3e 1a 69 8f 3d
       -0.11431322 -0.08186127 0.19835804 0.070024684
000250 ec 8d d4 3d 73 f6 df bd a1 be 51 bd 4c b9 8f be
       0.10378632 -0.10935678 -0.05120719 -0.28071058
000260 a1 28 24 bd f1 91 92 3d 14 af 07 be d2 ca a7 bd
       -0.04007781 0.07156742 -0.13250381 -0.08192982
000270 fe 72 0e bd ea af 04 3e c5 93 6a be a9 da e1 bd
       -0.034777634 0.12957731 -0.22907932 -0.11028034
000280 b0 9c 93 bd 89 63 8a bd c2 2d f5 bd ae 63 2f be
       -0.0720762 -0.06757266 -0.11971618 -0.17127869
000290 3c 63 af 3d 23 c8 e4 3d 43 c2 d1 3d 28 c2 ca bb
       0.08563849 0.111709855 0.102421306 -0.006187696
0002a0 38 61 66 bd 64 b6 04 3e 42 6a 6e 3d ca d6 8d be
       -0.05624506 0.12960202 0.058206804 -0.27702934
0002b0 f6 89 2a 3e 33 ef ae bd a8 03 f6 bd 61 6b d7 3d
       0.1665419 -0.085417174 -0.12012416 0.10518528
0002c0 f2 33 b6 ba 4c 2f 7b 3e 4e cf b9 3d 96 d9 1d 3b
       -0.0013900979 0.24529761 0.09072743 0.002408599
0002d0 91 04 78 3d 18 c4 81 bc 03 dd df 3d 54 19 06 be
       0.06055123 -0.015840575 0.109308265 -0.130956
0002e0 16 02 53 be 26 86 0c 3e 64 81 86 3d e2 cd 6e 3d
       -0.20606264 0.13723049 0.06567648 0.058301814
0002f0 6a c9 da bb ca 55 4b 3e 4c ee 35 3e 55 88 18 3d
       -0.0066768425 0.19856945 0.17766684 0.03723939
000300 7f f6 68 bd ab e1 24 be 99 33 08 bd ed 1e 83 bd
       -0.056875702 -0.1610171 -0.033252332 -0.06402383
000310 3e b2 95 bd 2c 62 c4 bc 79 5b a3 bd a4 6f 6f 3e
       -0.073093876 -0.023972593 -0.079764314 0.23382431
000320 d7 cb 7a be d5 f8 ad 3d fc 4a 52 3e 20 8d 66 3e
       -0.24491821 0.084947266 0.20536417 0.22514772
000330 48 a5 d6 bd 09 96 8c bd e6 99 dd 3c 0e 1c 8c 3e
       -0.10480744 -0.068645544 0.027050924 0.27365154
000340 bc ea 63 3e 54 1a 91 3e 3a 41 e0 3d 89 77 68 3d
       0.22257513 0.283404 0.10949941 0.056754623
000350 b5 14 7b bd 99 a6 2b be 7a de 80 bb 36 25 d6 3d
       -0.061299045 -0.1676277 -0.0039327713 0.10456316
000360 29 39 2a 3d 74 cf 7d 3d 7d 00 88 bd a1 25 46 3d
       0.04155842 0.06196542 -0.06640718 0.04837573
000370 ae 6d 95 3c b0 02 fa bc 95 57 25 be bd 44 fd 3c
       0.018240776 -0.03051886 -0.16146691 0.030916566
000380 c5 aa 49 3e 5c e6 9f 3d 5d a9 c9 3d ef 2d 20 bd
       0.1969405 0.078076094 0.098467566 -0.039106306
000390 a7 99 eb bd ff 1a 29 3e 04 ad 2a bd 38 a4 96 3e
       -0.11503916 0.16514204 -0.041668907 0.29422164
0003a0 3a 03 18 3e 20 df d9 bd aa 45 c6 3c 26 ae 59 3e
       0.14844981 -0.10638261 0.02420314 0.21257839
0003b0 05 0d e8 3c 4a 9c 18 3e cf 0d d7 bc 18 9a 43 be
       0.02832652 0.1490337 -0.026251702 -0.19101751
0003c0 3e 31 63 bd 36 d6 0e 3c b2 cc 4a bd e9 78 f2 bd
       -0.055466883 0.008718064 -0.04951162 -0.11839468
0003d0 f6 85 39 3e ac aa da bd 8a f7 88 bc 2f d7 df 3d
       0.18117508 -0.10677084 -0.016719598 0.10929715
0003e0 9f 54 24 be 69 b4 63 3d 62 9e 26 bc 46 d2 26 3c
       -0.16047905 0.055591974 -0.010169597 0.010181969
0003f0 18 4b 2c 3d ab 4a 64 3e bf 44 e4 bd 14 4f a5 bd
       0.042063802 0.22294109 -0.11145925 -0.080717236
