data/checkpoints/62-3-sgPGCI/ckpt.3905.pth (torch, 579260 bytes, 52 tensors)

actor_module.module.0.weight f4 [128, 10]
0	0xbc7231a4	-0.014782343
1	0xbdea34ae	-0.11435829
2	0xbdc9ed7a	-0.09859748
3	0xbd49723b	-0.049181204
4	0xbd4f093d	-0.05054592
5	0xbe0330be	-0.12811562
6	0xbe61bb53	-0.22044115
7	0xbdca1f3a	-0.09869237
8	0xbca7df3d	-0.02049219
9	0x3ea13fce	0.31493992
10	0x3de8b03d	0.1136174
11	0xbe589cb4	-0.21153527
12	0x3dd02dab	0.101649605
13	0x3e3e7441	0.18599035
14	0xbc1f5b66	-0.009726381
15	0x3d202144	0.039094225
16	0x3e7ca985	0.24674042
17	0xbce235ca	-0.02761354
18	0x3b28fb31	0.0025784487
19	0xbcc3be89	-0.023894565
20	0xbe52b6bf	-0.20577525
21	0x3d1f5b8f	0.038905676
22	0x3e646b1c	0.22306484
23	0x3d74bc15	0.05974968
24	0xbcf130b9	-0.029442178
25	0x3e1ab0e4	0.15106541
26	0x3cfb7e2c	0.030699812
27	0xbd7383a3	-0.05945171
28	0xbdea6fe7	-0.11447125
29	0x3de7ab03	0.11311915
30	0xbe34a283	-0.17640118
31	0xbde02354	-0.10944238
32	0x3e8034ce	0.25040287
33	0xbe443d90	-0.19164109
34	0x3d77ba2f	0.060480293
35	0xbe17764e	-0.14791223
36	0xbc494d5e	-0.012286512
37	0xbdb5e7c8	-0.088820994
38	0xbca6c0af	-0.02035555
39	0x3da9000d	0.08251963
40	0x3e2320b4	0.15930444
41	0x3df4d6aa	0.119550064
42	0xbc047893	-0.008085388
43	0x3d608c36	0.054821216
44	0xbe0caf7e	-0.1373882
45	0xbe4a9140	-0.19781971
46	0x3ddf5b58	0.10906094
47	0xbc6fe7f2	-0.014642702
48	0xbb563075	-0.0032682691
49	0xbb8f27bb	-0.00436875
50	0x3d6eca7a	0.058298565
51	0x3e0c4265	0.13697203
52	0x3e84a7b5	0.259092
53	0xbc2d01a7	-0.010559476
54	0x3d2c4867	0.042061236
55	0x3b880a83	0.0041516437
56	0xbd8a295e	-0.067461714
57	0x3db61747	0.088911586
58	0xbe3a536b	-0.18195884
59	0x3d3c3484	0.04594852
60	0x3c800d3a	0.015631307
61	0xbe760116	-0.24023852
62	0x3b7b518b	0.0038348164
63	0xbe228ad6	-0.15873274
64	0x3c742805	0.0149021195
65	0x3d06dec8	0.032927305
66	0x3e024ece	0.12725374
67	0xbda8cbba	-0.08241983
68	0xbdedf594	-0.11619106
69	0x3e943a26	0.28950614
70	0x3d9edaba	0.077565625
71	0x3e87c08d	0.26514092
72	0xbdb394f8	-0.08768648
73	0x3b9f2955	0.004857222
74	0x3e2ed5fc	0.17073816
75	0x3e3f0ba3	0.18656783
76	0x3e4c2e2f	0.19939493
77	0x3d19983b	0.037498694
78	0xbd323c12	-0.04351432
79	0xbd9c078b	-0.07618626
80	0x3d06d4e0	0.032917857
81	0xbdfb36c3	-0.12266304
82	0xbd370069	-0.044678126
83	0xbd8a6f3a	-0.06759496
84	0x3e095f36	0.13415226
85	0xbdd5e1a3	-0.104434274
86	0x3d515664	0.05110778
87	0xbd0698d9	-0.03286061
88	0x3debcfe0	0.115142584
89	0x3e0932ae	0.13398239
90	0xbc865287	-0.016396774
91	0x3d096b4f	0.033549603
92	0x3dd5dff8	0.10443109
93	0xbe4ba3bd	-0.1988668
94	0x3d51deb2	0.05123777
95	0x3da58d16	0.08083551
96	0xbe1dcaa0	-0.15409327
97	0x3dab6a4b	0.08369883
98	0xbd956403	-0.07294466
99	0x3c14762c	0.0090613775
100	0x3dfff163	0.12497213
101	0x3e8d6867	0.27618715
102	0xbdd720b0	-0.105042815
103	0x3dcadae8	0.09905034
104	0x3e150bb5	0.14555247
105	0xbe4fb044	-0.20282084
106	0xbdf6940c	-0.120399565
107	0xbdc4e5d7	-0.09614151
108	0x3d4eaa2e	0.050455265
109	0x3e5ca9c3	0.21549134
110	0x3eb1961f	0.34684846
111	0xbd00d279	-0.031450722
112	0x3dca93ac	0.098914474
113	0x3da551bf	0.080722325
114	0xbd0cb519	-0.034352396
115	0x3e232bd3	0.15934686
116	0xbcd317e4	-0.025768228
117	0xbcd1efe3	-0.025627082
118	0xbdfb34bf	-0.1226592
119	0xbcc36fba	-0.023856986
120	0x3d756424	0.059909955
121	0xbe2b3fbd	-0.16723533
122	0x3d247f5a	0.040160514
123	0xbdece8d1	-0.11567844
124	0x3da08686	0.07838158
125	0x3d0e40b8	0.03472969
126	0x3e1c01c1	0.15235044
127	0xbbc6c7cb	-0.0060662976
128	0x3e093bf6	0.1340178
129	0x3dcf6dad	0.10128341
130	0x3d907eb0	0.07055414
131	0x3ce0601b	0.027389577
132	0xbdbda1dd	-0.092593886
133	0x3e0c020c	0.13672656
134	0x3c089c69	0.008338072
135	0xbd01c231	-0.031679336
136	0x3d00e831	0.031471435
137	0xbca46717	-0.020068688
138	0x3ddf9fb6	0.10919134
139	0x3dce66e7	0.10078221
140	0xbdab839a	-0.083747104
141	0xbe34fe8c	-0.17675227
142	0xbb48d6ed	-0.0030645684
143	0x3d98bb0c	0.07457551
144	0xbdae1c23	-0.085014604
145	0xbd4da075	-0.050201852
146	0x3d186cf6	0.03721329
147	0xbd8817ba	-0.066451505
148	0x3db1d3bc	0.08682963
149	0xbe805b84	-0.2506982
150	0x3be04d54	0.0068451557
151	0x3e1e6307	0.15467463
152	0x3c215d16	0.009848854
153	0xbc9b3e9a	-0.01895075
154	0xbe83dfff	-0.25756833
155	0x3d04aeaa	0.032393135
156	0x3d1d8dda	0.03846536
157	0xbdcfbd0b	-0.10143479
158	0xbe3465fe	-0.17617032
159	0x3cd6ac1f	0.02620512
160	0x3e83c09e	0.25732893
161	0x3dc94a59	0.09828634
162	0xbcbeafe9	-0.02327724
163	0x3ca7050d	0.02038815
164	0x3c8e6b94	0.017385282
165	0xbcb6fb70	-0.022336692
166	0xbc32544e	-0.010884358
167	0xbe067624	-0.13131005
168	0xbb2240d8	-0.0024757888
169	0xbe4c6ceb	-0.19963424
170	0xbd282281	-0.04104853
171	0xba850c8a	-0.0010150832
172	0x3dac6dbc	0.08419368
173	0x3beab20b	0.0071623377
174	0xbcaf2980	-0.021382093
175	0x3e146d6f	0.1449487
176	0xbd3179ad	-0.04332893
177	0x3e80442f	0.2505202
178	0x3dd5af5d	0.104338385
179	0xbdf11773	-0.11772051
180	0xbc11a238	-0.008888774
181	0x3cf77bcf	0.030210404
182	0xbe2f16ac	-0.17098492
183	0xbdc565b9	-0.09638543
184	0x3df347ff	0.118789665
185	0x3db9802e	0.090576515
186	0x3d334777	0.043769326
187	0xbe6b17c2	-0.22958282
188	0xbd8f0ed5	-0.06985251
189	0xbae0ff29	-0.0017165887
190	0xbe1a60e4	-0.15076023
191	0x3ea053d2	0.3131395
192	0xbe2f75a6	-0.17134723
193	0xbdb7f9fc	-0.089832276
194	0xbdc67751	-0.096907265
195	0x3d111a95	0.03542574
196	0x3e0f9ead	0.14025374
197	0x3d2503a6	0.040286683
198	0xbc46ffcb	-0.012145947
199	0x3dfb5957	0.122728996
200	0x3d9ba31a	0.075994685
201	0x3e416b11	0.18888499
202	0xbddc738e	-0.10764228
203	0xbe17b2b7	-0.14814268
204	0x3d75de45	0.060026426
205	0xbe4a24a6	-0.19740543
206	0x3dc7d5f4	0.09757605
207	0x3e6301b4	0.22168618
208	0xbe54382c	-0.20724553
209	0x3e06eb12	0.1317561
210	0xbcf636f0	-0.030055493
211	0xbb86fa2e	-0.004119179
212	0x3d77c3bd	0.060489405
213	0xbe082d05	-0.13298424
214	0xbe00f183	-0.1259213
215	0xbd65ce38	-0.05610487
216	0xbe8a10e1	-0.26966003
217	0x3cffccbe	0.031225558
218	0x3e3ac70f	0.18239997
219	0xbe420e05	-0.1895066
220	0x3db28de3	0.08718469
221	0xbe493369	-0.19648518
222	0xbd8eacbc	-0.0696654
223	0x3d9a3ac5	0.07530741
224	0xbdb83369	-0.08994181
225	0xbdaf65ed	-0.08564363
226	0x3d748328	0.059695393
227	0x3dca7ffb	0.098876916
228	0x3dd66f9f	0.10470509
229	0x3d79db23	0.061
230	0xbdf50b70	-0.11965072
231	0xbe776d26	-0.2416273
232	0xbe54bf04	-0.20775992
233	0xbe256532	-0.16151884
234	0xbc4107d9	-0.011781656
235	0x3e337334	0.17524415
236	0xbda510cc	-0.080598444
237	0xbcb1561a	-0.021647502
238	0x3e1605a9	0.14650597
239	0xbd2224b2	-0.039585777
240	0xbe891f9d	-0.26781932
241	0xbd161539	-0.036641333
242	0xbdb8ec0b	-0.090293966
243	0xbd8f9d35	-0.07012407
244	0xbe7bb452	-0.24580505
245	0x3e5c014c	0.2148487
246	0xbe359c3f	-0.17735384
247	0xbd2ecde2	-0.042676814
248	0x3dc8b027	0.097992234
249	0xbda242dc	-0.07922909
250	0xbe014857	-0.12625252
251	0xbe99d63d	-0.30046263
252	0x3dcf3e82	0.10119344
253	0x3d848777	0.0647115
254	0xbd82ed47	-0.06392913
255	0xbea2fa82	-0.31831747

actor_module.module.0.bias f4 [128]
0	0xbcdd5f22	-0.027022902
1	0x3cb93f45	0.022613177
2	0x3c23f757	0.010007701
3	0xbbf35a59	-0.0074265418
4	0x3c5b8d19	0.0134003395
5	0x3caa7911	0.020809682
6	0xbce70609	-0.02820112
7	0x3ca8cfb1	0.020606847
8	0xbb6c444d	-0.0036051453
9	0xbc0d613d	-0.00862914
10	0xbba793d7	-0.0051140594
11	0x3c91bfcf	0.017791657
12	0xbd0db7b0	-0.034599006
13	0x3bac6641	0.005261213
14	0xbca8f328	-0.020623758
15	0xbb1e0951	-0.002411444
16	0x3c6bb85a	0.014387215
17	0x3c482ce8	0.012217738
18	0xbca3d608	-0.019999519
19	0x3ad255a3	0.001604725
20	0xbc37b047	-0.011211461
21	0xbcd86dd8	-0.026419565
22	0x3c4b2d86	0.01240099
23	0xbc6607e8	-0.014039971
24	0xbcdb9239	-0.026803123
25	0xbcaa8a0d	-0.02081778
26	0xbcc7f0f5	-0.02440689
27	0xbbcb2d32	-0.006200456
28	0xbcb96260	-0.022629917
29	0x3c0cb9d2	0.008589225
30	0xbcdd3cd2	-0.02700654
31	0x3b8fe6b5	0.004391516
32	0x39c4aa8c	0.000375111
33	0xbb0fe769	-0.0021958
34	0xbd12bc8d	-0.035824347
35	0x3c4b01ff	0.012390613
36	0x3cf8ef3e	0.030387517
37	0xbc30d951	-0.010794
38	0x3c8673a1	0.016412558
39	0xbbf8bb45	-0.0075906836
40	0xbd057cbd	-0.032589663
41	0xbca21b7d	-0.019788498
42	0xba87ee9a	-0.0010370791
43	0x3cb2bbe5	0.02181811
44	0x3cdd97a6	0.02704985
45	0x3baaa18f	0.0052072476
46	0xbc9a027c	-0.018800013
47	0x3bbe2ab2	0.0058034295
48	0x3b899e72	0.0041997964
49	0x3ca8b9ac	0.020596348
50	0xbc9a0cbf	-0.018804906
51	0x3cc2fbf4	0.023801781
52	0xbcc7deef	-0.024398295
53	0xbbd2b4e8	-0.006430257
54	0x3cebfc03	0.028806692
55	0x3d016c93	0.031597685
56	0x3aebbca6	0.0017985299
57	0xbceb64bf	-0.028734563
58	0xbc2de180	-0.010612845
59	0xbcfab07c	-0.030601732
60	0xbcbc6735	-0.022998432
61	0xbcccdfdc	-0.025009088
62	0xbc97ede9	-0.018546062
63	0x3d065a25	0.032800812
64	0xbc163655	-0.009168227
65	0x3cb31216	0.02185921
66	0x3bc531b5	0.0060178884
67	0xb74b78a0	-1.2127828e-05
68	0x3c93324e	0.017968323
69	0xb9c0d513	-0.00036779846
70	0xbccfd85a	-0.02537172
71	0xbc880904	-0.016605861
72	0xbd152404	-0.0364113
73	0x3c4b0ae2	0.012392731
74	0xbbebec37	-0.00719979
75	0x3ce712b7	0.028207166
76	0x3ca8fd05	0.020628462
77	0xb9c97262	-0.0003842293
78	0x3b796298	0.0038053151
79	0x3c622201	0.0138020525
80	0xbcc2d9a0	-0.023785412
81	0xbad1221d	-0.0015955601
82	0xbc8b451e	-0.017000731
83	0xbcb77bc6	-0.022397887
84	0x3c8fc4b0	0.017549843
85	0x3beb6ff4	0.0071849767
86	0xbccb31fa	-0.024804104
87	0xbd099b57	-0.03359541
88	0xbcc13ce2	-0.023588601
89	0x3ce227d7	0.027606888
90	0x3c1da1be	0.009621082
91	0x3ce06e87	0.027396454
92	0x3c165d04	0.00917745
93	0x3caf06d0	0.021365553
94	0xbc9510ac	-0.018196426
95	0x3c1b70cd	0.009487343
96	0xbc989185	-0.018624077
97	0xbc8c4c76	-0.017126303
98	0xbba386d2	-0.004990437
99	0xbbfed99e	-0.007777407
100	0xbca19671	-0.019725056
101	0x3c72816d	0.014801365
102	0xbcb43714	-0.02199892
103	0xbc91c852	-0.017795715
104	0x3d0f7800	0.03502655
105	0x3c75a3ab	0.014992635
106	0x3cccd3d3	0.02500335
107	0xbb374824	-0.0027966583
108	0x3ccaeadb	0.024770191
109	0x3bb2e3a9	0.005459268
110	0x3c75aadb	0.014994348
111	0xbbdeea89	-0.006802861
112	0xbcda1537	-0.026621444
113	0x3cadea7c	0.021229975
114	0xbc444c6a	-0.011981109
115	0xbc062fb3	-0.008190083
116	0xbc19e75b	-0.009393538
117	0x3c4496fc	0.011998888
118	0x3b039a73	0.0020081073
119	0x3c341078	0.010990255
120	0xbc1d44e9	-0.009598949
121	0xbcebdc68	-0.028791621
122	0x3caf3824	0.021389075
123	0xbb2a970d	-0.0026029975
124	0x3c3b4739	0.011430555
125	0xbbd87881	-0.006606162
126	0xbc5ec7f5	-0.013597478
127	0x3cdd46f3	0.02701137

actor_module.module.2.weight f4 [128, 128]
0	0x3ca1e9de	0.019764837
1	0xbd11ee3c	-0.03562759
2	0xbe78c5a2	-0.24294141
3	0x3e1374b8	0.14399993
4	0x3e126449	0.14296068
5	0xbe91de1c	-0.28489769
6	0x3dda9bae	0.10674225
7	0xbe9458ca	-0.2897399
8	0x3d8676e5	0.06565646
9	0xbe957535	-0.29190984
10	0xbd193b8c	-0.037410304
11	0xbdb7c946	-0.08973937
12	0x3e1a7337	0.15083013
13	0xbc92d02b	-0.017921528
14	0x3db671e3	0.08908441
15	0x3dd6a4d0	0.10480654
16	0x3e0db1e1	0.13837387
17	0x3eb3c8d8	0.3511417
18	0x3e11eb9a	0.14250031
19	0xbc77221a	-0.015083814
20	0xbd3e15fb	-0.04640768
21	0xbd5b1fb3	-0.053497028
22	0xbc9bc233	-0.0190135
23	0xbd452efb	-0.048140507
24	0xbd51d439	-0.051227782
25	0x3d98a464	0.0745323
26	0x3dc6ad75	0.09701053
27	0x3e762fd6	0.24041685
28	0xbc3e36cc	-0.011609744
29	0xbc125903	-0.008932355
30	0x3e0471b1	0.12933995
31	0x3d4aa7e9	0.049476538
32	0xbe24a8cf	-0.1608002
33	0xbe205e6e	-0.15661022
34	0xbd9afa29	-0.075672455
35	0xbdc58daf	-0.096461646
36	0x3d5063f4	0.050876573
37	0x3d413100	0.04716587
38	0xbc3cb3df	-0.011517494
39	0xbc032d25	-0.008006369
40	0xbe46cbde	-0.19413707
41	0x3e2f0ff4	0.1709593
42	0xbd209241	-0.03920198
43	0x3d6da041	0.05801416
44	0x3dcb7e65	0.09936217
45	0x3e24c19b	0.1608948
46	0xbd8fa17c	-0.070132226
47	0x3da4a916	0.08040063
48	0x3dc950c9	0.09829862
49	0xbe026b1c	-0.12736171
50	0x3d13e9fa	0.03611181
51	0xbe291910	-0.16513467
52	0x3db5e7b6	0.08882086
53	0x3e192148	0.14954102
54	0xbe7fc872	-0.24978808
55	0x3d1403f1	0.03613657
56	0xbe5e3ab0	-0.21702075
57	0x3de46e64	0.11153868
58	0x3d5b82d8	0.05359158
59	0xbe0c8362	-0.13721994
60	0x3dd39264	0.10330656
61	0xbddef3e2	-0.10886361
62	0x3d42079b	0.047370534
63	0xbe09565b	-0.13411848
64	0xbe67c9dd	-0.22635598
65	0x3e0826c4	0.13296038
66	0xbdcf4591	-0.101206906
67	0x3d3ad197	0.045610037
68	0xbe019da1	-0.12657787
69	0xbdcf3d87	-0.10119157
70	0xbdc8ec4e	-0.098106965
71	0x3e0e4069	0.13891758
72	0xbd8a6ca2	-0.06759001
73	0xbdd377e8	-0.10325605
74	0xbde479db	-0.111560546
75	0x3cc96d9e	0.024588402
76	0x3d969f63	0.07354619
77	0x3e2f9cae	0.17149612
78	0xbbc2d654	-0.00594596
79	0xbd773c12	-0.060360022
80	0x3e1291b7	0.14313398
81	0x3c95cc73	0.018285966
82	0x3d9ef6a8	0.0776189
83	0x3e45b846	0.19308576
84	0xbd471cc2	-0.04861141
85	0xbe22ff26	-0.15917644
86	0x3df2a840	0.118484974
87	0xbe39b5c3	-0.18135743
88	0xbe83c9b2	-0.2573982
89	0x3e09b5a8	0.13448203
90	0xbda498c1	-0.08036948
91	0x3da6e823	0.08149745
92	0x3cbd882a	0.023136217
93	0xbdeeabda	-0.11653872
94	0x3dde4546	0.108530566
95	0x3a25b784	0.00063215964
96	0x3d609d07	0.054837253
97	0x3e5a3f24	0.21313149
98	0x3e053ada	0.13010731
99	0xbd508bfc	-0.05091475
100	0x3da90cac	0.0825437
101	0x3de51c44	0.11187032
102	0x3dd11160	0.10208392
103	0xbe4acd4b	-0.19804876
104	0xbe0b85fa	-0.13625327
105	0xbdda97e3	-0.10673501
106	0x3d8e87fe	0.06959532
107	0x3dcd7875	0.10032741
108	0x3e5cfe5d	0.21581407
109	0xbe195883	-0.14975171
110	0xbe1218ab	-0.14267223
111	0x3d3d2319	0.04617605
112	0x3bdfcdbc	0.0068299454
113	0x3cda56cb	0.026652714
114	0xbe95a4bf	-0.29227254
115	0x3c641250	0.013920382
116	0xbdd0535d	-0.1017215
117	0xbc450eae	-0.012027426
118	0xbc732259	-0.014839732
119	0x3c386e24	0.011256728
120	0x3d69a163	0.057038676
121	0xbd936591	-0.07197107
122	0xbe0942fc	-0.13404459
123	0x39ae56c8	0.00033252523
124	0xbd54c6ff	-0.05194759
125	0xbe071a84	-0.13193709
126	0xbc58ea5a	-0.0132394675
127	0xba2145d0	-0.00061520655
128	0x3e85cff6	0.26135224
129	0xbd44a6c6	-0.04801061
130	0xbaa4ea72	-0.0012582077
131	0x3d6c0861	0.05762518
132	0xbe0b3502	-0.1359444
133	0xbda80101	-0.082033165
134	0xbe04f9fc	-0.12985986
135	0x3d449026	0.047989033
136	0x3d74d208	0.059770614
137	0x3d17a232	0.037019916
138	0xbc8b2ea2	-0.01699001
139	0xbde3779f	-0.111068
140	0x3d4fc7bb	0.050727587
141	0x3cdeb11b	0.02718406
142	0xbca4666b	-0.020068368
143	0x3c6e4be3	0.01454446
144	0xbdce2cf9	-0.100671716
145	0xbd97ec3e	-0.074181065
146	0x3e3e3dda	0.18578282
147	0x3d9415a5	0.07230691
148	0x3dd82ff5	0.10556022
149	0xbde45221	-0.11148477
150	0xbd7f928b	-0.062395614
151	0xbe974f62	-0.29552752
152	0xbd59f5e7	-0.053213026
153	0x3d868fa7	0.06570368
154	0xbe0d2fe7	-0.13787805
155	0xbda5b92f	-0.080919616
156	0xbd0d50a0	-0.034500718
157	0x3e036361	0.12830879
158	0xbe754e1c	-0.23955578
159	0xbdc9efe9	-0.09860212
160	0xbd9b8e9c	-0.0759556
161	0xbd5ea8f6	-0.054360352
162	0xbe0714a8	-0.13191473
163	0xbe3255e6	-0.1741558
164	0x3db374d5	0.08762518
165	0x3de846d4	0.113416344
166	0x3de177e2	0.11009194
167	0xba2a7f48	-0.0006503952
168	0xbd838374	-0.06421557
169	0x3e00bf3a	0.12572947
170	0x3d8af3ce	0.06784783
171	0xbe895064	-0.26819146
172	0x3e2f30ac	0.1710841
173	0xbdb81f3f	-0.08990335
174	0xbdf65741	-0.12028361
175	0x3ddba695	0.107251324
176	0x3b3d0bb1	0.002884608
177	0x3e84d6e0	0.25945187
178	0x3da2e61a	0.07954045
179	0x3c865421	0.016397538
180	0x3d526c40	0.051372766
181	0xbd0072da	-0.03135953
182	0x3ddcf4da	0.10788889
183	0xbdfa334d	-0.12216816
184	0xbe5d5aab	-0.21616618
185	0x3e078ba7	0.13236867
186	0x3d94aab8	0.072591245
187	0x3d626e2a	0.055280842
188	0xbc92f931	-0.01794109
189	0x3e434da8	0.19072592
190	0x3e2954c8	0.16536248
191	0x3d16d3be	0.036823027
192	0xbd475687	-0.048666503
193	0xbe1e69cb	-0.15470044
194	0xbcf27951	-0.029598864
195	0xbd58df3e	-0.052947275
196	0xbd94f7a9	-0.072738
197	0xbd0002ad	-0.03125255
198	0xbdbe79dc	-0.093005866
199	0x3e6587a9	0.22415031
200	0xbe8163d8	-0.25271487
201	0x3d9f53e8	0.07779676
202	0x3e494bec	0.19657868
203	0x3e70a903	0.23501973
204	0xbdc44d4f	-0.09585058
205	0xbd94eadf	-0.072713606
206	0x3cdf075c	0.027225189
207	0x3e90d8bd	0.28290358
208	0x3e67ac92	0.22624424
209	0x3e913ba8	0.28365827
210	0x3ddfaecc	0.10922012
211	0x3d3ada52	0.045618363
212	0xbd43ec6f	-0.047832903
213	0xbe35801f	-0.17724656
214	0xbc2c1fe3	-0.010505649
215	0x3dd96f9a	0.106169894
216	0x3d220fed	0.03956597
217	0x3d99b3ab	0.07504972
218	0xbd965094	-0.07339588
219	0x3d7724d5	0.06033786
220	0x3cfd0c1d	0.030889565
221	0xbca80fab	-0.020515284
222	0xbe21093a	-0.15726176
223	0x3ceefb3c	0.029172532
224	0x3e3e73d8	0.18598878
225	0x3d9a9c12	0.07549299
226	0x3db27f62	0.087157026
227	0xbd4b284a	-0.04959897
228	0xbdff4751	-0.124647744
229	0x3e24046e	0.16017315
230	0xbd50af89	-0.050948653
231	0x3e9082d4	0.28224814
232	0x3e0e1792	0.13876179
233	0xbdbfc008	-0.09362799
234	0x3cea5db5	0.028609136
235	0x3e5fe751	0.21865584
236	0x3d27ebea	0.04099647
237	0x3e1cea89	0.15323843
238	0xbc79a3e7	-0.015236831
239	0xbe402d38	-0.1876725
240	0xbd91f36d	-0.07126508
241	0x3c2f9bbf	0.010718285
242	0xbd45c191	-0.048280302
243	0xbde48832	-0.1115879
244	0x3e39b5c6	0.18135747
245	0xbdc977de	-0.09837316
246	0xbc112c39	-0.008860641
247	0x3df02340	0.117254734
248	0xbe2c7f0d	-0.16845341
249	0x3d41f515	0.04735287
250	0xba11bf31	-0.0005559801
251	0x3b399c81	0.0028322043
252	0x3d62aa13	0.055337977
253	0x3e53f760	0.20699835
254	0xbdf4e308	-0.11957365
255	0xbd8f1166	-0.0698574

actor_module.module.2.bias f4 [128]
0	0xbc759362	-0.014988752
1	0x3c05e854	0.008173067
2	0xbc88031f	-0.01660305
3	0xbc6d56f7	-0.014486066
4	0xbcf25647	-0.029582156
5	0xbcd1ccde	-0.025610384
6	0xbc9ec0d7	-0.019379063
7	0x3c2b8300	0.010468245
8	0x3cce0e6e	0.025153365
9	0x3b9d488e	0.004799909
10	0x3d110ed6	0.03541454
11	0x3a5af419	0.00083524134
12	0x3bcabfa8	0.006187398
13	0x3b1a6fd7	0.0023565197
14	0x3b02ee2a	0.0019978383
15	0xbb83a38f	-0.0040173004
16	0x3cd141c0	0.025544047
17	0xbb5179b5	-0.0031963412
18	0xbcb95c7d	-0.02262711
19	0xbc0a78bc	-0.008451637
20	0xbb2a24f2	-0.0025961963
21	0x3cae24e7	0.02125783
22	0xbcc97a53	-0.024594462
23	0x3ca718bd	0.020397538
24	0x3caa3ede	0.02078193
25	0xbc5b23ca	-0.013375232
26	0x3c8b53ba	0.017007697
27	0x3c0e5e75	0.0086895125
28	0x3bbca22c	0.005756637
29	0x3ced9c12	0.029005084
30	0x3c453ce3	0.012038442
31	0xbc19c14e	-0.009384466
32	0x3bd8a9bb	0.0066120303
33	0x3ca52f4d	0.020164156
34	0xbd11c681	-0.0355897
35	0xbc84e05f	-0.01622027
36	0x3c004de0	0.007831067
37	0x3b129a60	0.0022369847
38	0x3ca8ae8a	0.02059104
39	0x3c3dfc07	0.0115957325
40	0x3ccd2182	0.025040392
41	0x3b540ca6	0.0032356172
42	0xbc2a3ae9	-0.010390022
43	0x3a9d07f3	0.0011980518
44	0x3cadde84	0.021224268
45	0x3ce5775a	0.028011013
46	0xbc3deb98	-0.011591814
47	0x3c621359	0.013798558
48	0xbc069701	-0.008214713
49	0x3cb787eb	0.022403678
50	0xbd142157	-0.036164608
51	0xbc2df267	-0.010616875
52	0xbca76726	-0.020434927
53	0x3b5c6751	0.0033630917
54	0xbc24f921	-0.010069163
55	0xbc2d6230	-0.010582492
56	0xbcad9159	-0.021187471
57	0x3cc11971	0.023571702
58	0xbc7faea8	-0.015605606
59	0x3caf543c	0.02140247
60	0x3b522b38	0.0032069217
61	0x3c9b13b6	0.018930297
62	0x3d08c0ab	0.033386867
63	0xbbc412d8	-0.0059836917
64	0xbc96d86d	-0.018413747
65	0x3cd9f044	0.026603825
66	0x3ca976d7	0.02068655
67	0xbcdcf8f5	-0.02697418
68	0xbce790a0	-0.028267205
69	0x3ceba55b	0.028765371
70	0xbca3ce12	-0.019995723
71	0x3c54ae45	0.012981002
72	0x3c924c34	0.017858602
73	0xbbc4bff7	-0.0060043293
74	0x3b29ecfa	0.0025928603
75	0x3b2b3fe6	0.0026130616
76	0x3c20846c	0.009797197
77	0x3b833370	0.0040039346
78	0xbc063e68	-0.00819359
79	0xbc135cd0	-0.008994296
80	0x3b89f6c2	0.004210324
81	0x3ad2aa99	0.001607257
82	0xbbc6b455	-0.0060639777
83	0x3bf2a6a3	0.0074051186
84	0xbc89e304	-0.016831882
85	0x3cf0fe67	0.029418183
86	0x3c341024	0.010990176
87	0xbc96ae28	-0.018393591
88	0x3ab4bce5	0.0013789205
89	0x3c83136b	0.01600047
90	0x3c656500	0.014001131
91	0xbb78b142	-0.003794745
92	0x3c7a3a5e	0.015272705
93	0x3a9feb8e	0.0012200938
94	0xbca20499	-0.019777583
95	0xbcaa7a51	-0.020810278
96	0x3cf245e0	0.029574335
97	0xbca8b7a1	-0.020595374
98	0x3bb00c21	0.0053725396
99	0x3d03e636	0.032201968
100	0xbc2e0991	-0.010622398
101	0xbc4ab165	-0.012371396
102	0xbbc8eb75	-0.0061315843
103	0x3cc31c78	0.023817286
104	0x3bf9f5cf	0.0076281796
105	0x3c8ea42d	0.01741227
106	0x3c9bc5c3	0.019015199
107	0x3b2aee59	0.0026082008
108	0xbc2088fd	-0.009798286
109	0x3cdedac4	0.027203925
110	0x3c1a4544	0.009415928
111	0xbce6f45c	-0.028192692
112	0x3cbfc30a	0.023408432
113	0xbbcaa17c	-0.006183801
114	0xbba292ad	-0.004961333
115	0xbc9e3bec	-0.019315682
116	0xbb1d341b	-0.0023987356
117	0x3cac9561	0.021067323
118	0xba1eac29	-0.00060528755
119	0xbc2adf9d	-0.01042929
120	0xbb9718cc	-0.0046111103
121	0x3b79f854	0.00381424
122	0x3ca45084	0.020057924
123	0x3cbc6ec5	0.023002038
124	0x3c61de13	0.013785857
125	0xbca20857	-0.019779367
126	0x3d00d173	0.031449746
127	0x3cef3ede	0.029204782

actor_module.module.4.logstd f4 [1, 4]
0	0xbc2db0b0	-0.010601208
1	0xbcc2f74d	-0.023799563
2	0xbc865446	-0.016397607
3	0x3acc2458	0.0015574796

actor_module.module.4.fc_mean.weight f4 [4, 128]
0	0x3dc1d156	0.09463756
1	0x3e466387	0.19373904
2	0xbd8c56c6	-0.06852488
3	0xbcffffd2	-0.031249914
4	0x3c647c0d	0.013945592
5	0x3e6c04a1	0.23048641
6	0x3db2782f	0.087143295
7	0xbd6c0fd1	-0.05763227
8	0xbe291a9b	-0.16514055
9	0xbdddbe4b	-0.10827311
10	0xbd7aa4ff	-0.06119251
11	0x3e00d3a6	0.12580737
12	0xbe01c2d7	-0.12671982
13	0xbda97d85	-0.08275894
14	0xbb4852a7	-0.0030566843
15	0x3dc7cda9	0.097560234
16	0xbd43702a	-0.04771439
17	0x3d929d8d	0.07158957
18	0xbd4eb0c2	-0.050461538
19	0x3d9e7bb7	0.077384405
20	0x3dd9eda6	0.10641031
21	0xbd470a7d	-0.048593987
22	0x3d1b3495	0.037891943
23	0x3c1b9f49	0.009498426
24	0xbdc22739	-0.094801374
25	0x3dc05e88	0.093930304
26	0xbd3b4623	-0.045721184
27	0x3e3a3fc2	0.18188384
28	0x3c9dca5d	0.019261533
29	0xbdc8fb26	-0.09813528
30	0xbda68580	-0.08130932
31	0xbd8de1fe	-0.0692787
32	0x3dfee446	0.124458835
33	0x3d30e485	0.043186683
34	0x3d5af965	0.053460497
35	0x3d3f98cf	0.04677659
36	0xbd071222	-0.032976277
37	0x3d7109c1	0.058847193
38	0x3c1a3439	0.009411865
39	0xbdb58058	-0.0886237
40	0xbd1d775d	-0.03844391
41	0x3c5515c5	0.013005679
42	0xbcf17a58	-0.029477283
43	0xbe124d30	-0.14287257
44	0xbe40b064	-0.18817288
45	0xbde9f087	-0.1142283
46	0x3b3ce37d	0.0028822117
47	0x3d156297	0.036470976
48	0xbe03b4fa	-0.12862006
49	0xbe1cbc21	-0.1530614
50	0x3d8d1f01	0.06890679
51	0xbc938615	-0.018008271
52	0x3e6bec8f	0.23039459
53	0xbd96c1c5	-0.07361177
54	0x3c1db6cf	0.0096261045
55	0x3d7fe01e	0.062469594
56	0xbd193fa7	-0.03741422
57	0x3d7f115a	0.062272407
58	0x3e5b35e2	0.21407273
59	0xbe35f84c	-0.17770499
60	0xbc9b1a75	-0.018933514
61	0xbd5bcbb3	-0.05366106
62	0x3c41e525	0.0118344175
63	0xbcdfb7c6	-0.02730931
64	0x3e25f2f3	0.16205959
65	0xbdd38fe1	-0.10330177
66	0xbdef86ee	-0.11695658
67	0x3d8e8a64	0.0695999
68	0x3bc8ff4e	0.0061339503
69	0xbdaafad2	-0.083486214
70	0x3d1bc181	0.038026337
71	0xbd4353c2	-0.0476873
72	0xbd8ed41f	-0.06974053
73	0x3da2f06e	0.079560146
74	0x3da67bfb	0.08129116
75	0x3d01a6c1	0.03165317
76	0x3c773daa	0.015090385
77	0x3d274ebe	0.04084658
78	0xbd7b6c8c	-0.061382815
79	0xbcb5f033	-0.022209262
80	0x3cc02ea2	0.023459736
81	0xbd9d139b	-0.07669755
82	0x3d9d9f6c	0.07696423
83	0x3d6141c4	0.05499436
84	0x3c2b3844	0.0104504265
85	0xbd867f31	-0.065672286
86	0x3d31295a	0.043252327
87	0x3dbb5e9d	0.091489054
88	0xbc95ef8d	-0.018302703
89	0xbdeaa2f2	-0.114568606
90	0xbe1471c0	-0.14496517
91	0xbd2f47e8	-0.042793185
92	0x3d9caf64	0.076506406
93	0xbbfa2247	-0.0076334807
94	0xbcab37ed	-0.02090069
95	0x3d11193d	0.03542446
96	0xbd8c2549	-0.06843049
97	0x3db3dc2a	0.08782227
98	0xbd524dbe	-0.051343672
99	0xbdfc01c5	-0.12305025
100	0xbd816703	-0.06318476
101	0xbde7159f	-0.11283421
102	0xbbb59aca	-0.005542134
103	0x3c3ca435	0.011513759
104	0x3d18f1a4	0.03733982
105	0xbd4b8d90	-0.04969555
106	0xbd03dc1b	-0.03219233
107	0xbe3e4f19	-0.18584861
108	0xbd934778	-0.07191366
109	0xbe17fe02	-0.1484299
110	0x3e0b2194	0.13587028
111	0xbd084c1a	-0.0332757
112	0xbd91a973	-0.07112398
113	0x3d0e9107	0.034806278
114	0x3cafb53c	0.021448724
115	0x3e1f571e	0.15560576
116	0x3e342aa1	0.17594387
117	0xbdd034e0	-0.10166335
118	0xbdad6163	-0.08465841
119	0x3d8763bc	0.0661082
120	0xbd3119ab	-0.04323737
121	0xbd7a689c	-0.06113492
122	0xbd8bb16f	-0.06820952
123	0x3d49d1e9	0.04927245
124	0x3d708c60	0.058727622
125	0x3dff7b34	0.12474671
126	0xbd41ca77	-0.047312226
127	0xbd9c0ff4	-0.0762023
128	0x3cceca15	0.025242845
129	0xbd7003bf	-0.058597323
130	0x3d70aac1	0.058756594
131	0x3b2a5e3c	0.002599611
132	0x3df39f92	0.1189567
133	0x3e2f148e	0.17097685
134	0x3e3005df	0.1718974
135	0xbd94ddcd	-0.07268868
136	0xbcff99a4	-0.031201191
137	0x3cdb65cc	0.026781939
138	0xbdb3ddd4	-0.08782545
139	0x3e015249	0.12629046
140	0xbdf9f2db	-0.12204524
141	0xbe55a802	-0.20864871
142	0x3c609f55	0.013709863
143	0xbc7154c0	-0.014729679
144	0xbdff0c85	-0.1245356
145	0x3d823771	0.06358231
146	0x3db18c4b	0.08669337
147	0xbbec0581	-0.0072028046
148	0x3c69d6ef	0.014272436
149	0x3cefdfc8	0.029281512
150	0xbd06a2ae	-0.032869987
151	0xbdaf9d46	-0.085749194
152	0xbded2f71	-0.11581314
153	0x3db1f615	0.086895145
154	0xbc659826	-0.014013326
155	0xbdaae972	-0.083453074
156	0xbc355038	-0.011066489
157	0xbe0c25a9	-0.13686241
158	0xbc3fddbe	-0.011710582
159	0x3d457092	0.04820306
160	0xbd63ae87	-0.055586364
161	0xbdf3c96c	-0.119036525
162	0x3de6d9d7	0.112720184
163	0xbd7b9034	-0.06141682
164	0x3d9a63cb	0.07538565
165	0xbd0759a5	-0.033044476
166	0xbc85826c	-0.016297542
167	0x3c5e71fc	0.013576981
168	0xbbdff249	-0.0068343026
169	0xbd923ed8	-0.07140893
170	0x3dede81f	0.11616539
171	0xbdc0b4e5	-0.09409503
172	0xbcb61d30	-0.022230715
173	0xbd416987	-0.04721978
174	0x3e0b527e	0.13605687
175	0xbd836eaf	-0.064175956
176	0x3d808865	0.06276015
177	0x3d3c9316	0.04603871
178	0x3dd424cf	0.10358583
179	0x3e2158ab	0.1575648
180	0x3dbb3d02	0.09142496
181	0xbda6086c	-0.08107075
182	0x3e66007f	0.22461127
183	0xbd930400	-0.07178497
184	0x3d8a4f5f	0.0675342
185	0xbe613098	-0.21991193
186	0x3d0e413c	0.03473018
187	0x3be4fbaf	0.006988011
188	0xbe26ba7b	-0.16282074
189	0x3c588cdc	0.013217177
190	0xbe11455c	-0.14186615
191	0xbaf4a48d	-0.0018664763
192	0xbcec202b	-0.028823933
193	0x3a8c8dc5	0.0010723403
194	0x3ce56295	0.02800111
195	0x3e4e8177	0.20166574
196	0x3dd70621	0.10499216
197	0xbe223182	-0.15839198
198	0xbd13633a	-0.0359833
199	0x3d99fb7b	0.07518669
200	0xbd889209	-0.06668479
201	0xbc8185ce	-0.015810873
202	0xbc04d470	-0.00810729
203	0x3b8d476d	0.004311493
204	0xbd2a6eb2	-0.041609474
205	0x3c8f623a	0.017502893
206	0x3cc90d0f	0.02454236
207	0xbd0c2170	-0.034211576
208	0xbe1ec9d3	-0.15506677
209	0xbde4d9a8	-0.11174327
210	0xbdecdaa0	-0.11565137
211	0xbe5208d4	-0.2051118
212	0x3cd3767e	0.025813337
213	0xbd669e43	-0.056303274
214	0xbb57ebe3	-0.0032946996
215	0x3c8b5a4d	0.017010832
216	0xbcb0c145	-0.021576533
217	0x39a1bc9e	0.00030848844
218	0x3ce2be5a	0.027678657
219	0xbcbb8420	-0.02289015
220	0xbdff3114	-0.12460533
221	0xbd88eebb	-0.06686159
222	0x3d2f692e	0.042824917
223	0x3ad285cd	0.0016061604
224	0xbc316e4c	-0.0108295195
225	0xbd1c05ec	-0.038091585
226	0xbe32b277	-0.17450891
227	0xbe2fba13	-0.17160825
228	0x3cb18066	0.02166767
229	0x3e5bb891	0.21457125
230	0x3e03416e	0.12817928
231	0xbe04e999	-0.12979735
232	0xbde0eceb	-0.109826885
233	0xbc2881ac	-0.010284822
234	0xbc993fe5	-0.018707225
235	0x3dc49eb3	0.09600582
236	0x3de24575	0.11048404
237	0xbc0e18bc	-0.008672889
238	0xbe1f59dd	-0.15561624
239	0x3dcdc3f6	0.10047142
240	0xbe30af3d	-0.17254348
241	0x3cbf01e4	0.023316331
242	0xbddf5edc	-0.10906765
243	0xbd947771	-0.07249344
244	0xbce2d046	-0.027687203
245	0x3d50ef9e	0.051009767
246	0xbd1216e9	-0.03566638
247	0x3a2cc066	0.0006589949
248	0xbde7380e	-0.112899885
249	0x3dbb78e9	0.09153921
250	0x3cfe8970	0.031071395
251	0xbdf90a70	-0.12160194
252	0x3d2c0260	0.041994452
253	0x3c907213	0.01763252
254	0xbd8ed1de	-0.06973623
255	0xbc92b9d7	-0.017910881

actor_module.module.4.fc_mean.bias f4 [4]
0	0xbc7934a6	-0.015210306
1	0xbc9ee964	-0.019398399
2	0x3cb923b5	0.022600034
3	0xbc2d90cd	-0.010593605

module.module.1.module.module.0.weight f4 [128, 10]
0	0xbc7231a4	-0.014782343
1	0xbdea34ae	-0.11435829
2	0xbdc9ed7a	-0.09859748
3	0xbd49723b	-0.049181204
4	0xbd4f093d	-0.05054592
5	0xbe0330be	-0.12811562
6	0xbe61bb53	-0.22044115
7	0xbdca1f3a	-0.09869237
8	0xbca7df3d	-0.02049219
9	0x3ea13fce	0.31493992
10	0x3de8b03d	0.1136174
11	0xbe589cb4	-0.21153527
12	0x3dd02dab	0.101649605
13	0x3e3e7441	0.18599035
14	0xbc1f5b66	-0.009726381
15	0x3d202144	0.039094225
16	0x3e7ca985	0.24674042
17	0xbce235ca	-0.02761354
18	0x3b28fb31	0.0025784487
19	0xbcc3be89	-0.023894565
20	0xbe52b6bf	-0.20577525
21	0x3d1f5b8f	0.038905676
22	0x3e646b1c	0.22306484
23	0x3d74bc15	0.05974968
24	0xbcf130b9	-0.029442178
25	0x3e1ab0e4	0.15106541
26	0x3cfb7e2c	0.030699812
27	0xbd7383a3	-0.05945171
28	0xbdea6fe7	-0.11447125
29	0x3de7ab03	0.11311915
30	0xbe34a283	-0.17640118
31	0xbde02354	-0.10944238
32	0x3e8034ce	0.25040287
33	0xbe443d90	-0.19164109
34	0x3d77ba2f	0.060480293
35	0xbe17764e	-0.14791223
36	0xbc494d5e	-0.012286512
37	0xbdb5e7c8	-0.088820994
38	0xbca6c0af	-0.02035555
39	0x3da9000d	0.08251963
40	0x3e2320b4	0.15930444
41	0x3df4d6aa	0.119550064
42	0xbc047893	-0.008085388
43	0x3d608c36	0.054821216
44	0xbe0caf7e	-0.1373882
45	0xbe4a9140	-0.19781971
46	0x3ddf5b58	0.10906094
47	0xbc6fe7f2	-0.014642702
48	0xbb563075	-0.0032682691
49	0xbb8f27bb	-0.00436875
50	0x3d6eca7a	0.058298565
51	0x3e0c4265	0.13697203
52	0x3e84a7b5	0.259092
53	0xbc2d01a7	-0.010559476
54	0x3d2c4867	0.042061236
55	0x3b880a83	0.0041516437
56	0xbd8a295e	-0.067461714
57	0x3db61747	0.088911586
58	0xbe3a536b	-0.18195884
59	0x3d3c3484	0.04594852
60	0x3c800d3a	0.015631307
61	0xbe760116	-0.24023852
62	0x3b7b518b	0.0038348164
63	0xbe228ad6	-0.15873274
64	0x3c742805	0.0149021195
65	0x3d06dec8	0.032927305
66	0x3e024ece	0.12725374
67	0xbda8cbba	-0.08241983
68	0xbdedf594	-0.11619106
69	0x3e943a26	0.28950614
70	0x3d9edaba	0.077565625
71	0x3e87c08d	0.26514092
72	0xbdb394f8	-0.08768648
73	0x3b9f2955	0.004857222
74	0x3e2ed5fc	0.17073816
75	0x3e3f0ba3	0.18656783
76	0x3e4c2e2f	0.19939493
77	0x3d19983b	0.037498694
78	0xbd323c12	-0.04351432
79	0xbd9c078b	-0.07618626
80	0x3d06d4e0	0.032917857
81	0xbdfb36c3	-0.12266304
82	0xbd370069	-0.044678126
83	0xbd8a6f3a	-0.06759496
84	0x3e095f36	0.13415226
85	0xbdd5e1a3	-0.104434274
86	0x3d515664	0.05110778
87	0xbd0698d9	-0.03286061
88	0x3debcfe0	0.115142584
89	0x3e0932ae	0.13398239
90	0xbc865287	-0.016396774
91	0x3d096b4f	0.033549603
92	0x3dd5dff8	0.10443109
93	0xbe4ba3bd	-0.1988668
94	0x3d51deb2	0.05123777
95	0x3da58d16	0.08083551
96	0xbe1dcaa0	-0.15409327
97	0x3dab6a4b	0.08369883
98	0xbd956403	-0.07294466
99	0x3c14762c	0.0090613775
100	0x3dfff163	0.12497213
101	0x3e8d6867	0.27618715
102	0xbdd720b0	-0.105042815
103	0x3dcadae8	0.09905034
104	0x3e150bb5	0.14555247
105	0xbe4fb044	-0.20282084
106	0xbdf6940c	-0.120399565
107	0xbdc4e5d7	-0.09614151
108	0x3d4eaa2e	0.050455265
109	0x3e5ca9c3	0.21549134
110	0x3eb1961f	0.34684846
111	0xbd00d279	-0.031450722
112	0x3dca93ac	0.098914474
113	0x3da551bf	0.080722325
114	0xbd0cb519	-0.034352396
115	0x3e232bd3	0.15934686
116	0xbcd317e4	-0.025768228
117	0xbcd1efe3	-0.025627082
118	0xbdfb34bf	-0.1226592
119	0xbcc36fba	-0.023856986
120	0x3d756424	0.059909955
121	0xbe2b3fbd	-0.16723533
122	0x3d247f5a	0.040160514
123	0xbdece8d1	-0.11567844
124	0x3da08686	0.07838158
125	0x3d0e40b8	0.03472969
126	0x3e1c01c1	0.15235044
127	0xbbc6c7cb	-0.0060662976
128	0x3e093bf6	0.1340178
129	0x3dcf6dad	0.10128341
130	0x3d907eb0	0.07055414
131	0x3ce0601b	0.027389577
132	0xbdbda1dd	-0.092593886
133	0x3e0c020c	0.13672656
134	0x3c089c69	0.008338072
135	0xbd01c231	-0.031679336
136	0x3d00e831	0.031471435
137	0xbca46717	-0.020068688
138	0x3ddf9fb6	0.10919134
139	0x3dce66e7	0.10078221
140	0xbdab839a	-0.083747104
141	0xbe34fe8c	-0.17675227
142	0xbb48d6ed	-0.0030645684
143	0x3d98bb0c	0.07457551
144	0xbdae1c23	-0.085014604
145	0xbd4da075	-0.050201852
146	0x3d186cf6	0.03721329
147	0xbd8817ba	-0.066451505
148	0x3db1d3bc	0.08682963
149	0xbe805b84	-0.2506982
150	0x3be04d54	0.0068451557
151	0x3e1e6307	0.15467463
152	0x3c215d16	0.009848854
153	0xbc9b3e9a	-0.01895075
154	0xbe83dfff	-0.25756833
155	0x3d04aeaa	0.032393135
156	0x3d1d8dda	0.03846536
157	0xbdcfbd0b	-0.10143479
158	0xbe3465fe	-0.17617032
159	0x3cd6ac1f	0.02620512
160	0x3e83c09e	0.25732893
161	0x3dc94a59	0.09828634
162	0xbcbeafe9	-0.02327724
163	0x3ca7050d	0.02038815
164	0x3c8e6b94	0.017385282
165	0xbcb6fb70	-0.022336692
166	0xbc32544e	-0.010884358
167	0xbe067624	-0.13131005
168	0xbb2240d8	-0.0024757888
169	0xbe4c6ceb	-0.19963424
170	0xbd282281	-0.04104853
171	0xba850c8a	-0.0010150832
172	0x3dac6dbc	0.08419368
173	0x3beab20b	0.0071623377
174	0xbcaf2980	-0.021382093
175	0x3e146d6f	0.1449487
176	0xbd3179ad	-0.04332893
177	0x3e80442f	0.2505202
178	0x3dd5af5d	0.104338385
179	0xbdf11773	-0.11772051
180	0xbc11a238	-0.008888774
181	0x3cf77bcf	0.030210404
182	0xbe2f16ac	-0.17098492
183	0xbdc565b9	-0.09638543
184	0x3df347ff	0.118789665
185	0x3db9802e	0.090576515
186	0x3d334777	0.043769326
187	0xbe6b17c2	-0.22958282
188	0xbd8f0ed5	-0.06985251
189	0xbae0ff29	-0.0017165887
190	0xbe1a60e4	-0.15076023
191	0x3ea053d2	0.3131395
192	0xbe2f75a6	-0.17134723
193	0xbdb7f9fc	-0.089832276
194	0xbdc67751	-0.096907265
195	0x3d111a95	0.03542574
196	0x3e0f9ead	0.14025374
197	0x3d2503a6	0.040286683
198	0xbc46ffcb	-0.012145947
199	0x3dfb5957	0.122728996
200	0x3d9ba31a	0.075994685
201	0x3e416b11	0.18888499
202	0xbddc738e	-0.10764228
203	0xbe17b2b7	-0.14814268
204	0x3d75de45	0.060026426
205	0xbe4a24a6	-0.19740543
206	0x3dc7d5f4	0.09757605
207	0x3e6301b4	0.22168618
208	0xbe54382c	-0.20724553
209	0x3e06eb12	0.1317561
210	0xbcf636f0	-0.030055493
211	0xbb86fa2e	-0.004119179
212	0x3d77c3bd	0.060489405
213	0xbe082d05	-0.13298424
214	0xbe00f183	-0.1259213
215	0xbd65ce38	-0.05610487
216	0xbe8a10e1	-0.26966003
217	0x3cffccbe	0.031225558
218	0x3e3ac70f	0.18239997
219	0xbe420e05	-0.1895066
220	0x3db28de3	0.08718469
221	0xbe493369	-0.19648518
222	0xbd8eacbc	-0.0696654
223	0x3d9a3ac5	0.07530741
224	0xbdb83369	-0.08994181
225	0xbdaf65ed	-0.08564363
226	0x3d748328	0.059695393
227	0x3dca7ffb	0.098876916
228	0x3dd66f9f	0.10470509
229	0x3d79db23	0.061
230	0xbdf50b70	-0.11965072
231	0xbe776d26	-0.2416273
232	0xbe54bf04	-0.20775992
233	0xbe256532	-0.16151884
234	0xbc4107d9	-0.011781656
235	0x3e337334	0.17524415
236	0xbda510cc	-0.080598444
237	0xbcb1561a	-0.021647502
238	0x3e1605a9	0.14650597
239	0xbd2224b2	-0.039585777
240	0xbe891f9d	-0.26781932
241	0xbd161539	-0.036641333
242	0xbdb8ec0b	-0.090293966
243	0xbd8f9d35	-0.07012407
244	0xbe7bb452	-0.24580505
245	0x3e5c014c	0.2148487
246	0xbe359c3f	-0.17735384
247	0xbd2ecde2	-0.042676814
248	0x3dc8b027	0.097992234
249	0xbda242dc	-0.07922909
250	0xbe014857	-0.12625252
251	0xbe99d63d	-0.30046263
252	0x3dcf3e82	0.10119344
253	0x3d848777	0.0647115
254	0xbd82ed47	-0.06392913
255	0xbea2fa82	-0.31831747

module.module.1.module.module.0.bias f4 [128]
0	0xbcdd5f22	-0.027022902
1	0x3cb93f45	0.022613177
2	0x3c23f757	0.010007701
3	0xbbf35a59	-0.0074265418
4	0x3c5b8d19	0.0134003395
5	0x3caa7911	0.020809682
6	0xbce70609	-0.02820112
7	0x3ca8cfb1	0.020606847
8	0xbb6c444d	-0.0036051453
9	0xbc0d613d	-0.00862914
10	0xbba793d7	-0.0051140594
11	0x3c91bfcf	0.017791657
12	0xbd0db7b0	-0.034599006
13	0x3bac6641	0.005261213
14	0xbca8f328	-0.020623758
15	0xbb1e0951	-0.002411444
16	0x3c6bb85a	0.014387215
17	0x3c482ce8	0.012217738
18	0xbca3d608	-0.019999519
19	0x3ad255a3	0.001604725
20	0xbc37b047	-0.011211461
21	0xbcd86dd8	-0.026419565
22	0x3c4b2d86	0.01240099
23	0xbc6607e8	-0.014039971
24	0xbcdb9239	-0.026803123
25	0xbcaa8a0d	-0.02081778
26	0xbcc7f0f5	-0.02440689
27	0xbbcb2d32	-0.006200456
28	0xbcb96260	-0.022629917
29	0x3c0cb9d2	0.008589225
30	0xbcdd3cd2	-0.02700654
31	0x3b8fe6b5	0.004391516
32	0x39c4aa8c	0.000375111
33	0xbb0fe769	-0.0021958
34	0xbd12bc8d	-0.035824347
35	0x3c4b01ff	0.012390613
36	0x3cf8ef3e	0.030387517
37	0xbc30d951	-0.010794
38	0x3c8673a1	0.016412558
39	0xbbf8bb45	-0.0075906836
40	0xbd057cbd	-0.032589663
41	0xbca21b7d	-0.019788498
42	0xba87ee9a	-0.0010370791
43	0x3cb2bbe5	0.02181811
44	0x3cdd97a6	0.02704985
45	0x3baaa18f	0.0052072476
46	0xbc9a027c	-0.018800013
47	0x3bbe2ab2	0.0058034295
48	0x3b899e72	0.0041997964
49	0x3ca8b9ac	0.020596348
50	0xbc9a0cbf	-0.018804906
51	0x3cc2fbf4	0.023801781
52	0xbcc7deef	-0.024398295
53	0xbbd2b4e8	-0.006430257
54	0x3cebfc03	0.028806692
55	0x3d016c93	0.031597685
56	0x3aebbca6	0.0017985299
57	0xbceb64bf	-0.028734563
58	0xbc2de180	-0.010612845
59	0xbcfab07c	-0.030601732
60	0xbcbc6735	-0.022998432
61	0xbcccdfdc	-0.025009088
62	0xbc97ede9	-0.018546062
63	0x3d065a25	0.032800812
64	0xbc163655	-0.009168227
65	0x3cb31216	0.02185921
66	0x3bc531b5	0.0060178884
67	0xb74b78a0	-1.2127828e-05
68	0x3c93324e	0.017968323
69	0xb9c0d513	-0.00036779846
70	0xbccfd85a	-0.02537172
71	0xbc880904	-0.016605861
72	0xbd152404	-0.0364113
73	0x3c4b0ae2	0.012392731
74	0xbbebec37	-0.00719979
75	0x3ce712b7	0.028207166
76	0x3ca8fd05	0.020628462
77	0xb9c97262	-0.0003842293
78	0x3b796298	0.0038053151
79	0x3c622201	0.0138020525
80	0xbcc2d9a0	-0.023785412
81	0xbad1221d	-0.0015955601
82	0xbc8b451e	-0.017000731
83	0xbcb77bc6	-0.022397887
84	0x3c8fc4b0	0.017549843
85	0x3beb6ff4	0.0071849767
86	0xbccb31fa	-0.024804104
87	0xbd099b57	-0.03359541
88	0xbcc13ce2	-0.023588601
89	0x3ce227d7	0.027606888
90	0x3c1da1be	0.009621082
91	0x3ce06e87	0.027396454
92	0x3c165d04	0.00917745
93	0x3caf06d0	0.021365553
94	0xbc9510ac	-0.018196426
95	0x3c1b70cd	0.009487343
96	0xbc989185	-0.018624077
97	0xbc8c4c76	-0.017126303
98	0xbba386d2	-0.004990437
99	0xbbfed99e	-0.007777407
100	0xbca19671	-0.019725056
101	0x3c72816d	0.014801365
102	0xbcb43714	-0.02199892
103	0xbc91c852	-0.017795715
104	0x3d0f7800	0.03502655
105	0x3c75a3ab	0.014992635
106	0x3cccd3d3	0.02500335
107	0xbb374824	-0.0027966583
108	0x3ccaeadb	0.024770191
109	0x3bb2e3a9	0.005459268
110	0x3c75aadb	0.014994348
111	0xbbdeea89	-0.006802861
112	0xbcda1537	-0.026621444
113	0x3cadea7c	0.021229975
114	0xbc444c6a	-0.011981109
115	0xbc062fb3	-0.008190083
116	0xbc19e75b	-0.009393538
117	0x3c4496fc	0.011998888
118	0x3b039a73	0.0020081073
119	0x3c341078	0.010990255
120	0xbc1d44e9	-0.009598949
121	0xbcebdc68	-0.028791621
122	0x3caf3824	0.021389075
123	0xbb2a970d	-0.0026029975
124	0x3c3b4739	0.011430555
125	0xbbd87881	-0.006606162
126	0xbc5ec7f5	-0.013597478
127	0x3cdd46f3	0.02701137

module.module.1.module.module.2.weight f4 [128, 128]
0	0x3ca1e9de	0.019764837
1	0xbd11ee3c	-0.03562759
2	0xbe78c5a2	-0.24294141
3	0x3e1374b8	0.14399993
4	0x3e126449	0.14296068
5	0xbe91de1c	-0.28489769
6	0x3dda9bae	0.10674225
7	0xbe9458ca	-0.2897399
8	0x3d8676e5	0.06565646
9	0xbe957535	-0.29190984
10	0xbd193b8c	-0.037410304
11	0xbdb7c946	-0.08973937
12	0x3e1a7337	0.15083013
13	0xbc92d02b	-0.017921528
14	0x3db671e3	0.08908441
15	0x3dd6a4d0	0.10480654
16	0x3e0db1e1	0.13837387
17	0x3eb3c8d8	0.3511417
18	0x3e11eb9a	0.14250031
19	0xbc77221a	-0.015083814
20	0xbd3e15fb	-0.04640768
21	0xbd5b1fb3	-0.053497028
22	0xbc9bc233	-0.0190135
23	0xbd452efb	-0.048140507
24	0xbd51d439	-0.051227782
25	0x3d98a464	0.0745323
26	0x3dc6ad75	0.09701053
27	0x3e762fd6	0.24041685
28	0xbc3e36cc	-0.011609744
29	0xbc125903	-0.008932355
30	0x3e0471b1	0.12933995
31	0x3d4aa7e9	0.049476538
32	0xbe24a8cf	-0.1608002
33	0xbe205e6e	-0.15661022
34	0xbd9afa29	-0.075672455
35	0xbdc58daf	-0.096461646
36	0x3d5063f4	0.050876573
37	0x3d413100	0.04716587
38	0xbc3cb3df	-0.011517494
39	0xbc032d25	-0.008006369
40	0xbe46cbde	-0.19413707
41	0x3e2f0ff4	0.1709593
42	0xbd209241	-0.03920198
43	0x3d6da041	0.05801416
44	0x3dcb7e65	0.09936217
45	0x3e24c19b	0.1608948
46	0xbd8fa17c	-0.070132226
47	0x3da4a916	0.08040063
48	0x3dc950c9	0.09829862
49	0xbe026b1c	-0.12736171
50	0x3d13e9fa	0.03611181
51	0xbe291910	-0.16513467
52	0x3db5e7b6	0.08882086
53	0x3e192148	0.14954102
54	0xbe7fc872	-0.24978808
55	0x3d1403f1	0.03613657
56	0xbe5e3ab0	-0.21702075
57	0x3de46e64	0.11153868
58	0x3d5b82d8	0.05359158
59	0xbe0c8362	-0.13721994
60	0x3dd39264	0.10330656
61	0xbddef3e2	-0.10886361
62	0x3d42079b	0.047370534
63	0xbe09565b	-0.13411848
64	0xbe67c9dd	-0.22635598
65	0x3e0826c4	0.13296038
66	0xbdcf4591	-0.101206906
67	0x3d3ad197	0.045610037
68	0xbe019da1	-0.12657787
69	0xbdcf3d87	-0.10119157
70	0xbdc8ec4e	-0.098106965
71	0x3e0e4069	0.13891758
72	0xbd8a6ca2	-0.06759001
73	0xbdd377e8	-0.10325605
74	0xbde479db	-0.111560546
75	0x3cc96d9e	0.024588402
76	0x3d969f63	0.07354619
77	0x3e2f9cae	0.17149612
78	0xbbc2d654	-0.00594596
79	0xbd773c12	-0.060360022
80	0x3e1291b7	0.14313398
81	0x3c95cc73	0.018285966
82	0x3d9ef6a8	0.0776189
83	0x3e45b846	0.19308576
84	0xbd471cc2	-0.04861141
85	0xbe22ff26	-0.15917644
86	0x3df2a840	0.118484974
87	0xbe39b5c3	-0.18135743
88	0xbe83c9b2	-0.2573982
89	0x3e09b5a8	0.13448203
90	0xbda498c1	-0.08036948
91	0x3da6e823	0.08149745
92	0x3cbd882a	0.023136217
93	0xbdeeabda	-0.11653872
94	0x3dde4546	0.108530566
95	0x3a25b784	0.00063215964
96	0x3d609d07	0.054837253
97	0x3e5a3f24	0.21313149
98	0x3e053ada	0.13010731
99	0xbd508bfc	-0.05091475
100	0x3da90cac	0.0825437
101	0x3de51c44	0.11187032
102	0x3dd11160	0.10208392
103	0xbe4acd4b	-0.19804876
104	0xbe0b85fa	-0.13625327
105	0xbdda97e3	-0.10673501
106	0x3d8e87fe	0.06959532
107	0x3dcd7875	0.10032741
108	0x3e5cfe5d	0.21581407
109	0xbe195883	-0.14975171
110	0xbe1218ab	-0.14267223
111	0x3d3d2319	0.04617605
112	0x3bdfcdbc	0.0068299454
113	0x3cda56cb	0.026652714
114	0xbe95a4bf	-0.29227254
115	0x3c641250	0.013920382
116	0xbdd0535d	-0.1017215
117	0xbc450eae	-0.012027426
118	0xbc732259	-0.014839732
119	0x3c386e24	0.011256728
120	0x3d69a163	0.057038676
121	0xbd936591	-0.07197107
122	0xbe0942fc	-0.13404459
123	0x39ae56c8	0.00033252523
124	0xbd54c6ff	-0.05194759
125	0xbe071a84	-0.13193709
126	0xbc58ea5a	-0.0132394675
127	0xba2145d0	-0.00061520655
128	0x3e85cff6	0.26135224
129	0xbd44a6c6	-0.04801061
130	0xbaa4ea72	-0.0012582077
131	0x3d6c0861	0.05762518
132	0xbe0b3502	-0.1359444
133	0xbda80101	-0.082033165
134	0xbe04f9fc	-0.12985986
135	0x3d449026	0.047989033
136	0x3d74d208	0.059770614
137	0x3d17a232	0.037019916
138	0xbc8b2ea2	-0.01699001
139	0xbde3779f	-0.111068
140	0x3d4fc7bb	0.050727587
141	0x3cdeb11b	0.02718406
142	0xbca4666b	-0.020068368
143	0x3c6e4be3	0.01454446
144	0xbdce2cf9	-0.100671716
145	0xbd97ec3e	-0.074181065
146	0x3e3e3dda	0.18578282
147	0x3d9415a5	0.07230691
148	0x3dd82ff5	0.10556022
149	0xbde45221	-0.11148477
150	0xbd7f928b	-0.062395614
151	0xbe974f62	-0.29552752
152	0xbd59f5e7	-0.053213026
153	0x3d868fa7	0.06570368
154	0xbe0d2fe7	-0.13787805
155	0xbda5b92f	-0.080919616
156	0xbd0d50a0	-0.034500718
157	0x3e036361	0.12830879
158	0xbe754e1c	-0.23955578
159	0xbdc9efe9	-0.09860212
160	0xbd9b8e9c	-0.0759556
161	0xbd5ea8f6	-0.054360352
162	0xbe0714a8	-0.13191473
163	0xbe3255e6	-0.1741558
164	0x3db374d5	0.08762518
165	0x3de846d4	0.113416344
166	0x3de177e2	0.11009194
167	0xba2a7f48	-0.0006503952
168	0xbd838374	-0.06421557
169	0x3e00bf3a	0.12572947
170	0x3d8af3ce	0.06784783
171	0xbe895064	-0.26819146
172	0x3e2f30ac	0.1710841
173	0xbdb81f3f	-0.08990335
174	0xbdf65741	-0.12028361
175	0x3ddba695	0.107251324
176	0x3b3d0bb1	0.002884608
177	0x3e84d6e0	0.25945187
178	0x3da2e61a	0.07954045
179	0x3c865421	0.016397538
180	0x3d526c40	0.051372766
181	0xbd0072da	-0.03135953
182	0x3ddcf4da	0.10788889
183	0xbdfa334d	-0.12216816
184	0xbe5d5aab	-0.21616618
185	0x3e078ba7	0.13236867
186	0x3d94aab8	0.072591245
187	0x3d626e2a	0.055280842
188	0xbc92f931	-0.01794109
189	0x3e434da8	0.19072592
190	0x3e2954c8	0.16536248
191	0x3d16d3be	0.036823027
192	0xbd475687	-0.048666503
193	0xbe1e69cb	-0.15470044
194	0xbcf27951	-0.029598864
195	0xbd58df3e	-0.052947275
196	0xbd94f7a9	-0.072738
197	0xbd0002ad	-0.03125255
198	0xbdbe79dc	-0.093005866
199	0x3e6587a9	0.22415031
200	0xbe8163d8	-0.25271487
201	0x3d9f53e8	0.07779676
202	0x3e494bec	0.19657868
203	0x3e70a903	0.23501973
204	0xbdc44d4f	-0.09585058
205	0xbd94eadf	-0.072713606
206	0x3cdf075c	0.027225189
207	0x3e90d8bd	0.28290358
208	0x3e67ac92	0.22624424
209	0x3e913ba8	0.28365827
210	0x3ddfaecc	0.10922012
211	0x3d3ada52	0.045618363
212	0xbd43ec6f	-0.047832903
213	0xbe35801f	-0.17724656
214	0xbc2c1fe3	-0.010505649
215	0x3dd96f9a	0.106169894
216	0x3d220fed	0.03956597
217	0x3d99b3ab	0.07504972
218	0xbd965094	-0.07339588
219	0x3d7724d5	0.06033786
220	0x3cfd0c1d	0.030889565
221	0xbca80fab	-0.020515284
222	0xbe21093a	-0.15726176
223	0x3ceefb3c	0.029172532
224	0x3e3e73d8	0.18598878
225	0x3d9a9c12	0.07549299
226	0x3db27f62	0.087157026
227	0xbd4b284a	-0.04959897
228	0xbdff4751	-0.124647744
229	0x3e24046e	0.16017315
230	0xbd50af89	-0.050948653
231	0x3e9082d4	0.28224814
232	0x3e0e1792	0.13876179
233	0xbdbfc008	-0.09362799
234	0x3cea5db5	0.028609136
235	0x3e5fe751	0.21865584
236	0x3d27ebea	0.04099647
237	0x3e1cea89	0.15323843
238	0xbc79a3e7	-0.015236831
239	0xbe402d38	-0.1876725
240	0xbd91f36d	-0.07126508
241	0x3c2f9bbf	0.010718285
242	0xbd45c191	-0.048280302
243	0xbde48832	-0.1115879
244	0x3e39b5c6	0.18135747
245	0xbdc977de	-0.09837316
246	0xbc112c39	-0.008860641
247	0x3df02340	0.117254734
248	0xbe2c7f0d	-0.16845341
249	0x3d41f515	0.04735287
250	0xba11bf31	-0.0005559801
251	0x3b399c81	0.0028322043
252	0x3d62aa13	0.055337977
253	0x3e53f760	0.20699835
254	0xbdf4e308	-0.11957365
255	0xbd8f1166	-0.0698574

module.module.1.module.module.2.bias f4 [128]
0	0xbc759362	-0.014988752
1	0x3c05e854	0.008173067
2	0xbc88031f	-0.01660305
3	0xbc6d56f7	-0.014486066
4	0xbcf25647	-0.029582156
5	0xbcd1ccde	-0.025610384
6	0xbc9ec0d7	-0.019379063
7	0x3c2b8300	0.010468245
8	0x3cce0e6e	0.025153365
9	0x3b9d488e	0.004799909
10	0x3d110ed6	0.03541454
11	0x3a5af419	0.00083524134
12	0x3bcabfa8	0.006187398
13	0x3b1a6fd7	0.0023565197
14	0x3b02ee2a	0.0019978383
15	0xbb83a38f	-0.0040173004
16	0x3cd141c0	0.025544047
17	0xbb5179b5	-0.0031963412
18	0xbcb95c7d	-0.02262711
19	0xbc0a78bc	-0.008451637
20	0xbb2a24f2	-0.0025961963
21	0x3cae24e7	0.02125783
22	0xbcc97a53	-0.024594462
23	0x3ca718bd	0.020397538
24	0x3caa3ede	0.02078193
25	0xbc5b23ca	-0.013375232
26	0x3c8b53ba	0.017007697
27	0x3c0e5e75	0.0086895125
28	0x3bbca22c	0.005756637
29	0x3ced9c12	0.029005084
30	0x3c453ce3	0.012038442
31	0xbc19c14e	-0.009384466
32	0x3bd8a9bb	0.0066120303
33	0x3ca52f4d	0.020164156
34	0xbd11c681	-0.0355897
35	0xbc84e05f	-0.01622027
36	0x3c004de0	0.007831067
37	0x3b129a60	0.0022369847
38	0x3ca8ae8a	0.02059104
39	0x3c3dfc07	0.0115957325
40	0x3ccd2182	0.025040392
41	0x3b540ca6	0.0032356172
42	0xbc2a3ae9	-0.010390022
43	0x3a9d07f3	0.0011980518
44	0x3cadde84	0.021224268
45	0x3ce5775a	0.028011013
46	0xbc3deb98	-0.011591814
47	0x3c621359	0.013798558
48	0xbc069701	-0.008214713
49	0x3cb787eb	0.022403678
50	0xbd142157	-0.036164608
51	0xbc2df267	-0.010616875
52	0xbca76726	-0.020434927
53	0x3b5c6751	0.0033630917
54	0xbc24f921	-0.010069163
55	0xbc2d6230	-0.010582492
56	0xbcad9159	-0.021187471
57	0x3cc11971	0.023571702
58	0xbc7faea8	-0.015605606
59	0x3caf543c	0.02140247
60	0x3b522b38	0.0032069217
61	0x3c9b13b6	0.018930297
62	0x3d08c0ab	0.033386867
63	0xbbc412d8	-0.0059836917
64	0xbc96d86d	-0.018413747
65	0x3cd9f044	0.026603825
66	0x3ca976d7	0.02068655
67	0xbcdcf8f5	-0.02697418
68	0xbce790a0	-0.028267205
69	0x3ceba55b	0.028765371
70	0xbca3ce12	-0.019995723
71	0x3c54ae45	0.012981002
72	0x3c924c34	0.017858602
73	0xbbc4bff7	-0.0060043293
74	0x3b29ecfa	0.0025928603
75	0x3b2b3fe6	0.0026130616
76	0x3c20846c	0.009797197
77	0x3b833370	0.0040039346
78	0xbc063e68	-0.00819359
79	0xbc135cd0	-0.008994296
80	0x3b89f6c2	0.004210324
81	0x3ad2aa99	0.001607257
82	0xbbc6b455	-0.0060639777
83	0x3bf2a6a3	0.0074051186
84	0xbc89e304	-0.016831882
85	0x3cf0fe67	0.029418183
86	0x3c341024	0.010990176
87	0xbc96ae28	-0.018393591
88	0x3ab4bce5	0.0013789205
89	0x3c83136b	0.01600047
90	0x3c656500	0.014001131
91	0xbb78b142	-0.003794745
92	0x3c7a3a5e	0.015272705
93	0x3a9feb8e	0.0012200938
94	0xbca20499	-0.019777583
95	0xbcaa7a51	-0.020810278
96	0x3cf245e0	0.029574335
97	0xbca8b7a1	-0.020595374
98	0x3bb00c21	0.0053725396
99	0x3d03e636	0.032201968
100	0xbc2e0991	-0.010622398
101	0xbc4ab165	-0.012371396
102	0xbbc8eb75	-0.0061315843
103	0x3cc31c78	0.023817286
104	0x3bf9f5cf	0.0076281796
105	0x3c8ea42d	0.01741227
106	0x3c9bc5c3	0.019015199
107	0x3b2aee59	0.0026082008
108	0xbc2088fd	-0.009798286
109	0x3cdedac4	0.027203925
110	0x3c1a4544	0.009415928
111	0xbce6f45c	-0.028192692
112	0x3cbfc30a	0.023408432
113	0xbbcaa17c	-0.006183801
114	0xbba292ad	-0.004961333
115	0xbc9e3bec	-0.019315682
116	0xbb1d341b	-0.0023987356
117	0x3cac9561	0.021067323
118	0xba1eac29	-0.00060528755
119	0xbc2adf9d	-0.01042929
120	0xbb9718cc	-0.0046111103
121	0x3b79f854	0.00381424
122	0x3ca45084	0.020057924
123	0x3cbc6ec5	0.023002038
124	0x3c61de13	0.013785857
125	0xbca20857	-0.019779367
126	0x3d00d173	0.031449746
127	0x3cef3ede	0.029204782

module.module.1.module.module.4.logstd f4 [1, 4]
0	0xbc2db0b0	-0.010601208
1	0xbcc2f74d	-0.023799563
2	0xbc865446	-0.016397607
3	0x3acc2458	0.0015574796
